experimental_results/08250716_decolearn_is_optimize_regis=[true]/regis_model/best_valid_ssim.pt (torch, 975031 bytes, 25 tensors)

unet_model.enc.0.main.weight f4 [16, 2, 4, 4]
00000000: 892b 363c 2058 573d b988 b43d e051 debd
00000010: 567c 54be 3422 b83d 65a8 bcbd b61b 003e
00000020: bf7d ffbd 30d7 37be b31c 2a3e a643 103e
00000030: 9a86 a4bd 0a64 44be d939 07be 4bb5 f939
00000040: e344 6ab9 0358 88bd e87e 513e 9e32 d6bd
00000050: 6d22 babd f74f 03be 3f7e 403d 8400 473e
00000060: 3a6e e13d c790 233e e0e8 92bc 5d4b 653e
00000070: d2b0 b0bd 97a5 39be f639 c9bc 8ade 1e3e
00000080: c0e2 3cbe a3ea 6fbd 7dc2 ebbd 301d 023d
00000090: 36fa 393c 7e7f e7bd 1ede dbbc dea7 26bd
000000a0: af20 783c cd30 5abe 2beb febc a4c1 89bd
000000b0: 7e5a 32bd aafe 353d 6820 acbd d741 113e
000000c0: 9bee ab3d b17e 1c3d b6e2 b83d b333 a4bd
000000d0: d597 8a3d 3303 413d 8d10 59be 1ea3 75bd
000000e0: e500 023d 41ec cebd 7ebb 36be 8d19 c33d
000000f0: cdc2 03be 447e 8bbc 80f2 e33d f3b1 4bbe
00000100: b9b7 71bc 2e8c 453e 2537 2d3e 4074 9abd
00000110: 9229 713d 6fe7 193e 729a e63d 9174 3b3e
00000120: c864 7f3c 1a28 a43d c7f6 ea3d 5418 aebd
00000130: 3e34 093d 1ac1 503e 09fa fc3d acb8 24be
00000140: d285 0bbe cd45 2c3e b1bd e63d 24d7 fdbd
00000150: 9f34 ecbd 8f6f 76bc 9930 6dba 57a4 b8bd
00000160: 2e39 d7bd a47b d33c 528f 1fbe 5fe5 45be
00000170: 29a3 3cbd 7079 5a3d 32c8 4bbe 2ee6 03bd
00000180: 0684 8ebd 4df8 983b de28 173c f85d 5fbe
00000190: c412 34bd e087 663d 083f 65be a153 e9bd
000001a0: 8e3e 803d fcc3 a03d fe32 72be 3fac c0bd
000001b0: e283 823c b45b 2bbe e653 13bd 5d2b 5bbe
000001c0: 1970 c63d e1c1 173e 7fe5 383e 79e8 9b3d
000001d0: 0eaf 463e e6e6 c7bd fd2e 9dbd 2b5b aabd
000001e0: 55db 2c3e 2f35 193e c6f4 3f3e 4f6a 30be
000001f0: 25bd 163e 53af 8f3d 8511 163e 4c13 a4bc
00000200: c4f9 afbd e4c4 f4bd 50cc 453d b74c a8ba
00000210: 9c69 40be 802e 2bbd ad2d debd 0fde cd3d
00000220: 995c c13c 75a4 3abe 7cb8 093e 4627 eb3c
00000230: c9d8 53be 3408 f63d 59a4 d73d b686 443e
00000240: aea1 383d 7943 3cbc 1d3c d33d 2f45 0dbe
00000250: 500b 97bd 3fc8 07be 87e3 afbd 79b4 4b3e
00000260: 5a3c ca3d b51b a2bd 50ed de3d 3eba e03c
00000270: 0a6c e43d 92e4 2e3e 32bf 013d ed67 b93d
00000280: cf9e 963d f463 323d 6ecd 9dbd 4174 38be
00000290: 6c63 bebd adb0 f7bd fad4 273e ae16 843c
000002a0: cc5c 5e3e 6ebc 1b3e 64f2 2a3d b0d5 5abd
000002b0: af94 24bd afc3 9bba 32f1 923d f5d0 9cbd
000002c0: 67e3 263e 3480 343e 6f9a 03bd 7cb6 afbd
000002d0: ef21 ec3d 4bb5 3b3e 14fe 15be 0ce5 56be
000002e0: d8c0 d43d dea1 bc3d a743 b1bd 66bb 83bc
000002f0: b14f 073e e7e2 903b e9e4 aa3d a883 3c3c
00000300: 115b 193e 1537 803d 44e3 863a 5f91 92bd
00000310: 766c e0bd 7e6a e43c aad2 ca3d 22c5 01be
00000320: 61c3 99bb d02b 47bd 99ff babd 65ac 12be
00000330: 5cb4 00be 9310 f7bd 7343 83bd b603 603a
00000340: 921b ba3d 14f2 6d3e b566 863d d2dc fa3d
00000350: b617 c33d cd2f 3c3e f3a6 973d 3c74 353e
00000360: e2dd d23d 8fe0 56bd 0986 3a3e da3e d83c
00000370: 2021 a4bc 38fa d03d d919 1cbe 3d58 8a3d
00000380: 65da 14be 8a29 5bbe 0170 c5bd 6857 eabd
00000390: 74c8 05be 08e9 01be f23e 223e d5e7 9c3d
000003a0: d9a6 a3bd 1126 82bd 22bd d1bd 951c 0dbd
000003b0: 5308 3abd 483e f8bc edd1 463d c4b0 7dbd
000003c0: c296 efbd fa23 d53c e2ed 4a3d 593e 3dbd
000003d0: 49b8 683d b921 c8bd b7d7 1b3e ac9e 6b3d
000003e0: bd1f 833d a18f b23d c868 293e 8e55 c33d
000003f0: 56e1 b63d b9d7 e73d 0b2d 4d3e 4cd3 8d3d
0.011118778 0.052574277 0.0881514 -0.1085546 -0.20750555 0.08990899 -0.09211806 0.12510571
-0.12475156 -0.17953181 0.1661251 0.14088306 -0.08033486 -0.19178787 -0.13205661 0.00047628055
-0.00022341641 -0.06657412 0.20458567 -0.10458873 -0.090885974 -0.12823473 0.046995398 0.1943379
0.11007352 0.15973197 -0.01793331 0.2239203 -0.08627476 -0.18129574 -0.02456377 0.1551458
-0.18445873 -0.058573376 -0.11511705 0.031766117 0.011351159 -0.11303614 -0.026839312 -0.040687434
0.015144511 -0.21307679 -0.031117996 -0.06726387 -0.04354333 0.04443232 -0.084046185 0.14185272
0.0839512 0.03820676 0.09027617 -0.08017673 0.06767241 0.04712219 -0.2119772 -0.059970014
0.031739134 -0.101036556 -0.1784496 0.09526358 -0.1286728 -0.017027982 0.111302376 -0.19892101
-0.014753276 0.19291756 0.16915567 -0.07541704 0.058877535 0.15029691 0.11259927 0.18306185
0.015587993 0.08015461 0.1147285 -0.08500734 0.033497088 0.20386162 0.12352378 -0.16086072
-0.13625267 0.16823502 0.112666495 -0.123945504 -0.11533474 -0.015041246 -0.0009048074 -0.0901572
-0.10508953 0.025815792 -0.15582016 -0.1932578 -0.04605404 0.053338468 -0.19900587 -0.03220194
-0.06958775 0.0046682716 0.009226052 -0.2181319 -0.04396321 0.056281924 -0.22387326 -0.11392904
0.06261931 0.07849881 -0.23652264 -0.09407853 0.015932027 -0.167342 -0.035968684 -0.2140326
0.0968935 0.14820053 0.18056296 0.076127 0.19402716 -0.09760837 -0.07674978 -0.0831817
0.16880544 0.14961694 0.18745717 -0.17228054 0.1472059 0.07015862 0.1465512 -0.020028733
-0.08592561 -0.119516164 0.04829055 -0.0012840246 -0.18790287 -0.041792393 -0.10848556 0.1005212
0.023603724 -0.18226798 0.13449281 0.02870525 -0.20688166 0.12013283 0.10529394 0.19192013
0.045076065 -0.011490696 0.103142 -0.13795923 -0.073752046 -0.13259982 -0.08588319 0.19893064
0.098747924 -0.07915441 0.108851075 0.027432557 0.11153419 0.1707938 0.03167648 0.090530254
0.07354509 0.043552354 -0.07705198 -0.18013097 -0.09296307 -0.12094245 0.16389838 0.016124096
0.21715087 0.15208599 0.041735068 -0.053426445 -0.04018086 -0.001188388 0.071749106 -0.07657043
0.16297685 0.1762703 -0.0321297 -0.08579728 0.1152991 0.18330877 -0.14647704 -0.20985812
0.103883445 0.09210561 -0.08655482 -0.01608057 0.13213994 0.00442158 0.083444424 0.011505999
0.14976145 0.06260506 0.0010291119 -0.071566336 -0.10958187 0.02788281 0.09903462 -0.12672856
-0.0046924804 -0.048625767 -0.09130783 -0.14323576 -0.12568802 -0.12063708 -0.06409349 0.0008545475
0.0908729 0.23236877 0.065625586 0.122491494 0.09526007 0.1837761 0.0740489 0.17720121
0.10296227 -0.05246025 0.18215193 0.026397157 -0.020035326 0.102039754 -0.15244235 0.06755111
-0.14536436 -0.21402565 -0.09640504 -0.11442453 -0.13064748 -0.1268655 0.15844324 0.07661406
-0.07990808 -0.06354917 -0.10241152 -0.034451086 -0.045418095 -0.030303136 0.048540045 -0.061936155
-0.11698677 0.026018132 0.04954327 -0.046202037 0.056816373 -0.09772057 0.15219007 0.05752437
0.06402538 0.08718801 0.16543877 0.09537803 0.08929698 0.11320443 0.20036714 0.06925067

unet_model.enc.0.main.bias f4 [16]
00000000: 4f1b 773c 81f8 b83d a43f 0dbd 4d27 633c
00000010: 1b24 5abc cdfd dfbd 0958 93bd 49da 323b
00000020: be4a e13c 4cf1 b0bd b8e5 5bbd 8639 c93d
00000030: d0f1 d03d 99bf e8bd 172f 73bc 87b1 ef3d
0.0150821945 0.09031773 -0.03448452 0.0138643505 -0.013314272 -0.109370805 -0.07194526 0.0027290753
0.02750146 -0.08639774 -0.053685874 0.09825425 0.10202372 -0.11364669 -0.01484277 0.117037825

unet_model.enc.1.main.weight f4 [32, 16, 4, 4]
00000000: 22a0 d5bb c9b9 433d 408b 49bc 05e0 8e3c
00000010: 887a 11bc b9c1 19b9 09c3 973c 00c9 9a3d
00000020: 05bc 953b 22b8 4dbd 10f2 5f3d 31d3 953d
00000030: a6c2 693c f06a d8bb 761d debc 8988 913d
00000040: 6a55 b23d 194a 4cbc 0258 9cbb f4e0 dd38
00000050: 0329 593d c32e b93d 570e dabb f610 5d3c
00000060: d375 373d d779 673c 3fa3 a13d 60a0 653d
00000070: 055a 383d f61c b8bb a7c0 753d 4413 803d
00000080: 048a b53c 5188 8dbd 4d2a 1fbd 4cfd 083d
00000090: c04e c3bc e763 f83c 8b74 22bd 1a1d 44bd
000000a0: 3f64 033d f149 72bb 69aa 4c3d d0bb 293d
000000b0: 7463 12bc d28c 8b3d 8e27 973b c54b b4bb
000000c0: aaca 4c3d fb2b c13c 8471 3a3d 5d09 b4bd
000000d0: 2956 923d 25c8 a13d 1978 4cbd e164 d0bd
000000e0: 5145 d93d 1486 f73d 6434 a13d 303d bebd
000000f0: 17cd 183e ce22 143e 4287 ae3d f72e a83c
00000100: 8dd4 ecbc 95e9 1bbc 4b94 813d 6640 923d
00000110: 5330 1e3b a0f9 ad3a c707 4f3d 0501 09bd
00000120: 7d82 4dbd 2b05 2bbd 38c6 1dbd 1efb 83bd
00000130: 483e bebc 99cd 81bd 0501 6cbd d438 ae3c
00000140: 6305 af3c ca4f 313d 5a8f 96bc c793 4dbd
00000150: 3f32 8dbc d150 dbbc e288 a03d 54c9 a13c
00000160: 58fd c3bc e54d 983d 440e b83c ed58 cabc
00000170: 0589 473d 3954 cd3c c9eb 963d 17b0 9d3c
00000180: 5ea1 7fbd ca37 40bd 3d2e 533d cddc c2bc
00000190: 16de f73c b276 da3c f41a 50bc 9440 1fbd
000001a0: d2bc 30bd 8c6d e63c b414 6fbd 77aa 7d3c
000001b0: 18cd 98bb f8d3 65bd 5c8d 8fbd 74df ae3c
000001c0: f54c c73d da4d a83c a98a 973c 0885 02be
000001d0: 3941 cebc 09fb 7ebd ef89 01be 6933 0bbe
000001e0: 67a5 873b 4a3a abbd 4a5b 80bd b7a6 f0bd
000001f0: eab6 00bd e1f8 c03b b89c 95bd 9a37 5dbd
00000200: 34cd 893d f96e 003d 83b5 57bd 7bd1 81bc
00000210: 2a9d 7e3d 44ed 7f3d 63e7 943c b799 cdbd
00000220: 9197 003d 568b d7bc 3f3b 71bc 3f3f 5dbd
00000230: 4f1a 123d 55bf 033d 9138 3e3d 6141 a63d
00000240: 1374 22bd 2019 b83d d9c6 8b3d 4278 c03d
00000250: 57fe 84bc 0ac9 943d a8e3 353c 9f3d 63bc
00000260: c9b8 713c c4a0 603b 0c28 37bb 5990 8f3c
00000270: 8ae9 223d cbc6 7f3c 5ffe 633d b414 183d
00000280: 6c27 6ebc 9414 563d 8065 b33a 6781 0e3d
00000290: c816 a33d c2c5 923c 0a3e 28bd e3d1 533d
000002a0: 02f3 b93c 2b3d 5b3b 680e 123d c7d9 ebbc
000002b0: 6957 a83d 70d6 853d e60d a7bb a886 f13c
000002c0: 1f11 173d c03c 913c 5b70 213d 62bd 3a3c
000002d0: d24b b13c dcaa bcbc bb92 4fbd 043f 373d
000002e0: b743 873d 869b 353d 83ba 833c b16f 66bb
000002f0: 9244 bb3c fb03 043d 1d70 12bd 5e80 a2bd
00000300: ff18 b3bc 25a0 4f3d 64c2 45bd db86 c8bc
00000310: 320f 803d 32a7 a73d 385a 353d 2c48 5f3d
00000320: 79c9 8f3d 5d83 9d3d 8ede 703d 0bf6 3d3d
00000330: 5264 d9bc 72f3 ebbb 8350 30bd c650 89bc
00000340: d66f 03bc 9165 fbbc 7ab4 5f3d c0c6 a43c
00000350: 58e0 6a3c 9328 a13c 36e5 1f3d 3edd e03c
00000360: c6b1 b4bb 8595 213d 9c1e 92bd 867d 3ebd
00000370: 91ca d639 73a0 e2bc 4bc3 43bd 048f 11bd
00000380: 614b c8bd 48c7 b4bc e58f a6bd 2415 163d
00000390: 9655 183b 484e 9abc 7619 143d 549f 46bb
000003a0: dcb3 973d c74e 1e3c 6b65 7c3d bb04 f9bb
000003b0: 6d86 e43c 9c21 5c3d a234 483c be27 bdbc
000003c0: 0dfd 813d 4aa1 e4bc d8fd 0dbd ffcd 5a3b
000003d0: edfc f93c a6f7 e3bc d145 bcbb ab66 e4bc
000003e0: 3288 d93c d539 833d 9d88 ce3d 4f3a bebc
000003f0: 7d3d 02bd 9014 14bd a422 033b 57ab 6e3c
-0.0065193335 0.0477846 -0.012301266 0.017440805 -0.008879311 -0.00014663384 0.018525617 0.07557869
0.004569533 -0.05022443 0.05467421 0.07315672 0.014267599 -0.006604545 -0.027113657 0.0710612
0.08707698 -0.012468838 -0.0047712335 0.00010580002 0.053017627 0.09042122 -0.0066545415 0.013492813
0.0447901 0.01412817 0.07892465 0.05606115 0.045007724 -0.005618687 0.05999818 0.062536746
0.022160538 -0.06910766 -0.0388587 0.033444688 -0.023841262 0.030321075 -0.039661925 -0.047879316
0.032078024 -0.0036970342 0.049967203 0.041438878 -0.008934844 0.06813969 0.0046128696 -0.0055021965
0.049997963 0.023580542 0.045518413 -0.087908484 0.0714534 0.07899503 -0.04991922 -0.10175491
0.10608924 0.1208612 0.07871321 -0.09289014 0.14921986 0.14466402 0.08521892 0.020530207
-0.028909946 -0.0095161395 0.06327113 0.07141189 0.002413769 0.0013273247 0.050544526 -0.033448238
-0.05017327 -0.041752975 -0.038519114 -0.06444381 -0.023223057 -0.06338043 -0.05761816 0.021267332
0.021364873 0.043288983 -0.018378902 -0.05018976 -0.017235873 -0.026771935 0.07838608 0.019749321
-0.023924515 0.07436732 0.02246774 -0.024700606 0.048714656 0.025064575 0.07369191 0.019249005
-0.06240975 -0.046928205 0.051557768 -0.023786927 0.030257266 0.026667926 -0.012701739 -0.038879946
-0.043148823 0.028128408 -0.058369353 0.0154825365 -0.004663121 -0.056110352 -0.07009384 0.021346785
0.09731475 0.020544935 0.018498736 -0.1274606 -0.025177585 -0.062251125 -0.12650274 -0.1359383
0.0041395905 -0.08360727 -0.06267412 -0.11750548 -0.03142444 0.0058890437 -0.07305282 -0.054008104
0.067285925 0.03135583 -0.052663337 -0.015846958 0.062161602 0.062482134 0.01817674 -0.100390844
0.031394545 -0.026311558 -0.014723598 -0.054015394 0.03566962 0.03216489 0.046440665 0.08117939
-0.03966148 0.08989167 0.068250366 0.09397937 -0.01623456 0.07264908 0.011101641 -0.013869672
0.014753529 0.0034275511 -0.0027947454 0.017524885 0.0397735 0.015611361 0.05566251 0.03712912
-0.014535766 0.05226572 0.0013686866 0.034791376 0.079633296 0.017916564 -0.04107479 0.051713835
0.022698883 0.0033453207 0.03565827 -0.028790368 0.08219797 0.06535041 -0.0050980924 0.029483154
0.036881562 0.017729163 0.03941379 0.011397691 0.0216426 -0.02303069 -0.050677042 0.04473783
0.066047125 0.04433777 0.016080147 -0.0035161788 0.022859845 0.03223036 -0.03575145 -0.0793464
-0.021862505 0.050689835 -0.04828109 -0.024478367 0.06252898 0.08186187 0.044275492 0.054512188
0.0702085 0.07691071 0.058805995 0.046377223 -0.026537094 -0.007200652 -0.043045532 -0.016762149
-0.008022269 -0.03068808 0.054615475 0.020114303 0.014335714 0.019672668 0.039036952 0.027449246
-0.0055143563 0.039449234 -0.071347445 -0.046506427 0.00040968184 -0.027664399 -0.047793668 -0.03553678
-0.097800024 -0.022067681 -0.081329145 0.036641255 0.0023244373 -0.018836156 0.036157094 -0.003030737
0.07407352 0.009662337 0.061620157 -0.007599441 0.02789613 0.05374299 0.01221958 -0.02309024
0.06347094 -0.02790894 -0.034665912 0.0033386943 0.030516112 -0.027828049 -0.0057456275 -0.027880987
0.0265542 0.06407515 0.10084651 -0.023221163 -0.03179692 -0.036152422 0.002000966 0.014567218

unet_model.enc.1.main.bias f4 [32]
00000000: cf5f 34bd 5f4e 01bd 37b4 5ebc f139 1b3d
00000010: 0337 ef3c 977c 3abd 18ea 39bd 87f5 a43c
00000020: 8fc0 b2bc 52c2 d43c e545 9e3b 5c3a acbc
00000030: 7402 573c 8648 483d 3bf5 d13c b330 a6bc
00000040: f276 be3c d271 f8bc 0b93 963b cf51 18bc
00000050: f5a5 f9bb fd34 2b3d 0385 3b3d f974 f93b
00000060: 3993 3bbc 9ccf 0f3c 50a2 bf3c 2c56 1a3d
00000070: 5da8 c13c 5f5b 99bc 708a a039 fd65 5abd
-0.044036683 -0.03156888 -0.013592771 0.037897054 0.029201036 -0.045528974 -0.045389265 0.020136608
-0.021820335 0.025971565 0.0048301094 -0.021023922 0.013123143 0.04889729 0.02562963 -0.020286893
0.023250077 -0.030327711 0.0045951656 -0.009296848 -0.0076186606 0.04179858 0.045781147 0.007612821
-0.011448675 0.008777525 0.023392826 0.037679836 0.023639852 -0.018720327 0.00030620722 -0.05331992

unet_model.enc.2.main.weight f4 [32, 32, 4, 4]
00000000: 2701 18bd 2d2f 29bc 589c 113d 098f 2fbb
00000010: 8304 21bc 7dc8 5abd 12ec 96bc 598d 303d
00000020: 2010 80bd 0d73 163b 7f8e a4bc 8f0f b63c
00000030: 0d89 bcbd 0797 10bd 4faa 26bd 87ef 99bc
00000040: 4760 3dbd b055 0abd 1595 a23b 9626 163c
00000050: 2489 87bd 03b0 04bd 91f0 9abd b146 2abd
00000060: 44d0 26bd 708e c2bd 64c2 d3bd 8056 c4bd
00000070: 9b61 e5bd 2e7b 96bd d13e 5dbd 3a5c 90bd
00000080: 8018 e0bc 3ccc 8fbd 7ce2 53bd 39aa 00be
00000090: 8c09 14bd 8c0c 24be 1925 0fbe c157 efbd
000000a0: f43d 67bd 92e1 03be be3a 2bbe 7c57 9ebd
000000b0: 5f01 9fbc 9b46 a9bd 6327 b0bd 050e 8cbd
000000c0: 72d9 cebb d36c d8bc 0fd8 ac3d ae09 b4bc
000000d0: 7134 de3c 9644 c43c 576d 253d 7d27 3d3d
000000e0: 8e76 1abd 562d 783a 14fc 193d 59ea 86bc
000000f0: e059 41bc 04f0 32bd dade 99bc 06fb 81bc
00000100: b8a8 603d 7ab4 953d e76c 243d 3ae5 9c3d
00000110: 173f b2bd 2622 af3c b7ff a03b 572e 0bbd
00000120: 18a7 d3bc 419c d23b c05e 873c a2a3 9a3c
00000130: 8bf9 2a3c 45ce cc3d 4bf2 bd3c a3fb 8f3c
00000140: f0a2 103d eb9b 66bc 561f dd3b bdb1 143d
00000150: 4dde 90bd 9cb5 f4bd e73c 99bd 2f2a 87bd
00000160: ecf5 61bd a5c9 bcbd 39b8 eebd efd5 d3bc
00000170: 49ac 84bd 9ed5 a3bd fa42 bebd b393 ccbd
00000180: d73a 1f3d 3ef8 f43c 24d3 993d 20b0 18bb
00000190: e870 473d 34d2 1a3d c2da 983d bc2c 003d
000001a0: d532 ffbc 78cc bf3b c349 e6bc 8945 863c
000001b0: 316e 88bc 546d e8ba 67f8 10bc bfe3 933c
000001c0: 50e2 2abd c2f6 6bbd 4b0e 26bd c87e 1f3c
000001d0: 28d6 40bd be60 5bbd a669 32bd 73c7 77bc
000001e0: fe0b 1dbb 3b9f edbc 7fe5 a03c 2c62 233d
000001f0: 5a79 61bd 1265 453c 31df 3e3c 9c48 f9ba
00000200: 480c 6bbc 42bc 8abb 26f6 a7bb 765f 823c
00000210: 123e 19bd e413 88bd c846 19bc 2d7d 38bc
00000220: df4b 623c 4429 2cbd ac06 63bd c5b0 5ebd
00000230: 3fd3 f1bc ab7b 20bc 7a80 5bbd e47c 283c
00000240: 3b7b f33b fc5d 113c 2eaa 133d a42a 343d
00000250: 61f8 4e3c ded4 fc3c 9ab6 833c a984 24bd
00000260: 7eac f5bc dd76 ce3a c6a5 14bd 4cb0 e33c
00000270: b5e7 2bbd ccc8 1bbd 6d11 af3b 12ab b3bc
00000280: 10b9 b7bb 1d41 0b3b 13cc 113d 5ac6 343c
00000290: 75c0 d93b 91d0 a9bc 5222 853d 0b5d 0fbd
000002a0: dbf9 573d 93ce 813c 0b9c 59bc 0c78 0abc
000002b0: 0dfa 9bbc 3cd7 1d3d e4ab 60bd 0f41 533c
000002c0: 7f47 a33d d1c6 a83d 6c77 823d 3ddc 7e3d
000002d0: 30d1 313d 6606 a53d 2704 fd3c 9919 a83c
000002e0: 30e9 d3bc 2966 5d3d 84a7 c2bc aa9b 6d3d
000002f0: 0eae 04bc eb8c cdbb 7256 283d 7801 0a3d
00000300: 50de 453d 8f55 223d 6d28 1fbd 8944 f9bb
00000310: 3753 02bd 5784 d6bc 8a2e abbd 6244 513d
00000320: 209c f63b 4cff 8eba b59b a5bd 558e 3f3d
00000330: b28d a7bc 8687 623c d34c 783b d2bd d7bb
00000340: e4a6 c53b 3ea3 51bc c831 babc 020f babd
00000350: 8929 4d3c b1af ee3c 0243 90bc 359d a5bd
00000360: 2052 b23b d4ba 45bc 9b31 a0bd 2c60 36bd
00000370: 3dcc 67bc fb91 5cbd 72b0 8dbd af8a 81bc
00000380: 69ef 153d 9ff4 72bc a42d a5bb fe25 39ba
00000390: 06fa 033d 8295 43bd 3f76 6dbb 549d eebc
000003a0: 768d c3bb a08d 8d3c b7d6 7fbc 5f8f 1d3d
000003b0: 966b ba3c fa93 2a3d d982 04bd 7b6e e2bc
000003c0: 4cf7 c8bc aa41 8dbd 70a5 5d3c 76f6 d6bc
000003d0: b32f 47bd 68c6 a3bc 00f2 f7bc 790c d3bc
000003e0: 40a1 aabd 2758 17bd 8321 3ebd d12e 5ebc
000003f0: 5a44 a9bd c3e9 92bd adf4 7fbd 715d f0bc
-0.037110474 -0.010326189 0.03554949 -0.0026788136 -0.009827736 -0.053413857 -0.018423114 0.04310355
-0.062530756 0.002295676 -0.020087479 0.022224216 -0.09205828 -0.03530028 -0.040689763 -0.018790973
-0.046234395 -0.033773124 0.0049616196 0.009164473 -0.066179544 -0.03239442 -0.07565416 -0.041571323
-0.04072596 -0.09499824 -0.103398114 -0.09586811 -0.112002574 -0.073477134 -0.054014985 -0.07048841
-0.027355433 -0.070213765 -0.051729664 -0.12564935 -0.036141917 -0.16020411 -0.13978995 -0.116866596
-0.056455567 -0.12879017 -0.16721627 -0.0773153 -0.019409833 -0.0826542 -0.086012624 -0.068386115
-0.0063125426 -0.026419079 0.084396474 -0.021977272 0.027124615 0.023958486 0.040387478 0.046180237
-0.03771072 0.0009467205 0.037593916 -0.016469168 -0.011801213 -0.043685928 -0.018783022 -0.015866768
0.054848403 0.07309814 0.04014292 0.07660909 -0.0870344 0.021378588 0.004913296 -0.03397974
-0.025836512 0.0064273183 0.016524673 0.018876854 0.010435472 0.1000028 0.023186823 0.017576044
0.03531164 -0.01407526 0.0067481203 0.036302317 -0.070736505 -0.11948702 -0.07482319 -0.06599843
-0.05516617 -0.09218148 -0.116562314 -0.025858847 -0.06478173 -0.079997286 -0.092901185 -0.09989109
0.038874473 0.029903527 0.07510975 -0.0023298338 0.04869166 0.03779812 0.074636 0.031292662
-0.031152168 0.005853232 -0.028111344 0.016390579 -0.016654106 -0.0017732778 -0.008848286 0.018052934
-0.041719735 -0.057608373 -0.040540975 0.009734817 -0.047079235 -0.053559057 -0.043557785 -0.015123236
-0.0023963447 -0.029006591 0.019640682 0.039888546 -0.05504737 0.012048023 0.011649893 -0.0019018832
-0.01434619 -0.004233868 -0.0051257787 0.01591466 -0.03741271 -0.06644419 -0.0093552545 -0.011260313
0.013812034 -0.04203154 -0.055426285 -0.0543678 -0.029519675 -0.00979511 -0.05358932 0.0102836825
0.0074304617 0.008872505 0.036050968 0.043985978 0.01263246 0.030863222 0.016078282 -0.040165577
-0.029989477 0.0015751977 -0.036290906 0.027794026 -0.04196902 -0.03803329 0.0053426535 -0.021932159
-0.005606778 0.0021248527 0.03559501 0.011033619 0.006645257 -0.020729335 0.06500687 -0.035000842
0.052728515 0.015845573 -0.013281832 -0.008451473 -0.019040132 0.03853534 -0.054851428 0.012893929
0.07972621 0.08241046 0.06370434 0.062221754 0.043412387 0.08057861 0.030885769 0.020520018
-0.025868028 0.054052506 -0.023761518 0.05800978 -0.0080981385 -0.0062729022 0.041098066 0.033692807
0.048307717 0.039632376 -0.038856912 -0.007607047 -0.03181764 -0.026186151 -0.08358486 0.051090606
0.007525936 -0.0010909825 -0.080863394 0.046766598 -0.020453308 0.013826257 0.0037887588 -0.0065839076
0.006031858 -0.012795268 -0.022728816 -0.09084894 0.01252211 0.02913651 -0.017610077 -0.080866255
0.005441919 -0.012068469 -0.078219615 -0.04452531 -0.014147815 -0.053850155 -0.0691842 -0.0158132
0.036605272 -0.01482883 -0.005040841 -0.0007062851 0.032220863 -0.047750004 -0.003623381 -0.029127754
-0.005967791 0.017279446 -0.015615157 0.038466807 0.02275638 0.041645028 -0.03235135 -0.027640572
-0.024531983 -0.0689729 0.013528213 -0.026240569 -0.048629474 -0.019992068 -0.030266762 -0.025762783
-0.08331537 -0.036949303 -0.046418678 -0.013560967 -0.0826499 -0.07173493 -0.0624892 -0.029341431

unet_model.enc.2.main.bias f4 [32]
00000000: a128 773c 155a 733c 67e6 223d da4e 4ebc
00000010: d3af 0e3d af76 0b3d ce67 41bb 8ad3 c3bc
00000020: 3b52 b73c 3ae1 393c 8a33 0f3d 4284 483d
00000030: 7136 fabc d04c 1d3d e133 cf3c 2604 d93c
00000040: 04ea ba3c 960c bc3c afa5 d03c cc09 1d3d
00000050: 96c8 c3bc 40c6 78bc 05fe bd3c 4bd2 933c
00000060: 3b5d 0239 4d55 073c 4922 8d3d 7e04 31bc
00000070: 2f14 72bd b7b6 babc 225c 1a3d 2370 553b
0.01508537 0.01485302 0.03977051 -0.012592042 0.034835648 0.034048732 -0.0029511335 -0.02390458
0.022378078 0.011345202 0.03496126 0.048954256 -0.030543538 0.038403332 0.025293292 0.026491236
0.022816665 0.02295522 0.02546963 0.03833942 -0.023899358 -0.015183985 0.023192415 0.018044611
0.00012432497 0.008260083 0.06891305 -0.010804294 -0.05910128 -0.022792203 0.03768552 0.003256806

unet_model.enc.3.main.weight f4 [32, 32, 4, 4]
00000000: 34d2 79bd 3a2b bc3c fd89 6cbd b1d7 5b3d
00000010: c2fc bcbd d605 11bc 69c0 c33c 6aa9 dfbb
00000020: 87f2 2dbe 5d59 65bd 7892 1e3c 4fdd 143d
00000030: b7fb cebd 805d 75bc 4695 c83d ffd0 19bc
00000040: be8f a7bd d6c6 e2bd ae41 56bd 3d27 203d
00000050: 2fa1 65bd 3c5f 8ebd b8a2 83bd d9bb ee3b
00000060: 4aa6 ca3c fbf3 3abd 74e5 20bb 4e24 613c
00000070: 6733 923d 1bb3 233b 9c73 3c3d dd1d 953c
00000080: b112 58bd c17e d3bb 53a8 1b3b e0e0 543d
00000090: c61c 40bc a30f 8bbc 8d1e b43c 25ad bd3c
000000a0: ac21 0dbd 4a34 99bb 0fe7 143d 754e 8b3c
000000b0: d39e b1bb d62f b23c fb27 29bc 8987 173d
000000c0: 94f5 0c3d af76 4fbc 9105 a8bc de9b debd
000000d0: 9c14 883c 574f 8dbd 818b a2bd fa02 943a
000000e0: b2b0 d13c f548 a8bc e66f f4bc 18e4 6bbc
000000f0: e517 153c 9c63 fe3c 4be9 29bd 9314 ac3c
00000100: c5a3 00be c44f 8bbd 844b 85bb 0957 0a3d
00000110: 30c0 b5bd 941a bcbd ab93 bfbd c651 f93c
00000120: aa00 eabd 46a9 dabd a857 c9bc d3ec d63c
00000130: f796 d53c eb36 a23c bc68 dd3c 91b6 8c3c
00000140: 92d6 86bd c613 923c 7ed7 0f3d a07f 5dbb
00000150: 2350 b9bb 915b 95bb d05d cd3c cd03 2c3d
00000160: 3720 c6bc 9410 b0bc 39c3 0bbc bc6f aa3c
00000170: 3bbe dbbc ba90 c13c eb3c 823c 8cc4 363d
00000180: 2c70 783c f103 f33c 59c8 393d 378f 853c
00000190: 1ed9 613d 0ca4 4d3c ad3f dd3c a19c 143d
000001a0: 5c4d 6abc 9a39 fe3b 8c20 bb3d 949d 933d
000001b0: d999 893c 6142 963c 1935 20bc 8dd1 8dbb
000001c0: e088 4ebd 1b4a e83b 4d05 4dbd e704 90bd
000001d0: a8bf 69bc bdd7 1dbd f5ec 213d 5810 0abc
000001e0: 7b62 083c 5148 383b d932 1ebd 4c9b d03c
000001f0: ca48 a43c ef8e d9bd 30b1 4cbc 5493 2dbd
00000200: 0e4b 173d 535d d038 a209 093d b92d 823d
00000210: a5fd a1bd 0e2e 67bd 7d4f b0bc d6bd e33c
00000220: 4297 fbbd efd0 b1bd c6eb 9839 2f40 5a3a
00000230: 638e 3d3d 9c4c 18bb 57c1 00bc 65d0 0f3a
00000240: 818d 92bd 1f9c 50bc 47fd 19bd 880e 36bc
00000250: 27af c33b 7057 863d 7169 083d 6b83 a23c
00000260: afec 653d efb0 6e3d 9342 193d 206d 97bb
00000270: 37f3 d83c f4ac 3a3d 918c 4a3d c58a 89bc
00000280: a8c9 80bc 35bc 093d 3338 3abc 1a2a 13bc
00000290: 66b7 2cbd fc42 36bd 04d4 7b3c 8fbc 873d
000002a0: 4c3d 10bd 3bde da3c 4624 823d fdf4 813d
000002b0: 2adb 8bbd bbd3 553d f349 59bc 28fa f13c
000002c0: 42d5 713d 7f80 6a3d f2b5 8f3d fca6 443c
000002d0: 5a42 263d 14ff 1b3d 42f2 433d 3f84 fa3c
000002e0: 2b59 ff3c 516d 82bc 9e0e ab3a f40d 77bd
000002f0: 212d 7cbd ef20 cabd b14a 4bbd e18a 5cbd
00000300: c727 7ebd cc5d 52bd 94b8 3abd c0bd 933c
00000310: e246 4abd 994a fd3c badd a0bc 402b 843c
00000320: 4163 3dbd 1665 9fbb 0ba3 debc 815a d43b
00000330: 8622 1abc 767c f0bc 333a 103a 9025 213d
00000340: b974 3b3d 29b5 7f3d 7987 323d d715 86bc
00000350: 6fe6 973d 19c9 a43d 5439 d1bc 8868 1dbd
00000360: fe0a 6a3d 69c8 133c 3bf3 473c fc30 b4bc
00000370: 51c1 b1b9 bafb 12bd 2163 6bbd b557 8dbc
00000380: e236 173d 38a7 7b3d be18 373d 4059 39bd
00000390: 408d 813d 9409 113c afce 383c e518 96bd
000003a0: 3df4 2f3d 477d 0abc c792 e2bc 7647 a1bc
000003b0: 7ab3 f13b c6b1 2bbd 6e1d 68bd da05 17bd
000003c0: e174 793d b06c 8e3d 2e0c 923d 8697 ff3c
000003d0: 0b35 66bc 76a9 103d 2c40 bd3c 0f20 e43b
000003e0: 2508 4d3d e1d0 bdba 91f4 123d e3b5 c23d
000003f0: d9e5 2f3d 6158 a1bd 18fa 3ebd d2e5 e93c
-0.06099148 0.02296983 -0.057748783 0.053672496 -0.09227897 -0.008851489 0.02389546 -0.0068256157
-0.16987048 -0.055993427 0.009678476 0.03634387 -0.101066045 -0.014975905 0.09794097 -0.009388207
-0.081817135 -0.11073081 -0.05230873 0.03909992 -0.05606192 -0.06951758 -0.064275205 0.007285577
0.024737496 -0.045642834 -0.0024550827 0.013741566 0.071387105 0.0024978581 0.04600869 0.018202716
-0.0527522 -0.006454319 0.0023751452 0.05197227 -0.01172561 -0.01697523 0.021987224 0.02315385
-0.03445594 -0.004675423 0.036353167 0.017005185 -0.0054205447 0.021751326 -0.0103244735 0.03699449
0.03441389 -0.012662574 -0.020510467 -0.10869573 0.01661139 -0.068998985 -0.079367645 0.0011292391
0.02559695 -0.020542601 -0.029838514 -0.0143976435 0.009099935 0.031053357 -0.04148225 0.021005904
-0.12562473 -0.068023235 -0.00406784 0.03377441 -0.088745475 -0.09184757 -0.09354337 0.0304345
-0.11425908 -0.106768176 -0.02457793 0.026235973 0.026072962 0.019801578 0.02702748 0.017176898
-0.06583895 0.017831694 0.03511762 -0.0033797994 -0.005655305 -0.0045580347 0.025069147 0.041995812
-0.024185283 -0.02149228 -0.008530431 0.020805232 -0.026824107 0.023628581 0.015898189 0.044621035
0.015163463 0.029664965 0.045357082 0.016303642 0.0551387 0.012551319 0.027007902 0.036282185
-0.0143006705 0.0077583315 0.09137067 0.0720779 0.016796993 0.018342199 -0.0097782845 -0.004327959
-0.050423503 0.007088912 -0.050053883 -0.07032185 -0.014266886 -0.038535822 0.03953262 -0.008426748
0.008324261 0.0028119276 -0.03862271 0.025464676 0.02005424 -0.106229655 -0.012493417 -0.04237683
0.036936812 9.935596e-05 0.033456452 0.06356377 -0.07909707 -0.056440406 -0.021522278 0.027800482
-0.122847095 -0.08682429 0.00029167364 0.0008325604 0.04627837 -0.0023239022 -0.007858596 0.00054860703
-0.07155896 -0.012732535 -0.03759506 -0.011111863 0.0059718075 0.06559646 0.03330368 0.019838056
0.056133922 0.058274206 0.037417006 -0.004621163 0.026483161 0.045575097 0.04945046 -0.016789803
-0.015721157 0.033626754 -0.011365938 -0.008982206 -0.04216709 -0.044497475 0.015370373 0.066277616
-0.035214707 0.026717296 0.06354575 0.06345556 -0.068289116 0.052203875 -0.01326226 0.02953823
0.05904127 0.05725145 0.07017125 0.012002703 0.04059062 0.03808506 0.047838457 0.030580638
0.031170448 -0.015921267 0.0013050621 -0.06031604 -0.061566476 -0.09869563 -0.04963178 -0.053843383
-0.062049653 -0.051358983 -0.045586184 0.018034816 -0.049384005 0.03091936 -0.019636977 0.016133904
-0.046237234 -0.0048643453 -0.027177354 0.0064805155 -0.009407645 -0.029356223 0.00055018364 0.039342463
0.045765612 0.062428627 0.043586228 -0.016367836 0.074169986 0.08046169 -0.025540031 -0.038429767
0.05713939 0.0090199495 0.012203987 -0.021996014 -0.00033904103 -0.035884596 -0.057467584 -0.017253736
0.036917575 0.06143877 0.04470133 -0.04525113 0.063257694 0.008852381 0.011279746 -0.07328967
0.042957533 -0.00845272 -0.02765788 -0.019687396 0.0073761316 -0.041917585 -0.05666869 -0.036870815
0.06090248 0.06954324 0.07131229 0.031200182 -0.014050732 0.03531786 0.023101889 0.0069618295
0.050056595 -0.0014481806 0.035877768 0.095073484 0.04294381 -0.07878185 -0.046625227 0.02855197

unet_model.enc.3.main.bias f4 [32]
00000000: f3ad 053d 5d3a 043c b429 8ebc dac9 a03c
00000010: c01e a7bc 5365 eb3c 380c 2c3d f7d2 553d
00000020: 227a 1fbd 2323 d13b aa8b 813c 08dc 59bd
00000030: 11ce 11bd 1807 b1bc 95e0 233d e04d f53b
00000040: 148d 81bd 7143 db3b b5e8 90bc bd56 87bd
00000050: 8d32 1c3d effc ab3c 430d 1dbd 33fd 7bbd
00000060: bf53 833c 31df 12bd 99bb 203d 403a c1bc
00000070: 21b4 a53d fde7 59b9 9562 be3b 53d3 aebc
0.032636594 0.0080705555 -0.01735387 0.0196275 -0.020400405 0.028734839 0.04200384 0.052203145
-0.038934834 0.0063823625 0.015813667 -0.053188354 -0.03559691 -0.021609828 0.0400091 0.00748609
-0.06325737 0.0066913893 -0.017689088 -0.06608341 0.038134146 0.020994632 -0.038342725 -0.061520766
0.016031144 -0.035857383 0.039241407 -0.023587346 0.080909975 -0.00020781155 0.0058100917 -0.021341002

unet_model.dec.0.main.weight f4 [32, 32, 3, 3]
00000000: 4fdb 6dbd 3361 373d 0235 433c fc01 e1bb
00000010: dd07 803c f5de 603d feb2 90bc 7c01 a0bd
00000020: b7e5 80bd 063f 7cbd a5a7 173d ff4f 3d3d
00000030: a778 b2bd 0045 db3c a1f3 64bd 8348 a8bc
00000040: 0859 3b3b 60f2 043d fab6 24bd 6f46 413d
00000050: 6c69 1ebc dcb6 8d3c 7e9f a6bb 665e 423d
00000060: 10ae 62bd 4a32 3e3d 4fae 863d 1b1c 583c
00000070: 2d66 6339 9685 4f3d 383b 173d 2046 e53b
00000080: 3860 74bd 0306 bcbd 3d8f a13a c29a 19bc
00000090: 2e91 d03c 8869 49bc b773 963c 3121 3d3c
000000a0: f7a1 743c 9dae 49bd 229f cc3c 16c4 44bc
000000b0: a82c 38bc 4a88 11bd ae08 c2bc 1449 e83c
000000c0: d4a2 463a f8bb 803b b0b5 eabc fc21 903c
000000d0: 9d3d bc3c c206 8abd d59e 1dbc de7a 653b
000000e0: 23bf c33b e736 813c 9468 863d ea17 263d
000000f0: 1ff3 703d bb55 3b3b 6aac 8339 6d04 9e3d
00000100: 22d9 213d 6071 8cbc f519 ba3c 6078 30bc
00000110: 66f7 84bc 0b33 8dbc 62c2 b1bd 65a1 6dbd
00000120: 6ee4 47bd 0e49 72bc bd57 a3bc 4f69 de3a
00000130: d973 203d 2a9e c83c c324 063d 4df8 6c3d
00000140: 3805 ec3c d396 d5bc 0664 90bd 09f4 bb3a
00000150: b99c 8b3c aa35 3abd f7db 18bd 275a a43d
00000160: 38e1 00bb e7c1 72bd cb46 2ebc bd36 bc3d
00000170: c7ff 063c 8925 bf3c a777 ed3d 3b2d f4bc
00000180: e065 0ebc ef28 003d 7db5 4dbd b007 953c
00000190: 910a 2c3d 113a ffba 8f89 db3c a6eb fc3b
000001a0: 852c cdbc 0742 f1ba 7bb1 9cbd 7e96 e73c
000001b0: 0e5f 52bd 4ef4 893d f676 dfbc c972 5fbd
000001c0: f8b9 d73b e6b5 8c3d 1ea3 173c 01a3 1a3d
000001d0: 268b 5d3c 1c5f 7dbd ac08 ff3c 48ff 60bd
000001e0: 1e5d 7f3d 3810 3bbd 74d9 24ba 5c06 b6bc
000001f0: 1e85 d8bc 8208 4f3c f206 87bd f217 0abd
00000200: c82d 5f3d 9c5f 34bd b950 713d 4f89 35bc
00000210: b237 3e3d da08 5b3d 8b37 8e3d 5a3a 2abd
00000220: 92fe 493c 93e5 6bbc 03b0 7cbb 7c54 923c
00000230: e827 103c fc2a a2bd 357f 54bc 8324 923d
00000240: 682d 023e 45b9 edbc 6cf3 a53a e4a4 b03d
00000250: 328e bb3b 5667 3a3d 482a 8a3d 5b3e a83d
00000260: e852 573d ca90 843c f42c 983d 058d 5abc
00000270: 715d b63c 0938 b8bc 114f c0bd 6359 933c
00000280: 534f f93c 22c4 afbd 8513 14bd 2ee6 97bd
00000290: d1cf 37bd d710 053e 3cbe 1ebd 8710 5abd
000002a0: aa50 af3d 041c 2ebc a754 7a3c c19d 1bbb
000002b0: c05e c63c 5e59 0f3d b54e dbb9 4e83 5c3d
000002c0: 3ba2 0c3c 325c 863d a4cb 4ebc 62bd 1fbd
000002d0: 8343 b23d 976c 463d ac5f 6a3d 0c48 3cbc
000002e0: 9567 b43c 6a46 64bd 7d72 22bc 33ef 01bd
000002f0: a2bd 12bd b8e2 bfbd c230 e9bd f67b 07bd
00000300: 3f5e f1bc efc7 a5bc 4543 c4bb b657 4a3d
00000310: 1377 8d3d cf8c 893c 51c6 47bd ffaf 823d
00000320: ba0c 8a3c 5dc0 6e3c a233 ab3d 5a08 893d
00000330: f1cc e63c 2f55 de3d 2124 8f3c 3881 cf3d
00000340: f6d9 273d 1af2 1b3c 8d0f 4c3d 36cf 2e3d
00000350: b02f b8bc 3d62 69bd aab6 84bd a3a0 2ebd
00000360: d167 babd 3749 f3bc ade2 7bbc b865 09bd
00000370: 7afd 963d 6965 ec3c 641c 9b3c 6f17 3f3d
00000380: 32ab 6a3d f7f5 c4bc ccaf 153d 0e7f bcbd
00000390: 28f2 563d 0f87 653d 283a f1bd e921 b33d
000003a0: 491a 0b3c 9828 05bc 6ad5 e7bc fa84 ba3a
000003b0: 3986 d83b 2c22 813d d8d8 313d 23e2 17bc
000003c0: 00d8 92bc 757c b73d ec29 83bc ad96 ae3c
000003d0: 7a48 99bb 3efc 2e3b 7d73 babc 4a7d 74bc
000003e0: 2b62 8abc a00b dbbc b24b 1e3d 06d6 46bd
000003f0: b06f a6bd 774a 85ba 8016 113c 79dd 1d3d
-0.058070477 0.04477043 0.0119144935 -0.0068666916 0.01562875 0.05490013 -0.017663475 -0.07812783
-0.06293815 -0.06158354 0.037025113 0.04621887 -0.08714419 0.0267663 -0.055896405 -0.020542389
0.0028587002 0.03245771 -0.040213563 0.04718631 -0.009668689 0.017299108 -0.005084931 0.047453307
-0.05534178 0.046434678 0.065762155 0.013190295 0.0002168647 0.050664507 0.03692171 0.006996885
-0.059662074 -0.09180834 0.0012326014 -0.009375276 0.025459852 -0.012293227 0.018365724 0.011543558
0.014931194 -0.04923879 0.024978224 -0.012009641 -0.011241116 -0.035530366 -0.02368578 0.028355159
0.0007577364 0.0039286576 -0.028651088 0.01759433 0.022978598 -0.0673957 -0.009620388 0.0035015862
0.005973713 0.01577325 0.065629154 0.04055015 0.05882561 0.0028585035 0.00025114726 0.07715688
0.039513715 -0.017143905 0.022717455 -0.010770887 -0.01623125 -0.017236253 -0.08679654 -0.058015246
-0.048801832 -0.014787925 -0.019939298 0.001696864 0.03917298 0.024489481 0.032749902 0.057853986
0.028811082 -0.026072895 -0.07050328 0.0014339696 0.017042505 -0.045461334 -0.03731915 0.08025008
-0.001966549 -0.05926695 -0.010636996 0.09190128 0.008239693 0.023333328 0.115950875 -0.029806724
-0.008691281 0.031289037 -0.05022191 0.018192142 0.042002264 -0.0019472261 0.026798991 0.007718521
-0.025045643 -0.0018406519 -0.07651039 0.028270002 -0.051360182 0.067360505 -0.027278405 -0.054552827
0.0065834485 0.06870632 0.009255199 0.03775311 0.013521945 -0.06185828 0.031132065 -0.054930955
0.062344663 -0.045669764 -0.00062885066 -0.02221983 -0.026430663 0.012636306 -0.065931216 -0.033714242
0.05448702 -0.044036493 0.058914874 -0.0110801 0.046439834 0.05347524 0.06944188 -0.041559555
0.012328761 -0.0143979965 -0.003855706 0.01786255 0.008798577 -0.07918355 -0.012969782 0.0713587
0.12712634 -0.029019007 0.0012661046 0.086252004 0.005723738 0.045508705 0.06746346 0.08215018
0.0525693 0.016182322 0.07430449 -0.013339286 0.022261353 -0.022487657 -0.09390081 0.017986959
0.030433333 -0.08582331 -0.036151428 -0.0741695 -0.044875924 0.12994705 -0.03875564 -0.053238418
0.08560307 -0.010626797 0.015278972 -0.0023745152 0.024215102 0.034997337 -0.00041829576 0.05383616
0.008583601 0.065605536 -0.012621794 -0.03899897 0.08704283 0.048443403 0.057220146 -0.011491787
0.022022048 -0.055731215 -0.009914991 -0.03172226 -0.03582538 -0.09369415 -0.11386253 -0.033077203
-0.029463885 -0.020236937 -0.0059894645 0.049400054 0.06907477 0.016790776 -0.048773114 0.06381225
0.016851772 0.01457223 0.083594576 0.06691046 0.028173896 0.10856091 0.017473282 0.101320684
0.040979348 0.009518171 0.049819518 0.04267808 -0.022483677 -0.056978453 -0.06480153 -0.042633664
-0.09101833 -0.029697997 -0.015373868 -0.033544272 0.073725656 0.02885695 0.018934436 0.046653207
0.05729217 -0.024043066 0.036544606 -0.09203921 0.052477032 0.056037005 -0.117786705 0.08746702
0.008490154 -0.008127354 -0.028300006 0.0014230304 0.0066077975 0.06305346 0.04341969 -0.009270224
-0.017925262 0.08959285 -0.0160112 0.021312082 -0.0046778293 0.002670064 -0.022760147 -0.014922449
-0.016892513 -0.026738942 0.038646407 -0.048543952 -0.081267715 -0.0010169287 0.008855462 0.03854129

unet_model.dec.0.main.bias f4 [32]
00000000: 9c02 a3bd 6afa 5ebd faea 63bd 6286 62bd
00000010: c99c 253d 136d ed3c a925 133d d1d8 f9bc
00000020: f28c b5bb b84a 2b3c 646f 5ebb bb22 943c
00000030: 7999 773c 1695 253d dd2c 32bd 5a8b c9bc
00000040: 6ce0 4dbd 077d de3c 5858 96ba 46da 27bd
00000050: 1214 4b3d 9884 243c 55fe c0bd 72ee 543d
00000060: a5d5 013d 43ea 073d 60b5 db3c 109e c6bc
00000070: ead1 ee3c 95d9 7fbc b199 07bc b1b2 e3bc
-0.07959482 -0.054438032 -0.055644013 -0.05530394 0.040432725 0.028982675 0.035924587 -0.030498894
-0.0055404836 0.010454826 -0.0033940906 0.018082967 0.015112274 0.040425383 -0.043499816 -0.02460258
-0.050262854 0.027159227 -0.001147042 -0.040979646 0.049579687 0.010041378 -0.0942351 0.05198521
0.031697888 0.033182394 0.026819885 -0.024245292 0.02915283 -0.01561584 -0.008276389 -0.027795168

unet_model.dec.1.main.weight f4 [32, 64, 3, 3]
00000000: c10a bdbc 1087 23bb 2d20 0ebd 1fbc b73b
00000010: a1d4 d93b b077 f3bc ae47 933c 2d03 4bbc
00000020: 9128 1b3d 1c74 af3c c284 34bd 16ae b63c
00000030: d058 30bd 6cc5 e2bc 60df bbbc 3207 a9bc
00000040: 3c9a 1cbd 4bc9 b2ba e26d 1dbd f55f 0abb
00000050: d58c a43d 9a16 003c d71c 6d3c 8070 3f3d
00000060: 2463 333c b581 8d3d 7ed1 9a3d af89 053d
00000070: 28f7 91bb 9571 093a e5fc 8dbd 380a 85bd
00000080: e588 04bd 663b 47bd 41a1 9bbb cebb 893c
00000090: b9c9 1a3d 4e40 473c 2c53 6b3c cd04 433b
000000a0: f323 953b 8ce7 e43c ccb1 8c3d aa6d 473d
000000b0: 83dd 203d c8f9 863d 3843 60bc 988e c9bc
000000c0: 91df 7d3d da20 4c3c 2231 d93b 75c4 8e3c
000000d0: 7d64 1abc 07a0 e2bc 0cfe 5abd 2e4e 11bd
000000e0: 9b13 20bd 35df 6ebd 85e2 0ebd d8c9 193d
000000f0: 2a6a e4bd e6a4 54bd 4a60 8e3c 6a06 1fbd
00000100: 76ba 033c bb1f dfbb 14ff 7ebd aa28 433c
00000110: 62f0 92bc a699 0abc e82b 1abd 5039 77bc
00000120: 6dfb 82bd 3689 6abd cd2b 8cbc 5d44 b2bd
00000130: 3779 11bd 3d21 b6bb 8962 a9bd c631 33bd
00000140: 8df9 00bd 453d b03c a676 a33c 0d3a c0bc
00000150: f686 063c 6f25 c23c ce5a 713b cbbc babd
00000160: f655 92ba 45e2 dcbc d1bc 203d 6821 15bd
00000170: 7a1d 77bd e618 24bc a742 9abc 0aa7 50bd
00000180: 96c6 ec3b fa8c 99bd e4ba 6ebd 3756 3dbd
00000190: 103a 893c 0aa9 6ebd 737c c0bc 92cb 54bd
000001a0: cf25 52bd 6b65 54bc dee4 90bc 40af 19bb
000001b0: c5da 233d 0f46 c23c 1a39 af3d 709f 9f3c
000001c0: cb13 f53c 27f5 c03c 8526 243d 5df1 da3c
000001d0: 1a9d c13c fbe8 d6bb fd11 573c 072d 7bbd
000001e0: 79b9 66bc b874 59bd 2086 86bd 30a4 1abd
000001f0: b7e3 20bd 2a52 8a3b afad 1d3c 3a83 76bb
00000200: bcc9 0fbd 1140 05bc 3a42 25bd e86d efbc
00000210: 414b 18bd 58d5 be3c 24f7 3abd 40e7 923b
00000220: c469 033c 5289 b739 5863 593d 5bd5 69bc
00000230: 17fb 523c 57a5 ffbc 1c28 cb3c c1a8 a53c
00000240: 70cd 09bd 6996 87bd 8ce9 68bd bf55 1abd
00000250: 1edb 87bd 464b 00bd 20bc 09bd 93cd 47bd
00000260: 0134 13bd 09e6 d1bc eba8 bbbc a3dc 93bc
00000270: b1a5 8ebd 9f7f 48bd 5117 533a 77e4 05bc
00000280: fa61 4939 8ad2 d23a 07d6 bb3c f7f4 8f3c
00000290: 60a8 773d a109 f13b 71b7 8a3d 7d32 0e3d
000002a0: 4564 f3bc 7739 673d e862 8f3d ff87 1ebd
000002b0: ef81 7ebc 9539 3d3c 8e1b f1bc c25e 19bd
000002c0: b94e 51bd 8ac2 62bd aad6 8dbd 2b31 57bc
000002d0: cb1a a839 4735 00bd a358 f83b ee8b 46bd
000002e0: acff 24bd e3a8 adbc 0aa5 8fbb 701e 1fbd
000002f0: 1113 b4bc 5aa2 1fbd 0ecf 94bb 41df 4e3d
00000300: 5c08 9dbc 067b 77bc 7d66 98bc 5046 393c
00000310: 2dfe 55bc 78b3 f03c 4698 cfbc 732e 4ebd
00000320: 7e85 a6bc 4dad 8ebd 42e8 943b faf4 6cbc
00000330: 381f 08bd 35db c5bc 63a6 8dbc 1ba3 46bc
00000340: 3482 acbc 777b 623c 06b4 083d 744c 133c
00000350: 6dc5 35bd f44e 233d f40b 583c e058 96bc
00000360: be67 4dbd d2de 04bc 0509 0f3c 37a2 2cbd
00000370: 8c8c 23bd 0057 d23c 4ad1 223a c5d4 68bb
00000380: 644e 6cbd 55e7 183d b93f 383d ec49 74bb
00000390: 8cff bb3c 7060 813c e188 d83c 3a69 3e3d
000003a0: 6c06 273d 3661 bc3c 3ccc 003d 359d 1b39
000003b0: e6c8 88bd 4743 d9bb 7bcb 4c3b 9432 45bd
000003c0: 5dc6 813d 4ab8 3d3d 72a4 12bd 4c3f 303d
000003d0: 5414 02bd 64af 213d 8801 c4bb 538e 193c
000003e0: 70f1 8e3c a55b acbc 6498 76bc 5d58 25bd
000003f0: b3de 863d 51d8 e23c ae35 2f3d 161a 4e3c
-0.023076417 -0.002495233 -0.034698654 0.0056071426 0.006647662 -0.029720157 0.017978515 -0.012390894
0.037880484 0.02141767 -0.04407192 0.022299808 -0.04305345 -0.027682029 -0.022933662 -0.020633314
-0.038233027 -0.0013640312 -0.03843487 -0.0021114324 0.08034674 0.007817889 0.014472208 0.046738148
0.01094893 0.06909505 0.07559489 0.03260201 -0.004454512 0.00052430603 -0.069330014 -0.0649609
-0.032357115 -0.04864063 -0.0047494476 0.016813185 0.037790034 0.0121613275 0.014363091 0.00297575
0.0045514046 0.027942441 0.068698496 0.04868857 0.03927375 0.06590611 -0.013687901 -0.024604127
0.061980788 0.012459004 0.0066281715 0.017427662 -0.009423372 -0.027664198 -0.053464934 -0.03547495
-0.039081197 -0.058318336 -0.034883995 0.03754601 -0.11153062 -0.051915072 0.017379899 -0.038824476
0.008040061 -0.0068092025 -0.06225498 0.011911551 -0.01793689 -0.008459484 -0.03763953 -0.015089348
-0.06395612 -0.05725976 -0.01711073 -0.087044455 -0.03551599 -0.0055581615 -0.08270747 -0.04374864
-0.03148799 0.02151359 0.019954037 -0.02346518 0.008210888 0.02369949 0.0036827805 -0.09118041
-0.0011164534 -0.026963362 0.03924257 -0.03640881 -0.060330845 -0.010015702 -0.01883061 -0.05094055
0.0072258217 -0.07497592 -0.0582837 -0.0462248 0.01675132 -0.058266677 -0.023496842 -0.051951952
-0.05130559 -0.012963633 -0.017687257 -0.0023450404 0.040003557 0.023715047 0.08555813 0.019485205
0.029916665 0.023554398 0.040075798 0.02672642 0.023634482 -0.006558535 0.013126847 -0.06132224
-0.014082306 -0.053089827 -0.06568551 -0.037754238 -0.039279666 0.0042212205 0.009623929 -0.0037614838
-0.0351045 -0.00813295 -0.04034636 -0.029227212 -0.037181143 0.02329509 -0.045645848 0.0044831336
0.008020822 0.00035006792 0.053073257 -0.014272059 0.012877247 -0.03120677 0.0247994 0.02022207
-0.033643186 -0.06620485 -0.056863353 -0.03767943 -0.0663359 -0.031321786 -0.033626676 -0.048780035
-0.035938267 -0.025622385 -0.022907695 -0.018049544 -0.06965197 -0.048949834 0.00080524856 -0.008172146
0.00019205353 0.0016084474 0.022929205 0.017572863 0.06046331 0.007355884 0.0677327 0.034716118
-0.029710898 0.056451287 0.07001287 -0.038703915 -0.015533908 0.011549373 -0.029432084 -0.037443884
-0.051100466 -0.05536131 -0.069257095 -0.013134281 0.0003206342 -0.03130081 0.0075789257 -0.04847329
-0.04028289 -0.021198696 -0.004383688 -0.038847387 -0.021981748 -0.03897319 -0.0045412844 0.05050588
-0.019169025 -0.015105015 -0.018603558 0.011308268 -0.0130610885 0.029382452 -0.025341164 -0.050337266
-0.020327326 -0.06966648 0.004544289 -0.014462704 -0.033232898 -0.024152378 -0.017291253 -0.012123848
-0.02105818 0.013823382 0.03337481 0.008990396 -0.044377733 0.039870217 0.013186444 -0.018352926
-0.050147764 -0.008109765 0.008730178 -0.042146888 -0.039928958 0.02567625 0.0006210996 -0.003552721
-0.057691947 0.03732999 0.044982646 -0.0037275506 0.022949003 0.015793055 0.026432456 0.04648707
0.04077761 0.022995573 0.031444773 0.00014840516 -0.06678943 -0.0066303345 0.0031249213 -0.04814394
0.06336663 0.04631833 -0.03580136 0.043029115 -0.031757668 0.039473906 -0.005981628 0.009372312
0.01744911 -0.021039793 -0.015050981 -0.040367473 0.06585445 0.027691038 0.042775802 0.012579462

unet_model.dec.1.main.bias f4 [32]
00000000: 7b3c 973c 5ddb 013d 3526 07bd 57f4 5c3a
00000010: c96f 8abc a958 1f3d 2f05 243d 10de a0bc
00000020: 4097 b4bc e744 12bd e10d 76bd 7120 5cbc
00000030: 63a4 ccbd 4235 313b 3891 5e3b dedc b63a
00000040: 60e4 a43c 4e42 dabc 7f3a dc3c f985 09bd
00000050: 319c 75bc c8cc 1a3c d605 6f3c 45f6 96bb
00000060: 0049 87bc 2b2f c53c 939d b6bd 2bbc e2bc
00000070: 910c 1b3d 2ad6 ef3c af5b b3bc 5171 173d
0.018461457 0.03170334 -0.03299542 0.00084287435 -0.016899006 0.038902912 0.040044006 -0.019637138
-0.022044778 -0.03571024 -0.06007183 -0.013435469 -0.09992292 0.00270398 0.003396107 0.0013951322
0.020128429 -0.026642945 0.026883362 -0.033575032 -0.014990852 0.009448238 0.014588794 -0.0046069943
-0.016514301 0.024070343 -0.08916774 -0.027677616 0.03785378 0.029276926 -0.021894304 0.0369733

unet_model.dec.2.main.weight f4 [32, 64, 3, 3]
00000000: 8e22 4abd a86a f2bc e500 88bd ebcd 5ebd
00000010: aff1 85bc 7e96 3dbc 4c3f 54bd 25db 8abd
00000020: fa23 b5bb 6825 08bd 1db2 22bd e83d b73c
00000030: c9ab 0fbd 21df e2bc 4e3d 23bd 208e 5f3b
00000040: 5821 b9bc 211b 61bc 1563 e23c a488 e9bb
00000050: f250 a23c ca17 97bc 9ede 723c d5dd a6bc
00000060: c79d 97bc c3fd 1e3c 744c 9e3c 2ec8 fd3c
00000070: b60e 893d e3f9 243b cb58 f03b 03e4 3bbc
00000080: 6cb1 8ebb 8ea8 9b3c e297 293c b811 1839
00000090: 5ee5 143b 7f39 503c dc93 813c 1aac 32bc
000000a0: d521 ed3c ddb9 1b3c 31df a4bc 05d9 dcbb
000000b0: 3254 ddbc 6bfd 9dbc 8157 8e3c 6892 39bd
000000c0: 4c19 3abd 8962 22bb aaab 29bc 38ac 62bb
000000d0: f9bc 23bd 3311 93ba 9e2c ef3b 695e a8bc
000000e0: ba91 6abc 5001 2bbc 0b55 2f3c a770 b2bb
000000f0: df18 953c 3ba7 a0bc 29b4 60bd 3e9d 793c
00000100: 13eb 0e3c e6d6 70bd 9f5e d63b af0c 893c
00000110: d5e4 23bc 9838 acbc 0354 353c fb21 5fbd
00000120: 4cda 39bd 76a3 113d d2b0 2f3d 8f72 803b
00000130: 5b75 133c e2f3 3a3a e9d5 463c 4dcf 193c
00000140: 551c 78bc 266d 1bbc 4d18 56bb 4528 333c
00000150: 493e 0c3d 67a9 8ebc c09d 153d a9d8 803c
00000160: 7c6e 9abc 2ead aebb 1d70 78bc fe76 3ebc
00000170: 791d 59bd e9c0 853a 51b4 80bd 35cf 05bd
00000180: e739 f3bc c4ec f6bc 1b42 51bd 3710 48bd
00000190: 1bb3 093c a845 91bd 42db d4bc 7d46 5cbb
000001a0: 8218 61bd 0a98 8ebc d8d7 0fbd 842d aabd
000001b0: a05f 033b 235f 1bbc e416 9fbc 9c3b 983c
000001c0: 844d febc e0bd f2bb 1671 10bd 537f c6bc
000001d0: 20f6 a1ba b5f4 86bc 649a 46bb 87f1 28bd
000001e0: f602 54bd 5683 68bd 6a7b ae39 9de1 cabc
000001f0: 0e8c 1b3c c205 93bb dbe5 b2bc 4303 653c
00000200: 2528 333d 2fc4 ad3a 89ec c33c 483d c8bc
00000210: 71ce 243d e060 fdbc 67b8 8abc 688c 92bc
00000220: 60af 11bd f9b9 11bd 55cb c2bc 525f ad3c
00000230: f2b8 97bd 812b 48bd cf06 5bbb 334b 1cbd
00000240: d2ae 793b 2ee2 d9bb f52c 85bc 5bcb ac3c
00000250: 772b 093d 72f0 dd3c 68f0 073d 8b0e d3bc
00000260: fa02 f83c 2cf0 50bd c981 91bd 55cf 94bd
00000270: b0c7 953b 822c 21bd c551 d3bc f126 3cbd
00000280: 3e31 91bd d885 62bd c1d4 283d 6db1 113d
00000290: b1f3 16bd 6ea2 253d 0d64 353d 0533 5bbc
000002a0: 49a1 57bd faaf 74bc 5ff1 6bbd 2c6d 323d
000002b0: 8bdf 1a3d 88bd 80bc 6ebe 8abb bb92 173c
000002c0: 7987 0bbc 97c5 b8bc 806a d8bc b7cf 1bbd
000002d0: 5073 6b3c 6b71 2dbd 6b5c b4bc 3379 24bd
000002e0: 428e 6e3c 3e0b 03bd b93d 06bc 5ba5 96bc
000002f0: 8da0 c2bd 6882 b9bd 5a46 2fbc bbee 81bd
00000300: ccb5 e9bc f83b 88bb 9122 88bb c1a1 7bbd
00000310: 4154 abbc 0237 e1bc 9420 ba3c 2463 9f3b
00000320: ed99 3d3d ff8c 713c 1871 2fbd 39e4 82bc
00000330: 45ab b9bb ef1a ecbc b052 bdbc fea1 39bd
00000340: cd2d 4a3d 058b bbbc 4cc0 083d fe55 283c
00000350: c1a1 1f3d 6402 703c d5e2 063c 5279 9ebc
00000360: 8f06 08bd 07be f13c 8553 523d 1b3e 4fbc
00000370: f6d1 1b3d 81c0 00bc 3319 f0bc 5f42 5abc
00000380: 2cd2 933c ad21 15bd 1e31 29bd 008c c93c
00000390: 8fc3 aabb 4241 953b 4e81 243d f7da 51bd
000003a0: 6b3e 353c a5b3 2d3d 59b0 3fbc 6e23 bb3c
000003b0: 7cf7 3dbd e517 d33b bef4 c2bb b16c 48bd
000003c0: 304b 72bd f7fa b5ba b7c5 0bbd 9e3c b4bb
000003d0: 1205 3bbd 02d8 51bd fd6d 0fbd 4646 d23c
000003e0: 4c74 0ebc e240 f1b9 34c3 c1bc b063 0abc
000003f0: 8bcc 5cbc 12e0 063d 9571 ca3b a30b 6abd
-0.04934936 -0.029591873 -0.066407956 -0.054395597 -0.016350595 -0.011571525 -0.051818177 -0.0678008
-0.0055279704 -0.0332388 -0.039720643 0.022368386 -0.035075936 -0.027694287 -0.039853387 0.0034111813
-0.022598907 -0.013739378 0.027635137 -0.0071268845 0.019813988 -0.01844396 0.014823584 -0.02036945
-0.018507851 0.009704056 0.019323565 0.030979242 0.06692259 0.0025173358 0.0073348037 -0.011467936
-0.0043546464 0.019001272 0.010351153 0.0001450245 0.0022719721 0.012709021 0.015817575 -0.01090529
0.028946796 0.0095047625 -0.020125957 -0.006739738 -0.027017687 -0.019285878 0.01737571 -0.04530564
-0.04543428 -0.002477797 -0.010355869 -0.0034587514 -0.03997514 -0.0011220336 0.00729902 -0.02055283
-0.0143169705 -0.010437325 0.010701428 -0.005445558 0.018200336 -0.019610992 -0.054859314 0.015235243
0.008723038 -0.058798693 0.0065420414 0.01672968 -0.010003288 -0.02102308 0.011067393 -0.054475766
-0.0453742 0.03555628 0.04289324 0.0039199064 0.009000148 0.0007131678 0.012135961 0.009387803
-0.015143474 -0.009486472 -0.0032668293 0.010934894 0.034239087 -0.017414762 0.036527395 0.015728312
-0.018851511 -0.005330703 -0.015163449 -0.01162505 -0.053006623 0.0010204586 -0.062843926 -0.03266831
-0.029690696 -0.030142196 -0.051088434 -0.04884359 0.0084045185 -0.07093364 -0.025983457 -0.003361135
-0.054955013 -0.017406482 -0.035117954 -0.08309463 0.002004601 -0.009483132 -0.019420095 0.018583111
-0.031042822 -0.007407889 -0.035264097 -0.024230635 -0.0012356676 -0.016474107 -0.0030304426 -0.041245963
-0.051760636 -0.056765877 0.00033279817 -0.024765784 0.009493841 -0.0044867704 -0.02183812 0.013977828
0.043739457 0.001325732 0.0239165 -0.024443284 0.04023594 -0.030929983 -0.016933633 -0.017889217
-0.03556764 -0.035577748 -0.023778597 0.021163616 -0.074083224 -0.048869614 -0.0033420806 -0.038157653
0.0038098586 -0.006649277 -0.016256789 0.021093061 0.033488717 0.027092192 0.033188254 -0.02576377
0.030274857 -0.051010296 -0.07104833 -0.07266108 0.0045709237 -0.039349087 -0.025795827 -0.045935575
-0.0708947 -0.055303425 0.041218523 0.035569597 -0.036853496 0.04043811 0.04428487 -0.013378863
-0.052644048 -0.014934534 -0.057603236 0.043561146 0.037810843 -0.015715376 -0.004234127 0.009251292
-0.008516186 -0.022555156 -0.02641797 -0.03803989 0.014370754 -0.042344492 -0.022016725 -0.040154647
0.014560284 -0.031993143 -0.008193427 -0.018389395 -0.09503279 -0.09058076 -0.010697925 -0.06344362
-0.02852907 -0.0041575395 -0.0041545113 -0.061433557 -0.020914199 -0.02749205 0.022720613 0.0048641134
0.046289373 0.014743089 -0.042832464 -0.015977966 -0.005666169 -0.028821437 -0.023110718 -0.045320503
0.049360085 -0.022893438 0.033386514 0.010274408 0.03897262 0.0146490075 0.008232792 -0.01934496
-0.03320938 0.029509557 0.05134918 -0.012649084 0.03804203 -0.0078583965 -0.02930889 -0.013321488
0.018044554 -0.03640907 -0.041306607 0.02460289 -0.0052113007 0.0045548985 0.040162377 -0.05123421
0.011062245 0.04240765 -0.011699759 0.022844043 -0.046378598 0.0064420574 -0.0059495857 -0.04893178
-0.059153736 -0.0013883997 -0.034124102 -0.00550039 -0.045659132 -0.05123139 -0.035017002 0.025668275
-0.0086947195 -0.00046015444 -0.02365265 -0.008446619 -0.013476501 0.032928534 0.006178091 -0.057140004

unet_model.dec.2.main.bias f4 [32]
00000000: 4082 c63b 6211 c1bc 6c38 f7bd 353c 913c
00000010: 523f 29bc 69a8 68bc f15c 583d 3945 c5bd
00000020: 03bd 9ebb 177e 193d 63b6 ae3c 5273 103c
00000030: 2de6 123d 9f97 3d3d 5b2a 983c 5ff8 bb3c
00000040: 81be cfbb bb87 1b3c 511a d6ba 28d4 653d
00000050: c1e4 babd e676 34bd e360 9dbc a39f dcbb
00000060: ad2c b93b 16c5 133d 94fe a6bb fd95 a93d
00000070: a82e da3b 8adc 5c3d f4d7 1c3d 4301 f43c
0.0060580075 -0.02356786 -0.120713085 0.017728904 -0.010330038 -0.014200308 0.05282301 -0.09632344
-0.0048443093 0.037473764 0.021327203 0.008816557 0.035864044 0.046287175 0.018574884 0.022945581
-0.0063398485 0.00949281 -0.0016334747 0.05611053 -0.091256626 -0.044058703 -0.019211238 -0.0067328974
0.0056510777 0.036076628 -0.005096266 0.08280561 0.006658394 0.05392126 0.038291886 0.029785758
