experimental_results/08250716_decolearn_is_optimize_regis=[true]/regis_model/best_valid_psnr.pt (torch, 975031 bytes, 25 tensors)

unet_model.enc.0.main.weight f4 [16, 2, 4, 4]
00000000: b968 223c d599 4b3d c744 c93d 4b4b b7bd
00000010: 0188 58be b695 ac3d e690 aabd 1187 113e
00000020: 08e3 0bbe b9f8 43be ef5e 2b3e 8cfd 183e
00000030: 74b3 c1bd 3c99 50be 1e49 05be 2df7 ec3b
00000040: 5848 d0bb 569a 72bd f637 653e fd87 b3bd
00000050: bce4 dbbd 8c56 02be 6a55 803d fa68 553e
00000060: 50fc a73d 7153 1c3e 8970 87bb 6a1b 733e
00000070: eee4 ecbd e034 44be 2658 79bc c389 293e
00000080: e327 3dbe 4c25 8abd d2c4 dabd 729d 953d
00000090: f13f 9e3c 51ec efbd 81a7 2abc c519 173c
000000a0: 9071 e33c d422 55be 94e7 a1bc bcaf aabc
000000b0: 0a5a 84bc 661f 753d 5a38 82bd 0f57 403e
000000c0: d0a2 dd3d dcd3 6b3d a9cf e93d 0059 d7bc
000000d0: 6c0b b83d 006c 6b3d 85df 50be 966e f7bc
000000e0: 3957 563d 99dd ccbd e619 44be e8a5 dd3d
000000f0: b537 c4bd d896 8abb f621 db3d f72a 2ebe
00000100: 93e6 45bc 0061 583e a8e3 3c3e 6763 a1bd
00000110: e5e2 903d 96e1 393e 0541 0a3e 7eba 363e
00000120: 3f7f 2e3d 51b8 fe3d 49ba 193e 78db a5bd
00000130: c644 653c d5fa 453e e98a ce3d a048 4dbe
00000140: 78eb f3bd b9a7 1e3e be94 de3d 4d2e 16be
00000150: f346 d9bd 55a3 29bd bd62 a7bc b9a4 0ebe
00000160: 0ec0 a4bd 3742 2b3c 3fb4 2cbe 2a98 76be
00000170: 4a35 4bbd 0087 1f3c dbc1 6ebe cc1d dabd
00000180: 5c1e 8dbd be53 f1bb 1f13 38bb 9ae8 64be
00000190: a2f7 0abd f842 5a3d 1f2d 67be 8a7f e2bd
000001a0: c10b 7d3d 2ae1 833d 7741 80be 6c5e d7bd
000001b0: f96c fd3c a365 26be 2198 0ebd 9d18 5abe
000001c0: 8055 b53d e95e 1a3e 4e8d 2b3e 59b8 7b3d
000001d0: 899f 4d3e 14ff 9abd 6060 91bd dff7 a3bd
000001e0: fedf 263e 9d6b 233e 1c4f 3a3e e5e9 36be
000001f0: 1cbc 1a3e 37b5 b53d 8020 193e b2b8 87bc
00000200: 9fa7 f2bd 9d5b f7bd e82b 313d d0fe 4f3c
00000210: 8aca 5ebe 7dda 39bd 6a00 e3bd 813d e93d
00000220: e97a 8e3b 1783 33be 1a13 193e 517c 813d
00000230: 337f 67be 6f2d fe3d 20cc f83d 4f4f 643e
00000240: 381a 47bc 6448 2abd 1938 be3d 990f 29be
00000250: 1fe4 edbd 98bd 00be d1a0 9dbd fda4 403e
00000260: 166d 753d 2949 87bd 380d 0d3e a1af cf3c
00000270: f528 863d 9043 353e c841 463d a74b ae3d
00000280: db50 9c3d 794e 5b3d ca7e babd 5cc3 54be
00000290: fa7f afbd 28df d6bd 02ec 1f3e 5188 ffbb
000002a0: 7e57 673e 8a0a 2d3e 1373 2f3d 1c0b 7cbd
000002b0: 2e03 00bd c743 693c 0d52 913d dad7 b3bd
000002c0: ff39 363e 9876 273e 1d4a 43bd 0159 04be
000002d0: 9522 0b3e bd17 343e 1ee3 26be c46a 82be
000002e0: 5e5c 0b3e 4914 c43d dc90 b9bd 47a7 5abd
000002f0: 5332 143e 387c 00bb d6df 973d dc5d d0bc
00000300: 30ef 0e3e 561d 3f3d 411b 1abc d617 8cbd
00000310: 3d42 dbbd caff cf3c c7fa d13d 27d2 dbbd
00000320: 91cd d7bc 81ba 96bd 4f4e d9bd 1d72 13be
00000330: 7c97 0ebe d940 0cbe e8e6 9ebd 37fb 87bb
00000340: 1bc6 b03d 3785 7b3e a81a 923d d5f9 e03d
00000350: 201b c03d 3f3c 4c3e 7c5c b33d af73 2e3e
00000360: 3149 a63d 1673 42bd 821a 383e 513d 3a3c
00000370: d0c9 6ebd 72ba a43d 85da 2fbe 2512 0a3d
00000380: 5dcf 0ebe a394 5abe 5b0e d0bd 9758 e0bd
00000390: 99d1 16be 9fce 19be e145 043e bf42 7f3d
000003a0: e238 95bd 8ffd 77bd bd48 cbbd 245d 98bc
000003b0: 63f9 47bd 6270 11bd 14a1 333d 3f78 65bd
000003c0: ca93 f2bd 6e54 fb3c 8de8 533d d05c 33bd
000003d0: 7195 433d c38c c6bd e148 163e d67a 523d
000003e0: 8e1c 923d 3b2e d13d 1855 333e 18b5 d03d
000003f0: edd2 b43d 5609 f53d 8fd0 4c3e 8ed4 8b3d
0.009912663 0.049707253 0.09827571 -0.08949908 -0.21145631 0.084269926 -0.083284184 0.1421168
-0.13660824 -0.19137849 0.16735433 0.1494047 -0.09458056 -0.20370954 -0.13016173 0.007231614
-0.0063562803 -0.059229217 0.22384629 -0.08766172 -0.10736987 -0.12728328 0.062662914 0.20840827
0.08202422 0.15266205 -0.0041332883 0.23740926 -0.115671024 -0.19160795 -0.01521877 0.16556458
-0.18472247 -0.06745395 -0.10682072 0.07305421 0.019317599 -0.11714996 -0.010415913 0.0092224525
0.027764112 -0.20814067 -0.019763745 -0.02083575 -0.016156215 0.059844397 -0.063584045 0.1878321
0.1082207 0.05757509 0.11416561 -0.026287556 0.089865535 0.057476044 -0.20397766 -0.030204099
0.052329276 -0.10003204 -0.19150504 0.1082266 -0.09580938 -0.0042294078 0.10699837 -0.17008577
-0.012078899 0.21130753 0.18446219 -0.078802876 0.07074527 0.1815246 0.13501365 0.17844579
0.04260182 0.12437499 0.15012468 -0.08098501 0.013993448 0.19333966 0.10085089 -0.20047235
-0.119101465 0.15493669 0.10868214 -0.146661 -0.106092356 -0.04141553 -0.020432824 -0.13930024
-0.08044444 0.010452799 -0.16865633 -0.24081483 -0.049611367 0.009736776 -0.23316137 -0.106502146
-0.06890556 -0.007364719 -0.002808757 -0.22354355 -0.033927567 0.053286523 -0.22575806 -0.110594824
0.061778788 0.06439431 -0.25049946 -0.105160564 0.030935751 -0.16249709 -0.03481305 -0.21298452
0.088541985 0.15075268 0.16753122 0.061455105 0.20080389 -0.075681835 -0.0709846 -0.08006262
0.16296384 0.1595902 0.1819424 -0.17862661 0.1511082 0.088724546 0.14953804 -0.016567562
-0.118483774 -0.12078021 0.043254763 0.012695029 -0.2175695 -0.045374382 -0.11084063 0.11388684
0.004348148 -0.17530476 0.14948693 0.063225396 -0.22607116 0.124110095 0.12148309 0.22295879
-0.012152247 -0.041572943 0.092880435 -0.16509856 -0.11615776 -0.12572324 -0.07696689 0.18812938
0.059918486 -0.06605751 0.13774574 0.025352301 0.06550781 0.17701554 0.048402578 0.08510523
0.076326095 0.053541634 -0.09106214 -0.20777649 -0.085693315 -0.104917824 0.15617374 -0.0077982326
0.2259197 0.16898552 0.042834353 -0.061534032 -0.031253032 0.014237351 0.07095728 -0.08781405
0.17795561 0.16353834 -0.0476781 -0.12924577 0.13587411 0.1758718 -0.16297576 -0.2547208
0.13609454 0.095741816 -0.09060833 -0.053382184 0.14472322 -0.001960529 0.0741574 -0.02543538
0.1395843 0.046658836 -0.009405912 -0.06840484 -0.10705993 0.025390524 0.1025291 -0.10733443
-0.026343139 -0.073597915 -0.10610639 -0.14399 -0.13924974 -0.13696612 -0.077588856 -0.00414982
0.086315356 0.24562536 0.071339905 0.10985152 0.09380174 0.19944857 0.08757874 0.17036317
0.08119429 -0.047473036 0.17978862 0.011367158 -0.058297932 0.08043374 -0.17173202 0.03370871
-0.1394629 -0.21345763 -0.10158988 -0.10954397 -0.14728393 -0.15020226 0.12917282 0.062319513
-0.0728624 -0.060544547 -0.09925983 -0.0185991 -0.048821818 -0.035507567 0.043854788 -0.05602288
-0.11844595 0.030679908 0.05173545 -0.043789685 0.04774994 -0.09694817 0.14676239 0.051386677
0.071343526 0.10213896 0.1751293 0.10190791 0.088292934 0.11964671 0.20001434 0.06827651

unet_model.enc.0.main.bias f4 [16]
00000000: 4490 5c3c f2a0 543d 95b8 f8ba c922 8c3c
00000010: f276 363b 86e3 95bd 2fb7 4abd 255f d13b
00000020: 3323 cd3c b06a 3ebd ee22 04bd da63 a13d
00000030: e0b7 713d a112 b8bd 82f0 9bba 77d5 cd3d
0.01346213 0.051911302 -0.0018975908 0.01710643 0.0027841893 -0.07318787 -0.049491104 0.006389516
0.025041198 -0.046488464 -0.032259874 0.07880373 0.059013247 -0.08987928 -0.0011897238 0.10050481

unet_model.enc.1.main.weight f4 [32, 16, 4, 4]
00000000: 0622 e03c 662e 1d3d 624a 083c c6cf 863c
00000010: 6205 bb3c 02e4 303d 7c53 183d f490 ba3d
00000020: 52fa e9bc 3161 7ebd 6b4d 1f3d 8546 b63d
00000030: e945 abbb b84b 51bd 5aee 0bbb 871b fb3d
00000040: 38ab c83d 6d6a 00bc cc5e dc3b a37d 6bbb
00000050: 4aae 833d 8072 e53d 4173 a93c c8ca b43c
00000060: 4742 4d3d 9e8c 103d 8860 db3d f473 583d
00000070: 587c 203d 897f ddbb fb89 893d b162 573d
00000080: 0264 2f3c 7d0d d9bd e2a9 6fbd 83a8 d33c
00000090: e740 2abd aec6 a1bc 1c3e 1cbd 7594 2ebd
000000a0: 460c bb3c a62d 90bb 5e3c 4b3d f66b df3c
000000b0: 9c93 17bb a643 9a3d ba6b 17bb 2101 12bd
000000c0: f152 0f3d e857 453d 5d17 293d 9a05 c8bd
000000d0: 268e 513d 6dc5 d23d 6711 2fbd 1342 12be
000000e0: ba7e b73d d976 063e 2b2e a63d 4838 ddbd
000000f0: 9523 f93d 18bb 133e 6d9a b03d de50 e13c
00000100: b742 91bd 623c ecbc 1ad0 903d 8f75 493d
00000110: 6605 01bd 1905 dbbc f9dd 413d e696 9dbd
00000120: 2ec7 a3bd 52df 88bd a226 22bd 63b6 b4bd
00000130: e207 b1bc ab7b dfbd 8624 8cbd 5f3d 10ba
00000140: 1324 46bc 3b55 763d 70c3 abbc 4d5c 45bd
00000150: 2d24 37bd 2ebc 6bbc 5cbe e33d 01d9 fe3b
00000160: 901b 08bd 2e9c cf3d 2c0d 863d ea4f eebc
00000170: c1b9 483d 99ca 443d 6ce0 a13d 1ed5 3c39
00000180: 362d 83bd 67fb 13bd be78 593d f038 9bbc
00000190: 4505 0d3d e9a3 8a3d a3a5 163c 291e 1abd
000001a0: 4138 01bd 76e0 673d f07d 2cbd 67b9 383d
000001b0: 328a 62bc 002c 23bd a269 19bd de80 b13d
000001c0: 5330 ed3d 14f9 523d 4f31 8b3d ac68 fcbd
000001d0: 97ee 17bc 9194 c8bc 999e cfbd 197c 37be
000001e0: 935a 14bd b448 c6bd da8c aabd a076 dfbd
000001f0: 3843 4abd 3e4a c5bc 1f00 a2bd 61ad 30bc
00000200: b2bb 9b3d 125a 1f3d 3e7c a5bc ff33 80bb
00000210: 4e80 853d 628e db3d b579 1e3d d27d b6bd
00000220: 16c8 4e3c 9969 bcbc d446 09bd 6dae f8bc
00000230: f795 433c 3880 103d 7937 973d 7805 103e
00000240: d0b5 7abd 9792 883d 5dba 6d3d 14a5 3e3d
00000250: b1b3 9a3c 8748 c43d 4d46 9a3c 542b d5bc
00000260: 60dd a73c 48d3 b73c 651c 52bd aa55 113d
00000270: 6c44 483c 990a 033d f5ed e73d c10f ce3d
00000280: 8d30 d53c 384a f83b 8653 e23c 0c7e 963d
00000290: 423d e73d 3804 08bd 2017 dbbc 2430 c93d
000002a0: 6a0d 703d ec42 623c 7957 533d 3ba8 3a3c
000002b0: 7b24 bd3d 8f02 9d3d 25b5 9ebb 48bb 3e3d
000002c0: 2547 203d 5dc5 993c bf35 003d e139 24bc
000002d0: 6f81 d23c 5cd3 4bbc fabe 37bd fe24 133d
000002e0: 37b3 4b3d 6d96 3b3d e7fa 313c 9aaa b1bc
000002f0: 75cf a83b acbe ef3c 6b60 14bd 5b58 cdbd
00000300: 280c daba 82da 6a3d ab1a ebbc a9af d9bb
00000310: fa18 9d3d 65db ca3d c035 ae3d 7c19 873d
00000320: 8cad cc3d 1eb9 e13d 67d3 c53d 13ff 6d3d
00000330: defc ccbb 82d5 693c d0ec 90bc 2d8e 2abc
00000340: 567a de3b 723e 2cbc 7652 723d 3d29 c93c
00000350: cd3b 273d 902b 933d 1232 a13c 49a3 0f3d
00000360: 2eeb cc3a f6ae 483d 1322 95bd 6302 593a
00000370: 8adf 153c 1be4 9ebc c052 b2bc 4149 7f3c
00000380: 06aa c7bd 0077 50bd f14f aebd 4d49 0e3d
00000390: 8e68 76ba 84fe 4ebd c552 a03c 8c73 f5b9
000003a0: 3ec5 963d 5ea6 2f3c 8307 9c3d 6943 9dbb
000003b0: 42e6 cf3c 160b 763d c4e1 803c c8db eebc
000003c0: 8f3a e33d ef3d 1c3a 0f94 82bc 043f c73b
000003d0: cee4 753d 1747 8dbc eaa4 823c 5e15 45bc
000003e0: 26b4 503d aa38 963d 49dc fa3d c89a 7abc
000003f0: 7dc6 a6bc 306b cabc 1107 803c 6e7e a93c
0.027359974 0.038374327 0.0083185155 0.016456496 0.022829715 0.043186195 0.037188992 0.09109679
-0.028561745 -0.062104408 0.03889219 0.08900169 -0.00522684 -0.0510976 -0.0021351785 0.1226111
0.097982824 -0.007837874 0.006725168 -0.003593304 0.064297274 0.1120348 0.02068484 0.02206935
0.050112035 0.035290353 0.10711771 0.052844957 0.039181083 -0.006759588 0.06715771 0.052584354
0.010704996 -0.10598276 -0.058511622 0.025837189 -0.041565802 -0.019748058 -0.03814517 -0.04262205
0.022833 -0.004399973 0.049618118 0.02727316 -0.0023128754 0.07532434 -0.0023104982 -0.035645608
0.03499121 0.048179537 0.041282047 -0.097666934 0.051160954 0.10291562 -0.042741206 -0.14283018
0.08959718 0.13131274 0.081142746 -0.108017504 0.1216499 0.1442684 0.086232044 0.02750438
-0.07092803 -0.028837387 0.07070942 0.04918438 -0.03149929 -0.02673583 0.04733083 -0.07694797
-0.07996975 -0.0668322 -0.039587624 -0.0882385 -0.021610204 -0.1091226 -0.06842904 -0.0005502309
-0.012093562 0.060139876 -0.020967215 -0.048183728 -0.044712234 -0.014388127 0.111202925 0.0077773337
-0.03322941 0.10137211 0.06545481 -0.02909084 0.049005274 0.048044775 0.07904133 0.0001800847
-0.06405108 -0.036128428 0.053093664 -0.018948048 0.034428854 0.06769545 0.009194764 -0.03762642
-0.03154779 0.056610547 -0.04211229 0.04509869 -0.013826894 -0.039836884 -0.037454255 0.086671576
0.11581483 0.05150707 0.06796514 -0.12324652 -0.009273193 -0.024484904 -0.10137672 -0.17918433
-0.03621919 -0.09681836 -0.083276466 -0.10911298 -0.04938051 -0.024083253 -0.07910179 -0.010783524
0.076041594 0.038904257 -0.020200845 -0.0039124484 0.06518613 0.10720517 0.038690288 -0.08910717
0.012620946 -0.022999572 -0.033514813 -0.03035661 0.01193761 0.03527853 0.073836274 0.14064586
-0.061208546 0.06668585 0.058039058 0.04654415 0.018884512 0.09584146 0.01883235 -0.026021637
0.020491302 0.022439614 -0.05129661 0.035482086 0.012223344 0.03199253 0.113246836 0.100615986
0.026024127 0.007577207 0.027627718 0.0734826 0.11290981 -0.03320715 -0.026744425 0.09823635
0.058606543 0.013809901 0.051597092 0.011392648 0.09235474 0.07666504 -0.0048433715 0.046565324
0.03913035 0.018770868 0.031301256 -0.010023565 0.025696484 -0.012440529 -0.044859864 0.03592395
0.04973146 0.045797754 0.010863042 -0.021687794 0.005151684 0.029265724 -0.036224764 -0.10026618
-0.0016635703 0.05733729 -0.02869924 -0.006643255 0.076707795 0.099051274 0.08506346 0.06596658
0.09994039 0.110216364 0.096594624 0.058104586 -0.00625573 0.014272096 -0.017691046 -0.010409874
0.006789486 -0.010512935 0.059160672 0.024555797 0.040828515 0.07186043 0.019677196 0.03506783
0.0015634054 0.04899498 -0.0728189 0.0008278249 0.009147534 -0.019395879 -0.021767974 0.01558143
-0.09749226 -0.050894737 -0.08511341 0.034737874 -0.0009399735 -0.050535694 0.019570718 -0.0004681613
0.0736184 0.010720817 0.0761862 -0.0047992957 0.02537835 0.060069166 0.015732653 -0.029157534
0.110951535 0.00059601566 -0.01593974 0.00608051 0.06003266 -0.017245812 0.015947778 -0.01202902
0.050953053 0.073350266 0.12249047 -0.015295692 -0.020358318 -0.024709314 0.01562837 0.02069017

unet_model.enc.1.main.bias f4 [32]
00000000: 59e5 81bd 477f e2bc e9c3 f1bb 777f 133d
00000010: c15e 193d c805 27bd d976 23bd 5b52 9c3c
00000020: 1095 6cbc 1a09 933c 61c0 2c3c a5ff 6bbc
00000030: 6f42 f03b 5648 333d 4e46 c33c 372f 83bc
00000040: a209 dc3c 7adc b7bc 2b0b 20bb 679b 883a
00000050: 31c7 20bc 563a 1b3d 1939 3e3d a328 a23b
00000060: 4a0c 24bc 2be1 843c 2c32 a13c 5bf3 fa3c
00000070: 67f9 f73c e814 2ebc 9344 8c3a 9894 2cbd
-0.06342573 -0.027648581 -0.0073780906 0.03601023 0.03744388 -0.040776998 -0.039908264 0.019082239
-0.014439836 0.017948676 0.010543914 -0.014404212 0.0073321383 0.043770157 0.023837235 -0.016013725
0.026860062 -0.022443999 -0.002442072 0.001042229 -0.009813116 0.03789743 0.04644117 0.004948692
-0.010012696 0.01622065 0.019677244 0.030633619 0.030270291 -0.010625102 0.0010701589 -0.042133898

unet_model.enc.2.main.weight f4 [32, 32, 4, 4]
00000000: 7ac8 0dbd b597 1ebc b1f9 ef3c c8b9 233c
00000010: 0989 fcbc 8924 9fbd f320 cbbc 0421 d13c
00000020: dd13 87bd d52b d4bb 9ad7 c83b 1472 893c
00000030: e6a4 9abd 484d 14bd ad45 0dbd ef94 94bc
00000040: 793e 09bd 9cdf f7bc 0715 c33c 5a09 5a3d
00000050: fa62 51bd b92e 83bc 0a89 8abd 6f89 e0bc
00000060: 8c0f f4bc fa6e bfbd d57b ccbd 9ea1 d4bd
00000070: dae8 0cbe 9e44 82bd 8d8f 2dbd 1396 51bd
00000080: f74f 3cbd d476 c9bd 5d20 cabd 3a29 14be
00000090: c6ae 3abd 0fab 58be 3e0d 30be 5d20 18be
000000a0: 30bd 7cbd e5ee 0dbe dd08 5ebe 6f67 cabd
000000b0: 8f68 ba3b 0484 7cbd 426e bbbd 73f1 96bd
000000c0: 3d0e da3c 9758 85ba c49f b43d 72e0 65bc
000000d0: f009 e63b 1e5c 6a3c f932 803c fbeb 803d
000000e0: 15c3 5bbd 2031 98bc 79c2 3a3d be9a b2bc
000000f0: 1ae6 c4bc 8479 4bbd 29d0 b1bc d53f fe39
00000100: b586 3d3d c995 b13d e253 a13d 7007 f13d
00000110: c774 68bd 998c 6f3d 7d4d 0e3d a4b2 7ebc
00000120: 1b75 a4bd da98 27bb ff51 873d 4506 153d
00000130: b2fb 913b 608d 8c3d 2889 173d 8581 013d
00000140: c643 103d 9161 7dbb 9fca 80bc b0bd 283d
00000150: f12b c8bd f472 15be 0bc6 b0bd d140 a2bd
00000160: 14ac 8ebd 8b78 a6bd 2cb2 23be b441 3ebd
00000170: f7b9 e0bd ad92 f0bd cdc5 11be c3cb 10be
00000180: e146 0a3d d65a 0a3d d533 603d 76da abba
00000190: 0a77 4a3d 4255 fc3c eee3 ad3d 9f01 d73c
000001a0: fa01 0abd 62de 1c3b 2c0f 0fbd 19a2 533c
000001b0: eeeb 18bd 29b4 cabc 1ee8 8abc 5846 f13b
000001c0: e085 33bd bbfe a5bd 3a19 32bd f461 a93c
000001d0: 88c9 08bd f0b5 6bbd d675 6bbc b4c2 e2bc
000001e0: 9f17 b2bb d71a 08bd 9166 963c 5031 c83c
000001f0: 194c 8dbd f9ce 84ba bb4f a83c 3596 ae3a
00000200: 6286 50bd 8a96 b1bc 57cd 99bc c7e6 933c
00000210: 13af 55bd 2f22 82bd d05b d3bb 7c31 fcbb
00000220: e982 393c 8b37 1abd cbae 80bd dc54 67bd
00000230: 35eb 1cbd 2990 a6bc b7d3 9dbd fbc0 853b
00000240: d1e6 3a3d 2e62 df3c e9df 2d3d 88bf 303d
00000250: 7bdf df3c e7ca 1f3d 725b 223b 3e25 22bd
00000260: 2e8d a0bc c1a3 02bc eb30 41bd e11d 323c
00000270: aec2 f3bc 38c2 20bd 0af1 a83c a69b c8bc
00000280: 2185 30bd fac0 8c3c dc2f 133d e467 debc
00000290: 75c1 8f3c 324d bdbb 4ced c43d 3e65 efbc
000002a0: 0834 5f3d 26cc 7c3c 33fb 5e3a 9338 763c
000002b0: 8e24 16bd d6cb 0e3d 833c 6ebd 24c8 113d
000002c0: 9ae8 ae3d 5415 923d 2e72 6a3d c1ca 963d
000002d0: ef1b 603d 2324 a43d 75c7 a33d 26b2 0d3d
000002e0: 91b7 1fbd 1803 9e3d 3709 9bbc 34be 993d
000002f0: 372c f9bc ccb4 133c 9bd5 533d b427 6c3d
00000300: fdf4 6f3d a48e c43c 8cba 37bd 1277 afbc
00000310: da8b edbc 1f33 4ebd eb48 9dbd c396 483d
00000320: 121e 653c 656c 25bc 2cf9 76bd a7d3 2a3d
00000330: d4f9 343b 15a0 f73a 9c1c 433b 16c9 52bc
00000340: b11a 63bc 3cdc 5b3c e2f3 45bd 70cc ddbd
00000350: fe59 953b 368e 393d 1648 97bd b822 b6bd
00000360: 819d 6cbc 9aa9 b5bc a0c9 fabd b9a2 a6bd
00000370: 305a f7bb ca59 33bd 236c 23bd c319 3b3c
00000380: 93a9 de3c 95a9 7ebc 58a5 5f3c b291 393c
00000390: 8fe5 5c3d 080c 0dbd 93a9 53bc 8206 f9bc
000003a0: 7a8f 093d 5c00 403d 0c0f 1dbd ea63 423d
000003b0: 84dc 1d3d 4924 233d 2505 75bd 3e1f 2fbd
000003c0: 521d ccba a2ce 1fbd 5b88 7cbb 502a 91bc
000003d0: d171 20bd 33a7 89bd 2660 84bd 7a89 55bc
000003e0: a269 debd 906c 1abd 752b a8bd 2536 00bd
000003f0: 87c4 e9bd d8e5 06be 8a98 bfbd 17fe 23bc
-0.034615017 -0.009679724 0.029293867 0.009993024 -0.030827062 -0.077706404 -0.024795985 0.025528438
-0.065955855 -0.0064749517 0.0061292173 0.01677803 -0.07550983 -0.036206514 -0.034490276 -0.018137423
-0.033506844 -0.030257992 0.023813738 0.053231575 -0.051119782 -0.01601349 -0.067644194 -0.027409283
-0.02979257 -0.09347339 -0.099845566 -0.103823885 -0.13760701 -0.06360744 -0.04237323 -0.051168513
-0.045974698 -0.09837118 -0.09869454 -0.14468852 -0.045576833 -0.21159004 -0.17192551 -0.14856096
-0.06170386 -0.13860662 -0.21683069 -0.0988301 0.005688734 -0.061649337 -0.091518894 -0.073702715
0.026618117 -0.0010173497 0.088195354 -0.014030563 0.0070202276 0.014304189 0.015649306 0.0629501
-0.05365284 -0.018578112 0.04559562 -0.021802302 -0.024035502 -0.049676433 -0.021705704 0.00048494214
0.046271045 0.086711474 0.078773275 0.11768997 -0.056751993 0.058483694 0.034741867 -0.015545521
-0.080301486 -0.0025573284 0.066074364 0.036382932 0.0044550532 0.06862903 0.036996037 0.03161766
0.035220884 -0.003866289 -0.015721617 0.041196525 -0.09774006 -0.14594632 -0.08631524 -0.07922519
-0.06966415 -0.081284605 -0.15985936 -0.046449378 -0.1097297 -0.11746726 -0.14235611 -0.14140229
0.033759 0.033778034 0.05473693 -0.0013111371 0.04942993 0.030802373 0.0849074 0.02624589
-0.03369329 0.0023936261 -0.03492658 0.012917065 -0.037334375 -0.02474411 -0.016956385 0.007363122
-0.043828845 -0.081052266 -0.04348109 0.02067659 -0.03339532 -0.057546556 -0.014371356 -0.027680732
-0.0054349448 -0.03322872 0.018359454 0.024437577 -0.0689928 -0.0010132483 0.020545831 0.0013319912
-0.050909407 -0.021678228 -0.018774671 0.01805438 -0.052168917 -0.06354176 -0.006450154 -0.0076963287
0.011322715 -0.037650626 -0.06283339 -0.056477413 -0.03831025 -0.020332413 -0.07706397 0.004081843
0.04563028 0.027268495 0.042449865 0.04315141 0.027328243 0.039011862 0.0024773744 -0.0395863
-0.01959857 -0.007973612 -0.047165792 0.0108713815 -0.029755916 -0.03924772 0.020622749 -0.024488281
-0.04309571 0.017181862 0.035934314 -0.027149148 0.017548302 -0.0057770247 0.09615573 -0.02922308
0.05449298 0.015429532 0.00085060595 0.015028137 -0.036655955 0.03486236 -0.058163177 0.03559126
0.08540459 0.07132974 0.057237796 0.07362891 0.05471414 0.08014705 0.07997028 0.034593724
-0.038993422 0.07715434 -0.018925292 0.075069815 -0.030416591 0.009015273 0.051717382 0.05765505
0.05858325 0.023993798 -0.04485564 -0.021419082 -0.02899735 -0.05034172 -0.076799236 0.048971903
0.01398422 -0.010096644 -0.060296223 0.041705754 0.002761473 0.0018892313 0.0029771691 -0.012865325
-0.013861344 0.013419207 -0.048328288 -0.10830009 0.004557847 0.04530164 -0.07386796 -0.08893341
-0.014441849 -0.022175599 -0.12245488 -0.08136506 -0.007548593 -0.0437868 -0.03989805 0.011419716
0.027180469 -0.015543361 0.013650261 0.01132624 0.05392986 -0.034435302 -0.012918848 -0.030398611
0.033584096 0.046875343 -0.038344428 0.047458567 0.03854038 0.039829526 -0.05981936 -0.042754404
-0.0015572703 -0.03901542 -0.0038533423 -0.017720371 -0.039171044 -0.06721344 -0.06463651 -0.013033265
-0.108599916 -0.03770119 -0.08211414 -0.031301636 -0.11414438 -0.13173616 -0.093552664 -0.01000931

unet_model.enc.2.main.bias f4 [32]
00000000: b760 533c 10bb e03c bf70 3d3d cd12 2bbc
00000010: 5720 163d 48e8 ee3c fca7 cabb ec90 d0bc
00000020: f06c 863c 0b07 963c bb3b be3c a245 843d
00000030: 61a7 9fbc bb3e 053d 73d7 823c ccdf 093d
00000040: 4466 043c 8154 063d eae6 e03c 1b11 233d
00000050: 7a6b f6bc dde3 35bc f4f3 0e3d 9862 5e3c
00000060: b771 1c3c ae99 c53b 3a0d 9e3d c0d8 bc3a
00000070: 16b8 7abd 7a0b 32bc 192a 3c3d 6496 37bc
0.012901477 0.027432948 0.0462501 -0.010441494 0.036651935 0.029163495 -0.006184576 -0.02545973
0.016409367 0.018313905 0.023221841 0.06458594 -0.019488992 0.032530528 0.015971875 0.033660695
0.008081023 0.032795433 0.027453858 0.039811235 -0.030080546 -0.01110169 0.03490062 0.013573311
0.009548596 0.006030283 0.077173665 0.0014407858 -0.061210714 -0.010866994 0.045938585 -0.0112052895

unet_model.enc.3.main.weight f4 [32, 32, 4, 4]
00000000: 3d20 5dbd 8d6e 453c 3b37 8cbd 0675 2f3d
00000010: 5378 35bd d036 00bd 782d 7a3d a4a1 553c
00000020: dcb5 36be 904d bbbd 91a2 a83b f915 c23c
00000030: 6671 1abe 7285 87bc 5f9a 9f3d d73a acbc
00000040: dddd bfbd 0783 2abe e40a 5fbd 82ef b4bb
00000050: b7b2 5fbd d130 ccbd 9f6d 77bd 26dc 2dbc
00000060: 0076 b43c 2add b2bc 8123 bc3c f7a6 973c
00000070: 4b53 b53d cf7b 4f3d 2301 983d a547 033d
00000080: 9104 bfbd 3bfd 8a3c eaf5 853c 3a74 f83c
00000090: 69ef 9f3c 9e3e 22bd 0953 a43d 913d 813c
000000a0: 0388 d6bc 05c3 c93c d0d0 323d eeb5 b03c
000000b0: 70a4 a33c 8fb9 1a3c 1879 2cbc f8b3 993b
000000c0: e71a 4f3d 6b9b 8cbc 01b4 1e3d 425d e4bd
000000d0: 09f6 1b3d f0d2 51bd b752 eebd efea 51bc
000000e0: 0759 5d3b 0a5a 813a b399 97bb 35ef 14bd
000000f0: f9ae be3c 74b3 183c 716f 52bd 39a5 bf3c
00000100: 9d4c ddbd 2d71 e2bb 8197 893c 1514 0f3c
00000110: d207 86bd 6756 debd 4319 f4bd 6c01 333c
00000120: 73b7 12be b632 1cbe 9f0b f3bc 1fe8 003d
00000130: a164 f63c 7034 073d 1d2d 833c 833c a93c
00000140: 9aa6 3bbd 7dbc 5e3c dc88 64bb 962f a03c
00000150: 07af a9bc cf67 833c 15fd 6aba 52b6 623c
00000160: b8d6 f8bb 768d 763c efe9 043d cb60 433d
00000170: 4b7e 163b 4a43 573d 6cec 3dbc df9c e93c
00000180: 2efe 1abd b759 3b3d 0306 2fba d650 6c3c
00000190: cc20 4c3d 2c40 983c 8769 ae3c f74c 213c
000001a0: b441 4abb a19d fb3c 51f2 b13d 592d 873d
000001b0: 91bd c8bc da55 6ebc 4137 a83b 4692 923a
000001c0: e06a b2bd c270 92bc 61b7 4dbd 9daa 44bd
000001d0: fa2b 32bc 8c41 1ebd 0026 633d 025a 7ebc
000001e0: ff40 e1bb 3e89 35bc 13ae 2abd 2c30 963c
000001f0: fd02 8a3c 556c aabd 2854 78bd ae81 08bd
00000200: eab1 d23c 3569 aa3c 3eaa a73d a0ac 5b3d
00000210: 2ef1 12be 5cb0 7ebd 9a4c 33bd 9258 de3c
00000220: 7085 23be 12ce 05be 5b0f 57bc 31c4 07bc
00000230: ce1a 453c 0a0e 90bb 7863 c1bc a709 cfbc
00000240: 9016 d0bd 6d43 5f3c 2414 47bd 1ba7 1dbd
00000250: 9a5d c23c fae2 ab3d f0b8 823d 0874 d93b
00000260: 1cfd b63d e99a b93d 3f22 8d3d 8a43 b73b
00000270: 1bdd 933d 22e3 7b3d 20db c63d 8157 59bd
00000280: 75d6 90bb 81f1 0f3d d505 01bd 9fe9 7dbd
00000290: 0e5a 31bd ba98 98bc 5a79 163d 8b54 213d
000002a0: f976 883c 9b5b 853c 413d cc3d cd83 bb3d
000002b0: ce8e ec3a fff5 fa3d 03d8 493c 23d3 743d
000002c0: 5f75 853d 39b0 973d 2f08 da3d 903f 223c
000002d0: 261e 113d 0287 423d 37a3 323d 5259 bc3c
000002e0: db11 373d 55d2 72bd 7207 da3a 967f a2bd
000002f0: e0a9 54bd 6a57 00be f5b1 6abd 2793 5ebd
00000300: aa31 28bd 1be4 6fbd 880c 3dbd 618d e53c
00000310: abf7 48bd 8178 093d dc72 8fbc 6cf6 a639
00000320: 0336 46bd 1a88 1d3c 9520 40bd 1aad 4f3d
00000330: 7065 81bc 5fb1 3cbd 9d0b 9b3c cd04 d43c
00000340: e269 0a3d 3507 9d3d 713f 273d 1636 ffbb
00000350: e353 b33d 6fa5 ae3d 763a 07bd ba3f a3bc
00000360: d27d 363d 91aa 053c 3446 8c3c 2466 08bd
00000370: 183e 523c ef06 07bd 0a00 a1bd 6d54 39bd
00000380: 6aa9 2b3d 2d39 e63c 3309 363d 3256 e0bc
00000390: e45a e83b d2bc 0a3d 7c4d 42bc cde2 b2bd
000003a0: 8eeb 4f3d 0f35 2ebc c411 76bd 1ec6 86bc
000003b0: caf2 8abc f075 97bd 6a39 96bd 4a64 a4bc
000003c0: 6801 803d 0097 b13d 346a 9e3d ba56 3b3d
000003d0: 2061 4fbc 0273 193d 081f 803d f852 fd3c
000003e0: 6711 b53c c4ee 0b3c c143 973c f035 d13d
000003f0: cb11 2d3d 64d2 aabd af43 89bd bbbb 503d
-0.053985823 0.012050283 -0.06846472 0.04283621 -0.044304203 -0.031302273 0.06107852 0.013039026
-0.17842811 -0.09145653 0.0051463326 0.023692118 -0.1508232 -0.016543124 0.07793116 -0.02102415
-0.09368489 -0.16651545 -0.054453745 -0.0055217156 -0.054613795 -0.099702485 -0.060407277 -0.0106115695
0.022028923 -0.021833975 0.022966148 0.018512232 0.088537775 0.050655182 0.07422092 0.032050747
-0.09327043 0.016966453 0.016352613 0.030328859 0.01952334 -0.039610498 0.0802365 0.015776427
-0.026187902 0.024629125 0.04365617 0.021571126 0.01997587 0.009443655 -0.010526918 0.0046906434
0.050562765 -0.017163953 0.038745884 -0.111506 0.038076434 -0.051226556 -0.1163687 -0.01281236
0.0033774988 0.0009868753 -0.0046264767 -0.036360938 0.023276793 0.009320129 -0.05137581 0.023394214
-0.108056284 -0.0069104643 0.016795876 0.008732815 -0.0654446 -0.10856324 -0.11918881 0.010925632
-0.14327793 -0.1525372 -0.029668627 0.031471368 0.03007728 0.033008993 0.016012723 0.020658737
-0.04581318 0.013594744 -0.0034871614 0.01955394 -0.020713342 0.01604071 -0.0008964104 0.013837414
-0.007593956 0.015048375 0.03244966 0.04769973 0.002296346 0.052554406 -0.011592012 0.028517185
-0.03784006 0.045739856 -0.0006676616 0.01442357 0.049835965 0.018585287 0.021290554 0.00984501
-0.0030861916 0.030714812 0.08688796 0.06600446 -0.024504455 -0.014546836 0.00513354 0.0011182509
-0.08711791 -0.017876033 -0.050223712 -0.048014272 -0.010874743 -0.03863673 0.05545616 -0.015524389
-0.006874203 -0.011080084 -0.041669916 0.018333517 0.016847128 -0.08321444 -0.060627133 -0.033326797
0.025719602 0.02080212 0.08186768 0.053631425 -0.14349815 -0.06217991 -0.043774225 0.027141843
-0.15968871 -0.13066891 -0.01312622 -0.008286522 0.0120303165 -0.004396205 -0.023607 -0.025273157
-0.101605535 0.013626915 -0.048603192 -0.038489442 0.023726273 0.08392902 0.0638293 0.0066361465
0.089349955 0.0906275 0.068912975 0.005592768 0.07219907 0.061495908 0.097097635 -0.053061966
-0.0044200965 0.035142425 -0.031499702 -0.061990377 -0.043298773 -0.018627513 0.036736824 0.039387267
0.016658293 0.016279032 0.09972621 0.091559984 0.001804793 0.12253951 0.012319568 0.05977167
0.065165274 0.07406659 0.10646092 0.00990285 0.035429142 0.047492035 0.043612685 0.02299181
0.044694763 -0.05928262 0.0016634299 -0.07934491 -0.051919818 -0.12533346 -0.05729862 -0.054339554
-0.04106299 -0.058567148 -0.04615453 0.028021516 -0.04906432 0.033562187 -0.017510824 0.00031845586
-0.048391353 0.009614969 -0.046906073 0.050702192 -0.01579544 -0.04606759 0.018926436 0.025881195
0.033792384 0.0766739 0.040831987 -0.00778843 0.087562345 0.08527648 -0.033014737 -0.019927848
0.044553585 0.008158342 0.01712332 -0.033300534 0.012832187 -0.032965597 -0.078613356 -0.04524653
0.041909613 0.028103435 0.044442367 -0.027384851 0.007090913 0.03387148 -0.011859294 -0.08734665
0.05076175 -0.010632767 -0.060075536 -0.016451892 -0.016961474 -0.07395542 -0.073351696 -0.020067353
0.06250268 0.08671379 0.077351004 0.045737006 -0.012657434 0.037463196 0.06255919 0.030923352
0.022103025 0.008540813 0.018464925 0.10215366 0.042253297 -0.0834091 -0.06702363 0.050960284

unet_model.enc.3.main.bias f4 [32]
00000000: d925 c23c 927f 5a3b 0aa0 debb d353 903c
00000010: 8c20 e6bc 2e00 863c e790 fd3c 76a7 463d
00000020: d018 26bd 09d8 973a 68a1 833c 6fe5 32bd
00000030: e8b2 3bbd f843 13bd f355 fd3c 6b65 f53a
00000040: 5fab 7abd abdb 8cbb 2b64 8ebc e8e5 8dbd
00000050: bfda e53c 8035 903c f0ca 26bd 8d02 94bd
00000060: c738 053c ea36 6abd 147b 173d 23d5 0bbd
00000070: e7fc a63d de85 bdb9 83b6 49b8 0f98 dbbc
0.023699688 0.0033340198 -0.0067939805 0.017618096 -0.028091691 0.016357508 0.030952884 0.048499547
-0.040551007 0.0011584769 0.016068175 -0.043675836 -0.045824915 -0.035953492 0.030924773 0.0018722242
-0.06119859 -0.0042986474 -0.017381748 -0.06928617 0.028058408 0.017603636 -0.04072088 -0.07227049
0.008131213 -0.057181276 0.03698261 -0.03413881 0.08153706 -0.00036148628 -4.809211e-05 -0.026805906

unet_model.dec.0.main.weight f4 [32, 32, 3, 3]
00000000: af36 7abd f211 323d 24bd 8aba f77e ebbb
00000010: d5ed b33c fdbe 4f3d 3e7d 73bc d9d2 94bd
00000020: f3fe 8cbd 6c22 42bd 2320 3a3d fdf4 a83d
00000030: e8c1 a5bd 79ae fb3c 649d 02bd 1332 ecbc
00000040: 1dea dd3c bc71 c83d 07ad 3fbc 5373 533d
00000050: 4fe9 e1bc fcf5 973c 93b8 193c 9a25 0e3d
00000060: 4eb9 97bd f4fd f83c c577 623d d490 983c
00000070: ec83 403b accd d63c 879e cb3c e1de ca3b
00000080: d63d 93bd 9559 03be 939e d0bc bf9f 8fbc
00000090: a3ab c43b 838f c9bc 24ae cdba 9ced 0a3c
000000a0: 346c 8fbc b0f0 6abd 9bdf bd3c a9e4 cabb
000000b0: d48b 9abc 675e 05bd 0120 9abc 089f ca3c
000000c0: 6748 d8bc 1c7e aebc b522 29bc fb52 2b3c
000000d0: e059 3b3c 0021 84bd f427 eabc e0f9 153c
000000e0: c18c e8ba a467 f73b f432 863d 66a4 503d
000000f0: 4349 773d 79d6 1b3d 8754 923a 3634 bb3d
00000100: 78e0 423d 566a 10bd d7b7 063d d025 efba
00000110: 6a8c bebc 41a9 26bb 0f41 9fbd 75df 67bd
00000120: 85d9 15bd 9323 fbbc 4921 d0bc d0ca 313b
00000130: dee3 e33c bcba e93c 7dac 1f3c ff1a 5a3d
00000140: 7ea8 a6bb 6d14 83bc 6b52 5dbd e468 8aba
00000150: 9114 cc3c 40aa 8ebd eb8e 31bd ced5 d23d
00000160: bb48 e03c 28a2 1dbd 3e0f 15bd b1d7 803d
00000170: 44e4 d0bb 891c e13c 4ab0 083e c002 0fbd
00000180: 7f43 8c3a 5de2 0e3d c89e 9cbd a700 293b
00000190: 93b2 1c3d e5cb 90bc fb83 5f3d d8e0 3f3d
000001a0: fc37 a5bc b059 db3c 2370 fcbd a449 153d
000001b0: 4e65 20bd cc15 c13d 5d8b 19bd 8143 16bd
000001c0: 3c84 8e3c 6f94 9d3d f7ad 963c 2e88 b03c
000001d0: 790b 903c 22c7 32bd 959b 8c3c 5ef9 1abd
000001e0: 0adc a33d 4574 7abd 6bf3 a1bc 9bab febc
000001f0: 703b 5bbd 55c1 4fb7 2484 94bd becd 19bd
00000200: 1d25 343d 0766 cdbc 92b3 943d 8e72 8fbc
00000210: 4107 933d d6d3 8f3d ab40 a53d 4fcb a2bd
00000220: ec3c 303c f7b8 00bd 4f32 50bc d85c 873c
00000230: d7af 44bc 0d96 a0bd 716f 94bc 36d5 973d
00000240: d86c f03d cf52 1abd 5e5b 19bb e517 d83d
00000250: dc3c 773c 4fa3 503d 6a11 983d 6d06 b83d
00000260: 6fa4 683d 746d 7bbb 7139 ae3d 5368 32bd
00000270: 4534 91b9 5d2d 07bb 4e08 07be f202 2fbc
00000280: bd1f 9b3d afc1 b4bd 8909 90bd a1ff aabd
00000290: 5840 bebc 5d6e e03d a5cf 8abd 34ec b8bd
000002a0: c19c d73d 4203 b2ba 4aa5 e03c 4953 5d3c
000002b0: dcb3 183c f676 113d 3aa4 243c 248b 743d
000002c0: b0e4 b13c 1da7 7f3d 599b f4bc 5525 efbc
000002d0: 38da 8f3d c7cf 1f3d a51c b03d a1ac 15bd
000002e0: 8a6d e1bb 990c 67bd e1ab 74bc 7d90 38bd
000002f0: e58e 76bc 4dc2 c2bd 180d 09be 2692 153c
00000300: e0e2 8fbc 10aa 0bba 0490 c1bc c2af 893d
00000310: 2024 b73d 57c7 b43c 5b97 f3bc 2310 783d
00000320: 77f9 3a3c 6a0b f93c fb63 af3d 9fb4 4c3d
00000330: c851 b13b 1a54 b63d e3f4 323b 9dfa c73d
00000340: 07b6 453d c294 cab8 4956 273d 6847 1a3d
00000350: 654d 07bb 4614 85bd 31ef 5cbd a90b 58bd
00000360: 5def 90bd 586b e1bc 336c 2d3c 3f51 88bc
00000370: d33f 9c3d 2349 db3b ef40 3b3c 3b81 5b3d
00000380: 326d 5b3d c000 4fbd a74c 7a3d 93ab b1bd
00000390: 782d 6f3d f373 6d3d 1404 ebbd df48 b13d
000003a0: 6add 2cbb 7a09 9cba 4e0b 37bd 0ace d13b
000003b0: 2323 f93c 025f 8b3d e6e2 753d f85b f33b
000003c0: e4b5 fabb 4a79 d43d de83 85bc 9e74 083d
000003d0: 44e1 39bc 0eb7 ddbc 7fb7 e5bb 150d 81bc
000003e0: ee63 afbc 8401 81bd e675 773d b190 18bd
000003f0: e72b aabd 5407 50b9 c72a 36bc f6d4 2d3d
-0.061087307 0.043474145 -0.0010584933 -0.0071867662 0.021963993 0.05071925 -0.014861403 -0.072667785
-0.06884565 -0.04739611 0.045440804 0.08249853 -0.08093625 0.030722843 -0.03188838 -0.028832471
0.027089173 0.09787318 -0.011698968 0.051623654 -0.02757707 0.018549912 0.009382385 0.03470383
-0.07408391 0.030394532 0.055290002 0.018623747 0.0029375507 0.026221119 0.024855865 0.00619112
-0.07189529 -0.12827142 -0.02546624 -0.017532228 0.006001906 -0.024604565 -0.0015692157 0.008479502
-0.01750765 -0.057358444 0.023177912 -0.006191809 -0.018865503 -0.032560732 -0.018814089 0.024734035
-0.026401712 -0.021300368 -0.010323216 0.010456796 0.011435002 -0.06451607 -0.028583504 0.009153813
-0.0017742143 0.0075501967 0.06552687 0.050938033 0.060372602 0.038046334 0.0011164107 0.09140818
0.04757735 -0.03525766 0.032890167 -0.0018245522 -0.023260314 -0.0025430473 -0.07776081 -0.05660959
-0.036584396 -0.030656612 -0.025406497 0.0027128942 0.027818616 0.028531425 0.009745714 0.0532484
-0.005086004 -0.01600095 -0.054033678 -0.0010559824 0.02491215 -0.06966066 -0.043349188 0.10294686
0.02737843 -0.038484722 -0.03639149 0.0629114 -0.0063748676 0.027479427 0.13348499 -0.034914732
0.0010701268 0.034883846 -0.076474726 0.0025787742 0.03825624 -0.01767535 0.054569226 0.046845287
-0.020168297 0.026776165 -0.12326076 0.036447182 -0.03915911 0.094279855 -0.037486423 -0.03668547
0.017397039 0.07694327 0.0183935 0.02154931 0.017583596 -0.04364694 0.017164031 -0.03783547
0.080009535 -0.06114604 -0.019769391 -0.031087687 -0.05352348 -1.2383175e-05 -0.07251766 -0.037549727
0.043980706 -0.025073064 0.07260813 -0.017510679 0.07179118 0.070228264 0.08068975 -0.07948934
0.010756712 -0.031426396 -0.012707307 0.016523764 -0.012004814 -0.0784112 -0.018119546 0.07413714
0.1173951 -0.03767663 -0.0023400406 0.105514325 0.015090194 0.050936993 0.074251965 0.089856006
0.05679744 -0.00383648 0.0850705 -0.043556523 -0.000276955 -0.0020626404 -0.13186762 -0.010681855
0.07574413 -0.08826005 -0.07033069 -0.083495386 -0.02322404 0.1095855 -0.06777886 -0.09029427
0.10527945 -0.0013581293 0.027422566 0.013508626 0.009320226 0.03551384 0.01004892 0.059703007
0.021715492 0.06241523 -0.029859232 -0.029192606 0.07024044 0.03901651 0.085992135 -0.036541585
-0.006879513 -0.0564085 -0.014933557 -0.04505967 -0.015048717 -0.09509716 -0.13383901 0.009129083
-0.017564237 -0.00053277705 -0.023628242 0.06722976 0.08942437 0.022067709 -0.029735258 0.060562264
0.011412016 0.03040095 0.08563992 0.04997694 0.0054113604 0.0890276 0.0027306608 0.097645976
0.048269298 -9.659819e-05 0.040853772 0.037665755 -0.0020645496 -0.064980075 -0.05393905 -0.052745495
-0.07076905 -0.027517006 0.010584879 -0.016640304 0.07629361 0.006692068 0.011429056 0.05359004
0.053570934 -0.050537825 0.061108258 -0.08675303 0.05839297 0.057971906 -0.11475387 0.08656477
-0.002637709 -0.001190468 -0.044688515 0.0064027356 0.030412262 0.06805231 0.06003084 0.007426735
-0.0076510776 0.103746966 -0.01629823 0.03331434 -0.011345211 -0.027064826 -0.0070104 -0.015753308
-0.021409955 -0.06299117 0.06041517 -0.037247363 -0.08309155 -0.00019839156 -0.011118597 0.042439424

unet_model.dec.0.main.bias f4 [32]
00000000: 70db babd 7843 70bd 0e28 4dbd 1fb4 43bd
00000010: f088 183d e7ea d73c 1db8 373d 405b 44bd
00000020: 28aa 59bb 88b9 5d3c d302 12bc dcf4 8a3c
00000030: 627f 803c 3f01 fa3c dd8d 4fbd a601 b6bc
00000040: 0fdc 47bd 6bab b33c 0c92 67bb f9c3 3cbd
00000050: 360b 3f3d 87c1 0d3b 7dd3 c4bd da5d 553d
00000060: 3906 003d d1a1 d03c ab8d bf3c 57bd a3bc
00000070: 22ee da3c 3ad4 2abc 9cf9 86bc 2d9c 09bd
-0.09123886 -0.058658093 -0.050087027 -0.0477792 0.03723997 0.026357127 0.04485332 -0.047938585
-0.0033212993 0.013533004 -0.008911806 0.016962461 0.01568574 0.030518172 -0.0506724 -0.022217583
-0.04879385 0.021932324 -0.0035334853 -0.04608533 0.04664155 0.0021630244 -0.09610651 0.052091457
0.031255934 0.025467785 0.023382982 -0.019987745 0.026724879 -0.010426575 -0.016476445 -0.033596206

unet_model.dec.1.main.weight f4 [32, 64, 3, 3]
00000000: a33f ecbc 1780 113a dfbb 1cbd ff4f cb3a
00000010: 96aa 5e3c 78b7 debc b695 693c be91 26bc
00000020: fec5 073d 55c3 3c3d 2fe4 53bd 4c71 f939
00000030: 6a40 67bd cc04 24bd 7a80 c5bc 94a3 71bd
00000040: 80b8 87bd ccdb 1cbc edf8 ddbc 597c d83c
00000050: 77c7 6f3d 5bd7 8ebc 4ca7 093d afc1 043d
00000060: 6334 1cbc 969e 9d3d c4f6 1b3d ef43 073d
00000070: 4ee9 0ebc 336d a1bc 0743 8fbd 2505 84bd
00000080: 4a89 22bd 1529 43bd b43a 7fbc 9056 123c
00000090: 04d7 273c 4db9 963c 6922 163c 46ba 643c
000000a0: 01fb f63c b353 3d3d 7e0e b33d a76f 893d
000000b0: 3ea3 4b3d b1bb a93d 7a46 f5bb 119e 9abc
000000c0: 6f35 af3d 6724 a33c 1657 3b3c 3bb1 c33c
000000d0: ba33 78bc 590d 0cbd 9654 3dbd a331 01bd
000000e0: 3ef9 73bd 1e49 b1bc 1aed 9fba fba0 2b3d
000000f0: 48d1 c2bd cc5e fcbc ab2c a93c 7845 8abd
00000100: ced3 e63b a304 943b 76b2 bbbd a45d 4a3c
00000110: a29e 3bbb 2d8d bdbc 6b49 1fbd 3866 18bc
00000120: 2f2f 9dbd 44fc 4ebd be0c 04bc 91ee d0bd
00000130: b289 d3bc 2833 353c 6fe0 e2bd 9d84 18bd
00000140: 6285 53bc 8ac3 6f3c 6a71 56bc ce9a 01bc
00000150: e32e 64bc 4511 f4ba 29d2 9b3c d841 e8bd
00000160: c97e c6bc 6614 8dbc 934e 523d 9c82 8cbd
00000170: d916 90bd e413 0bbb 1437 23bd d488 4dbd
00000180: 69d5 f439 0ca0 c6bd 0ef5 8abd 566e 6dbd
00000190: 6e90 173c f2c5 8fbd 0ede ffbc 1163 33bd
000001a0: d10e f7bc 4ef4 01bd 7457 cebc 6db2 313c
000001b0: 65d1 703d 5a06 cf3c e40b a53d 2cc5 263d
000001c0: befa 203d f725 1f3d 7568 893d 9c1b 233d
000001d0: 62f0 353d f948 7a3c fadf 033d c7cc 85bd
000001e0: f3d6 3e3a 46c5 5dbd 7f3f a2bd f33c b5bb
000001f0: d94a ccbc b3f0 443c 237b f8bb 4f21 b7bc
00000200: 99a0 26bd 6b01 15bb 67c4 54bd e402 6fbc
00000210: 9985 e3bc 8cd3 343c a6e3 09bd 19ad 1f3d
00000220: 2620 643c 7af8 04bc 3125 bc3d c5b7 c1bc
00000230: 771d afbb f5e1 b3bc 6a16 203b 03d9 953a
00000240: 98f1 50bd dc17 8ebd fc37 2fbd 18b2 39bd
00000250: 6066 70bd 8711 a6bb 2fb0 b3bc 296f 72bc
00000260: dc55 a43c 5dc5 2fbc a47c bb3b 76ca 20bc
00000270: fed6 a9bd 41b7 27bd 05f3 06bc 3099 20bd
00000280: 448d 6cbc 9f99 86bc a529 443b d74a e43c
00000290: 87af 843d 5e7d 19bd 4ee1 6c3d b86f e83c
000002a0: 8d71 62bd 5009 013d 09ab 863d b090 2cbd
000002b0: d0cd 83bc 84cf 793c 1c24 32bd d5fe 2bbd
000002c0: 34fd 40bd a693 aebd 698e a9bd 796b 86bc
000002d0: 21ee f7bb c446 a8bc c5cf df3b f9f2 72bd
000002e0: 990a 59bc 1579 a93b 1c28 ebbc 2d4f 03bd
000002f0: f8ca 2f3b c141 8ebc 8f88 f73b 9f69 4f3d
00000300: 0645 303b 454f ccbb c9c5 7abc 6448 1c3d
00000310: f6ab 8a3b 6935 fe3c 2ce4 b6bc 5bf9 7fbd
00000320: b5a6 9abc 88c1 6fbd 78f4 3a3b 641e 0e3b
00000330: e38f 95bc 795c 2cbc d487 ae3c 6639 84bc
00000340: d8f0 05bd f59f 97bb 0218 383d 1820 e63b
00000350: bb7b 33bd da31 5e3d 929f 833c 0aad 39bc
00000360: f6ea acbd 2e1c d0bc d54e 8f3c 482b 92bd
00000370: 935b 1dbd f269 363d 3c77 ecbc b7f3 4dbb
00000380: a37b 11bd c9ce 903d b0e4 543d c571 293c
00000390: 6228 353d fd0d 1c3c ebbd 0c3d 7fff 493d
000003a0: 5cc8 b83c f01a a13c 414c a83c 67aa 24bb
000003b0: c7f2 15bd 1666 a1bc caef 5b3c e390 1fba
000003c0: 7d3c 843d 138e 473d 4725 bcbc d39e 733d
000003d0: bf29 d6bc e23d 2d3d 3c0d f93b a8f1 c039
000003e0: 8371 bb3b 5191 01bc 2b86 bfbc ac40 14bd
000003f0: b156 973d 828d 113c 73ca 313d 2260 fc3a
-0.028838938 0.0005550398 -0.038265105 0.0015511512 0.013590476 -0.027187094 0.014256885 -0.010166584
0.033147804 0.04608472 -0.051731285 0.00047577394 -0.056457914 -0.040043637 -0.024109114 -0.05899389
-0.066269875 -0.009573888 -0.027096236 0.026426481 0.058539834 -0.017436674 0.033606812 0.032411274
-0.009533974 0.076962635 0.03807713 0.03302377 -0.008722616 -0.01970539 -0.06995206 -0.06446294
-0.03968171 -0.0476466 -0.015577961 0.008931771 0.010244135 0.018398905 0.009163477 0.013960427
0.030148985 0.0462224 0.087429985 0.06710749 0.049716227 0.082877524 -0.007485208 -0.0188742
0.085551135 0.019914819 0.011434337 0.023888221 -0.015149051 -0.034192417 -0.046223246 -0.031541478
-0.059563868 -0.02164131 -0.0012201399 0.04190157 -0.095125735 -0.030806921 0.020651182 -0.06751531
0.007044292 0.0045171543 -0.09164898 0.012351427 -0.0028628488 -0.023138607 -0.038888376 -0.009301715
-0.07675015 -0.050533548 -0.008059679 -0.10201753 -0.025822494 0.01105956 -0.110779636 -0.037235845
-0.012910219 0.0146340225 -0.013088563 -0.0079104435 -0.013927194 -0.0018620869 0.01902111 -0.11340684
-0.024230378 -0.01722164 0.051344465 -0.06860849 -0.07035608 -0.0021221573 -0.03984745 -0.050179318
0.0004669831 -0.09698495 -0.06785022 -0.057966553 0.009250743 -0.07020177 -0.031233814 -0.04379565
-0.030158432 -0.031727128 -0.025188185 0.010845763 0.058793444 0.025271583 0.080589086 0.04071538
0.039301626 0.038854565 0.06709377 0.039821252 0.0444187 0.015276187 0.032196023 -0.06533199
0.0007279955 -0.054143213 -0.07922267 -0.0055309474 -0.024938034 0.012020278 -0.0075830384 -0.02235475
-0.0406805 -0.002273644 -0.051945116 -0.0145880915 -0.027773665 0.011036765 -0.033664368 0.03898344
0.01392368 -0.008115882 0.09186781 -0.023647198 -0.0053440887 -0.02195833 0.0024427422 0.0011432472
-0.05101165 -0.069381446 -0.042778 -0.04533586 -0.058691382 -0.0050680074 -0.021934597 -0.01479701
0.020060472 -0.010728207 0.0057216454 -0.009813895 -0.0829296 -0.04094625 -0.008236651 -0.03920859
-0.014437977 -0.016430674 0.0029932049 0.027867718 0.06478792 -0.037473075 0.057832055 0.028373584
-0.05528407 0.03150302 0.06575591 -0.042130172 -0.01608935 0.0152472295 -0.043491468 -0.041991074
-0.047116473 -0.085242555 -0.08279116 -0.016408669 -0.007566229 -0.020541556 0.006830188 -0.059313748
-0.013247156 0.005171905 -0.02870565 -0.03205793 0.002682386 -0.017365338 0.007554121 0.050637837
0.002689661 -0.0062350356 -0.015305945 0.038154975 0.004231925 0.031031327 -0.022325598 -0.062493663
-0.01887832 -0.058534175 0.0028527062 0.0021685595 -0.018257087 -0.010520094 0.021305002 -0.016140651
-0.03270039 -0.0046272227 0.04494477 0.007022869 -0.04381917 0.05424676 0.0160673 -0.01133276
-0.08443253 -0.025404062 0.017493645 -0.071371615 -0.03841741 0.04453463 -0.02886545 -0.0031425783
-0.0355183 0.07070691 0.051975906 0.010342066 0.044227965 0.009524819 0.034360807 0.049315926
0.022556476 0.019666165 0.020544173 -0.0025125982 -0.036608484 -0.019701999 0.013423869 -0.00060869585
0.0645685 0.048719477 -0.022966994 0.05947764 -0.026142953 0.042295344 0.0076004546 0.00036801142
0.0057203188 -0.007908181 -0.023379406 -0.03619449 0.07389582 0.008883836 0.04340596 0.0019254724

unet_model.dec.1.main.bias f4 [32]
00000000: 667a 523c 3517 fc3c 2902 27bd e62a 0ebc
00000010: 48c7 d5bc 9bb3 2a3d 654d 2a3d d305 99bc
00000020: eca5 79bc 98dc 15bd e88d 8dbd 6089 97bb
00000030: a8fa dbbd 69c9 153c 855e cb3b 0561 12bc
00000040: c1f8 b63c 54ef 1dbd e295 ae3c 7744 28bd
00000050: 308a b7bc 88c7 bc3b 23fc 963c 7dbb f1bb
00000060: 32fc dfbc 66ca 303c 0fb7 d4bd ffd3 d3bc
00000070: fbda 5d3d dec6 173d 64da 0abd 4dbd 0d3d
0.012846565 0.030772785 -0.040773544 -0.00867722 -0.026096001 0.04167519 0.041577715 -0.018679535
-0.015237313 -0.036587328 -0.06911832 -0.0046245307 -0.10741168 0.009142258 0.006206336 -0.008934264
0.022335412 -0.03855832 0.021311704 -0.04108092 -0.02240476 0.0057610907 0.018430775 -0.0073770867
-0.027341936 0.010790443 -0.10386478 -0.025857924 0.054163914 0.03705489 -0.03389968 0.03460436

unet_model.dec.2.main.weight f4 [32, 64, 3, 3]
00000000: 5a44 31bd 6810 bfbc ad10 97bd 021c 65bd
00000010: 7f25 0ebc c464 91bc a2cc 4fbd eda5 71bd
00000020: 8041 92bc c28a 0dbd 520a c6bc 4e6c 053d
00000030: ef24 c4bc 0018 1fbc 1b54 f7bc 4069 153c
00000040: c53e 5dbc 9e19 bcba 7a37 793d ec49 f1b9
00000050: fff1 0b3c edec f13c 506b 2c3d a2c4 55bc
00000060: 27f6 083c a12f bc3c 8852 963c d21d 8c3b
00000070: 78e7 753d 5a25 6d3c 963b 17bd dd71 8fbc
00000080: 0236 bf3c b56a abbb d50f 903c 9fcb 213d
00000090: 3102 44ba 3c91 2a3c c434 a6ba 5362 37bc
000000a0: c532 e53c 27b6 f5bb f277 d7ba d8c4 133c
000000b0: 2528 adbc ec55 afbc cfbb c83c dc7e 20bd
000000c0: 768b 41bd 2d97 d73b e15c d1bb ab48 a8bc
000000d0: 2db4 23bd f117 11bc 4636 d33c 6fbc 8dbc
000000e0: 7568 72bc 623d 003c 10bb 803c a227 7dbb
000000f0: 5069 f73c a1ec a8bc 3e95 69bd 223a 2c3d
00000100: 3a6c d93c 68f5 ecbc db9c 873c ffdf a03c
00000110: 3517 fd3b bbf4 f73a ad33 b83c e271 dcbc
00000120: d415 02bd d4f9 153d 332d 6a3d 723d 113c
00000130: 832d 33bb c814 c43b c537 fb3c 7256 a83c
00000140: f00d 1e3b 8d7f 613b aef8 6a3b fe37 ad3c
00000150: f5ac 343d 0f1f 8abc 1311 243d f2e3 093c
00000160: 775b 1fbd 9d10 97bc 3c87 c0bc 76ca 57bc
00000170: 8414 59bd 30e4 05bc 92ca 83bd cedb 04bd
00000180: 967e 16bd 7116 0ebd bdd9 5fbd 7eb8 68bd
00000190: fb03 0a3c b09c 8cbd ec5d f3bc 791d 83bb
000001a0: ff35 66bd 6e1f edbc b1c7 3dbd e0cf c4bd
000001b0: 99f7 68bc fde1 cdbc 3c66 efbc 964f 653c
000001c0: b617 10bd 80ce 61bb baff ecbc 2ab9 6cbc
000001d0: a377 723c 93ad f6bc 9468 1dbc 9b0f 30bd
000001e0: ad24 85bd daa6 8abd 3d03 07bc 1da7 0abd
000001f0: 24d1 a13b 8705 24bc 1ef8 18bd 8c66 573c
00000200: 7014 253d 02ad 19bc a4c0 c73c e9bf f3bc
00000210: 412e 013d 834b c4bc fb37 a8bc 50c0 04bd
00000220: deeb 5ebd 2033 44bd 0b71 f0bc 5fea 933c
00000230: 12e3 9bbd 796e 87bd 8c34 103c e0fa a7bc
00000240: 1320 993b 27d6 08bc 96a2 5b3c bdb6 913c
00000250: 2d13 ea3c 8ce4 413d 2128 583d 019a f7ba
00000260: 0717 943d c749 34bd bf99 60bd fd78 67bd
00000270: c4e4 ce3c a261 b0bc aa30 4bbc be5c 24bc
00000280: 1b2f 3abd 264d 2dbd 2ed7 293d fce7 243d
00000290: 26f0 bfbc d96c ed3c 1948 193d 9384 2abc
000002a0: b7f0 35bd 88e2 8bbb 6d5e 2dbd 6763 563d
000002b0: 2b94 5d3d bd1c 60bb ad69 52bc cfbf d03c
000002c0: 7e97 653c fcd7 15bd e0cb c8bc 062a f0bc
000002d0: 7237 c03c 2813 1ebd 1d39 cdbc c5b2 c0bc
000002e0: 75fc 7c3c 74ed 3abd 7c03 01bc a782 2bbd
000002f0: 3a6b 01be a2ff 86bd bd68 c83c 8de1 56bd
00000300: d51b f8bb 2a77 713c 9397 52bc 4c10 45bd
00000310: d0b1 8e39 6c1e cbbc 1c7e 64bc d37c c4bc
00000320: a8b2 4b3d 13c7 a83b f700 79bd ba3f 87bc
00000330: 3853 f9bb c6d3 38bd 1a2e f2bc db6a 57bd
00000340: 405c 3c3d da90 0abd 47ea d83c af9f 503c
00000350: a2e9 0e3d ffbc 103c 1321 df3b ae28 e4bc
00000360: 8e5f 67bc 749e 023d fb40 cb3c 4c8c ae3c
00000370: 1914 653d 7699 89bc 7317 a03b c69a 353c
00000380: 8001 883c a485 cf3a 464f c1bc 246a 8f3c
00000390: 1bbb af3c 45a0 413c 53e9 a13c bee9 33bd
000003a0: 068b 943c 2132 203d efab 03bc 41a0 f83c
000003b0: 441a 6dbc 730f 89bb cf6a 29bc a532 d8bc
000003c0: 22f6 89bd 727a a3bb 4641 1abc 5401 49bb
000003d0: 1720 63bd 1f9d 7ebd e740 49bd 45f9 903b
000003e0: 9557 e4bc 1928 2abc 26cb 3dbd c42d 05bd
000003f0: 63f5 98bc 0696 b53c 9eb7 923b 10fb 76bd
-0.043278076 -0.023323253 -0.073762275 -0.055934913 -0.008675932 -0.017748244 -0.050732262 -0.05899613
-0.017853498 -0.034556158 -0.024174843 0.03257399 -0.023943393 -0.009710312 -0.030191472 0.009119332
-0.013503735 -0.0014350896 0.060843922 -0.00046022178 0.008541583 0.02953192 0.04209453 -0.013047369
0.008359469 0.02297193 0.0183499 0.004276016 0.0600352 0.014474237 -0.03692206 -0.017510349
0.023341183 -0.0052312263 0.017585674 0.03950083 -0.0007477133 0.010410603 -0.001268052 -0.011192876
0.02797831 -0.007498521 -0.0016438945 0.009019099 -0.021137306 -0.021403275 0.024503617 -0.039183483
-0.04725214 0.006579301 -0.006389246 -0.020542463 -0.03996675 -0.008855806 0.025782716 -0.017301766
-0.014795412 0.007827135 0.015714198 -0.003862836 0.030201584 -0.020620646 -0.057027094 0.042047627
0.026540864 -0.028925613 0.016554287 0.01963806 0.0077237138 0.001891754 0.022485578 -0.026909772
-0.0317591 0.036615208 0.05717201 0.008864747 -0.002734036 0.0059839226 0.030666241 0.020549033
0.0024117194 0.0034408302 0.003585379 0.021144863 0.044110257 -0.016860513 0.040055346 0.008416163
-0.038905587 -0.018440539 -0.023501985 -0.013170829 -0.05299808 -0.00817208 -0.064351216 -0.032436185
-0.036741816 -0.03468937 -0.05465101 -0.05681657 0.008423801 -0.06865823 -0.029707871 -0.004001316
-0.05620384 -0.02894565 -0.04633302 -0.096099615 -0.014219188 -0.025132174 -0.029223554 0.013996026
-0.035178863 -0.003445536 -0.028930534 -0.014448443 0.014799031 -0.030112064 -0.009607453 -0.042983633
-0.06501136 -0.06770106 -0.008240518 -0.033850778 0.0049382616 -0.010011083 -0.037345998 0.013147008
0.040302694 -0.009379627 0.02438385 -0.029754596 0.03153825 -0.023961788 -0.020534506 -0.032409966
-0.05442416 -0.04790032 -0.029350778 0.018056093 -0.076116696 -0.06612868 0.008801591 -0.020505369
0.004673013 -0.008351839 0.013405463 0.017787332 0.028573597 0.0473371 0.052772645 -0.0018890501
0.072309546 -0.044015672 -0.054834124 -0.056511868 0.025255568 -0.02153093 -0.012401739 -0.010031877
-0.04545508 -0.042309903 0.041464977 0.0402603 -0.023429941 0.028982567 0.037422273 -0.010407585
-0.044419017 -0.004268948 -0.04232638 0.05234089 0.054096382 -0.0034196817 -0.012842578 0.025482086
0.014013169 -0.036582932 -0.024511278 -0.029316913 0.023463938 -0.038592488 -0.025051648 -0.023522744
0.01544105 -0.04563661 -0.007874366 -0.041872647 -0.1263856 -0.06591727 0.024464006 -0.052461196
-0.007571677 0.014737884 -0.012853521 -0.048111245 0.0002721683 -0.02479478 -0.013946082 -0.023985302
0.049730927 0.0051506846 -0.060791936 -0.01650988 -0.0076087974 -0.045123838 -0.029562999 -0.05259214
0.045986414 -0.033829547 0.0264789 0.012733384 0.03489078 0.008834123 0.0068093627 -0.027851429
-0.014121903 0.031889394 0.024811259 0.021307133 0.05592737 -0.016796809 0.004885608 0.011084264
0.016602278 0.0015832675 -0.02359737 0.017506666 0.021451524 0.011817996 0.019764578 -0.043924086
0.018132698 0.039110307 -0.008036598 0.030349853 -0.014471594 -0.00418275 -0.010340407 -0.026391337
-0.06736399 -0.004988962 -0.009414976 -0.0030670958 -0.055450525 -0.06216156 -0.04913416 0.0044242465
-0.027873794 -0.010385537 -0.046336316 -0.03251435 -0.018671697 0.022166263 0.0044774553 -0.060298026

unet_model.dec.2.main.bias f4 [32]
00000000: 5ea3 e23b 9b87 21bd 72b4 02be bf40 2f3c
00000010: 1519 9fbb cc2f 8fbc f24e 613d 0d2e e7bd
00000020: 0d74 9a39 3836 f73c 3512 e03c 47f7 423c
00000030: 4b7b 2f3d 844e 213d a74c 113c a964 8a3c
00000040: 6f1d 01bc 8748 563b 27d1 31b9 a0e3 6b3d
00000050: 27d8 cfbd 1f19 48bd 31f4 bdbc 6dc7 21bc
00000060: 5ece 1a3b 376b 1c3d 6795 97bc 54e1 ac3d
00000070: 8cf9 b23c 9879 6f3d 87e2 153d a2f9 9d3c
0.0069164475 -0.039435964 -0.12764147 0.010696589 -0.004855285 -0.017478846 0.05500693 -0.1128808
0.00029459634 0.03017722 0.027352432 0.011899776 0.04284219 0.03938152 0.008868373 0.016893702
-0.007880553 0.0032697038 -0.0001695795 0.057590127 -0.1014865 -0.048852082 -0.023187729 -0.009874207
0.002362154 0.038188186 -0.018503858 0.084414154 0.021847509 0.05846557 0.036592986 0.019284073
