experimental_results/08250716_decolearn_is_optimize_regis=[true]/regis_model/epoch030.pt (torch, 975031 bytes, 25 tensors)

unet_model.enc.0.main.weight f4 [16, 2, 4, 4]
000000 e1 3e 3f 3c 28 b7 55 3d a1 9d c0 3d 44 18 c9 bd
       0.011672706 0.052176625 0.09405065 -0.098190814
000010 e6 d0 56 be 9f f5 b1 3d 6a 7f b5 bd 98 38 08 3e
       -0.20978126 0.08689427 -0.08862193 0.13302839
000020 42 6a 04 be ec b0 3c be 8f b7 2b 3e 24 90 15 3e
       -0.12931159 -0.18426865 0.16769241 0.14605767
000030 4c eb b2 bd a4 84 4a be 5a b8 06 be 05 0f 76 3b
       -0.087362856 -0.19777161 -0.13156262 0.0037545573
000040 fd 42 13 bb 94 9b 7d bd fb 7b 5b 3e fe c4 c3 bd
       -0.0022470348 -0.06191595 0.21434014 -0.09559058
000050 97 76 c9 bd 0d 5c 02 be 07 5a 5f 3d e8 83 4e 3e
       -0.09837072 -0.12730427 0.054529216 0.20167506
000060 26 ea c7 3d 54 2b 21 3e f8 55 33 bc b4 cd 6c 3e
       0.09761457 0.15739185 -0.0109457895 0.23125345
000070 79 aa cd bd 8b 85 3e be 33 bb a5 bc c1 46 24 3e
       -0.10042281 -0.1860563 -0.020230865 0.16042615
000080 d0 af 3a be 17 56 81 bd ca 3c e5 bd c6 7a 3c 3d
       -0.1823113 -0.063152485 -0.11193235 0.046015523
000090 02 bd 62 3c 12 43 f4 bd a0 20 bf bc 65 c0 bd bc
       0.013839008 -0.11926855 -0.023330986 -0.02316303
0000a0 c8 99 b7 3c e3 e1 58 be 87 a8 c1 bc 18 00 31 bd
       0.022412196 -0.21179919 -0.02363993 -0.04321298
0000b0 09 e2 f7 bc c5 f9 52 3d 35 ff 8f bd 9f 08 2b 3e
       -0.03025915 0.05150773 -0.07031099 0.16702507
0000c0 4a 83 cb 3d 6c f8 40 3d 58 5e d0 3d 09 de 5a bd
       0.09937151 0.047111914 0.10174245 -0.053434405
0000d0 86 01 a7 3d 22 b3 50 3d c9 f5 54 be 2b 6b 39 bd
       0.081545874 0.050952084 -0.20796885 -0.04526822
0000e0 0f 24 45 3d cd 8f cc bd 63 67 3a be a3 3a d4 3d
       0.04813009 -0.09988365 -0.18203501 0.103627466
0000f0 ef 82 d3 bd 98 58 04 bc 4b 5a e9 3d 6a 30 39 be
       -0.10327708 -0.008077763 0.11394175 -0.18084875
000100 a0 9b 4d bc 87 a0 50 3e 68 ca 34 3e a5 ee a1 bd
       -0.012549311 0.20373736 0.17655337 -0.07906846
000110 89 fe 89 3d e0 82 2e 3e 7d 9f 01 3e 12 7d 3a 3e
       0.06738002 0.17042112 0.12658496 0.18211773
000120 11 fd e9 3c fb b6 d2 3d 9e d0 06 3e ab 27 b0 bd
       0.028563054 0.10288807 0.13165519 -0.08601316
000130 e2 bd c5 3c 2d 40 4e 3e b8 a3 e9 3d 4a 27 39 be
       0.024138395 0.20141669 0.1140818 -0.18081394
000140 5a 04 06 be 69 01 24 3e 0a 2e e0 3d 33 8b 0d be
       -0.13087597 0.16016163 0.10946281 -0.13822632
000150 2f 98 e5 bd 5b 31 df bc 32 fa 31 bc d7 71 ef bd
       -0.11210667 -0.027245214 -0.010862874 -0.11691635
000160 5c 66 c4 bd de 62 91 3c 11 e7 26 be 48 cd 61 be
       -0.09589836 0.017747339 -0.16299082 -0.22050965
000170 94 4a 52 bd d0 75 00 3d 85 b2 5e be 57 44 94 bd
       -0.051340654 0.031362355 -0.21747787 -0.07239597
000180 61 ed 8c bd 81 21 0d ba af 1c 86 3b c2 d8 61 be
       -0.06881214 -0.00053837156 0.004092775 -0.22055343
000190 f7 b4 25 bd 7d 96 5b 3d 4f 57 67 be ab 0e e9 bd
       -0.040455785 0.053610314 -0.225919 -0.11379751
0001a0 20 45 81 3d 04 e1 95 3d 1a 6d 77 be 90 48 c8 bd
       0.06312013 0.07318309 -0.24162713 -0.09779465
0001b0 84 9c b1 3c 03 76 2a be d1 5e 15 bd 0a 9a 5b be
       0.021681078 -0.1664658 -0.036467377 -0.2144548
0001c0 16 c7 bf 3d 3c 75 19 3e 06 7a 33 3e c3 ac 8e 3d
       0.093641445 0.14986128 0.17527017 0.069665454
0001d0 79 83 48 3e 6b f8 b5 bd 3f f4 99 bd ca e7 a9 bd
       0.19581403 -0.088852726 -0.07517289 -0.082961634
0001e0 c6 f3 2a 3e 0d 8a 1e 3e 11 7f 3e 3e 45 83 32 be
       0.16694555 0.1548235 0.1860316 -0.17432888
0001f0 a8 c7 17 3e 55 15 9f 3d a4 a2 16 3e 76 44 9e bc
       0.14822257 0.07767741 0.1471048 -0.019319754
000200 41 cf d6 bd aa 9d f7 bd 27 d2 38 3d cd 7b 98 3b
       -0.10488749 -0.12090619 0.045122292 0.00465343
000210 0b 74 4e be df b0 28 bd a6 21 dd bd 69 84 e0 3d
       -0.20161454 -0.041184302 -0.107974336 0.10962755
000220 3a d7 39 3c a6 20 39 be d2 8b 0f 3e e4 42 38 3d
       0.011342818 -0.1807886 0.14018181 0.044985667
000230 d6 c8 5f be c4 61 f7 3d 2a 88 e5 3d 1b 67 55 3e
       -0.21853957 0.12079194 0.11207612 0.20840113
000240 7e a8 5a 3c 0a d4 d5 bc df e7 c6 3d 2f af 1c be
       0.013345836 -0.026102085 0.09712195 -0.15301202
000250 fd 07 c8 bd 3a cb 04 be 37 5e a4 bd b1 d7 44 3e
       -0.09767149 -0.1296815 -0.080257826 0.19222905
000260 ac d1 9a 3d 5a a0 92 bd 74 dc fc 3d 70 f8 d8 3c
       0.07559523 -0.07159491 0.123467356 0.026485652
000270 64 e4 b2 3d 9e b7 32 3e 7b d8 2b 3d a2 63 b6 3d
       0.08734968 0.17452857 0.0419545 0.08905722
000280 f6 70 9c 3d 57 ee 47 3d 42 4d ac bd b6 59 48 be
       0.07638733 0.048811283 -0.08413173 -0.19565472
000290 0a f4 b5 bd 79 4f e7 bd be c9 23 3e 19 2a 6c 3b
       -0.088844374 -0.11294455 0.15994927 0.0036035834
0002a0 06 2d 62 3e 42 bb 22 3e 2a c0 27 3d cf b5 71 bd
       0.22087488 0.15891746 0.040954746 -0.059011277
0002b0 71 77 14 bd ef d7 c3 3b f8 65 92 3d 22 db a7 bd
       -0.03624672 0.005976669 0.07148355 -0.08196093
0002c0 c8 31 2f 3e 52 51 2f 3e ba 81 21 bd 1d 88 dd bd
       0.17108834 0.17120865 -0.039430358 -0.10816977
0002d0 f0 f1 01 3e a8 66 3a 3e 86 58 1d be c9 cc 6e be
       0.12689948 0.18203223 -0.153658 -0.23320307
0002e0 b5 d6 f7 3d 5b 1a c5 3d e3 ec b3 bd 20 09 13 bd
       0.12101499 0.096241675 -0.08785417 -0.035897374
0002f0 65 6b 0f 3e df 56 80 3b 0a 43 a4 3d bf 1a ed bb
       0.14005812 0.003916606 0.08020599 -0.0072358544
000300 26 25 16 3e 29 66 68 3d 5b 4f 3d bb d1 2b 8e bd
       0.14662609 0.056738053 -0.002888641 -0.06941951
000310 69 10 df bd 78 54 d8 3c 7a 3b cd 3d f3 87 f3 bd
       -0.10891802 0.026407465 0.1002111 -0.11891165
000320 54 58 38 bc 64 a6 66 bd 18 a5 c3 bd f1 62 10 be
       -0.011251528 -0.056311026 -0.095529735 -0.14100243
000330 b2 f4 07 be 70 eb 03 be f2 8b 92 bd 11 80 1f bb
       -0.13276938 -0.12882781 -0.07155599 -0.0024337808
000340 f3 75 b9 3d 5d 13 75 3e a5 74 8c 3d 71 97 ed 3d
       0.090557 0.23933168 0.06858186 0.11601151
000350 8f 20 c5 3d 3d 8b 45 3e 35 de a1 3d 36 5b 31 3e
       0.09625351 0.19291396 0.07903711 0.1731995
000360 ba aa c4 3d 63 65 46 bd a9 d2 39 3e e4 8c 9e 3c
       0.09602876 -0.048436534 0.18146767 0.019354291
000370 46 0c 17 bd a1 8a c0 3d 59 49 25 be 80 aa 59 3d
       -0.03687694 0.09401441 -0.16141261 0.053141117
000380 ee 47 14 be fe a1 5c be 7a 4c cd bd 7f 45 e8 bd
       -0.14480564 -0.2154617 -0.10024352 -0.1134138
000390 60 5e 0b be 5c 18 0a be 1d 73 17 3e 84 8a 95 3d
       -0.1361022 -0.13485855 0.14790006 0.073018104
0003a0 98 e8 a1 bd 35 da 82 bd ca 01 d2 bd e0 e7 e8 bc
       -0.07905692 -0.06389276 -0.102542475 -0.02843088
0003b0 92 ae 3a bd de 56 fa bc 81 da 46 3d 3d 94 68 bd
       -0.04557664 -0.030559 0.048548225 -0.056781996
0003c0 61 eb f0 bd 5f 1b e3 3c f2 5b 4e 3d 93 6c 35 bd
       -0.11763645 0.027723012 0.050380655 -0.044292998
0003d0 ae ba 5e 3d 89 05 c7 bd 5f 89 1a 3e e1 36 66 3d
       0.05437725 -0.097178526 0.15091465 0.05620468
0003e0 e2 5f 87 3d ad 18 bc 3d 07 df 2b 3e be ad c7 3d
       0.06610085 0.09184394 0.16784297 0.097499356
0003f0 e9 f5 b7 3d ad 2a ed 3d 1a 89 4d 3e e0 25 8e 3d
       0.089824505 0.115804054 0.20071831 0.06940818

unet_model.enc.0.main.bias f4 [16]
000000 11 32 3c 3c 9d 7e 8f 3d ca dc 72 bc 29 25 86 3c
       0.011486546 0.070065714 -0.014823148 0.016375141
000010 ac 32 45 bb 48 4d be bd 3f 17 81 bd be 12 31 3b
       -0.0030090017 -0.09292084 -0.06303262 0.0027019228
000020 bc be d8 3c ef 69 84 bd 7b 75 32 bd e2 60 b9 3d
       0.026458137 -0.06465518 -0.04356907 0.09051682
000030 3d 2d 99 3d c3 96 cd bd 1f ec ef bb 64 7a de 3d
       0.07479332 -0.10038521 -0.007321849 0.10863188

unet_model.enc.1.main.weight f4 [32, 16, 4, 4]
000000 68 cc ac 3c 15 f1 21 3d 8a e5 20 bb 40 fa c6 3c
       0.021093562 0.039536554 -0.0024550878 0.02428925
000010 11 67 0d 3c a4 cd 8d 3c 89 06 9e 3c 17 81 b6 3d
       0.00863053 0.017309971 0.019290226 0.08911341
000020 8b e7 6c bc 2e 8a 60 bd cf bc 25 3d 8b ff a9 3d
       -0.014459501 -0.05481928 0.040463265 0.08300694
000030 41 05 be bb fe 0b f4 bc d5 c8 4d bc 1c 74 d5 3d
       -0.005798966 -0.029790875 -0.012560089 0.10422537
000040 4a 5b bc 3d 1c 86 20 bc 0e 9d 35 ba 12 bc 2c bc
       0.091970995 -0.009797599 -0.0006928005 -0.010542886
000050 6e 72 71 3d d7 36 ce 3d 97 c0 bb 3b 36 37 1a 3c
       0.05894702 0.100690536 0.0057297456 0.009412577
000060 67 91 3c 3d ec 6b bc 3c 1e 86 bb 3d 9f 54 44 3d
       0.046037104 0.02300068 0.0915644 0.047932263
000070 5d 75 28 3d 77 2a 8d bb 39 19 83 3d 26 ab 51 3d
       0.04112755 -0.0043080407 0.06401295 0.05118861
000080 17 2f 0e 3c 12 85 c8 bd e5 4f 50 bd 9d 7e fe 3c
       0.008678219 -0.09791006 -0.050857443 0.031066233
000090 fd 95 11 bd 02 c3 f1 3b 5a 5b 11 bd a3 bf 37 bd
       -0.03554343 0.007377983 -0.03548751 -0.044860493
0000a0 75 56 dc 3c 94 df 17 3b 3f cf 5c 3d 40 9d 1c 3d
       0.026896695 0.0023174034 0.053908583 0.038235903
0000b0 99 ec 99 3a da 68 9e 3d 9b 5a 0d 3c d0 bf b1 bc
       0.0011743485 0.077348426 0.008627559 -0.021697909
0000c0 ed 43 31 3d f5 90 28 3d e5 a0 32 3d 28 52 c1 bd
       0.04327767 0.041153867 0.043610472 -0.09439498
0000d0 4a 26 78 3d bc 19 bd 3d a7 d4 3c bd 54 3b f9 bd
       0.06058339 0.09233424 -0.04610124 -0.12169519
0000e0 25 cf c8 3d 56 cc 00 3e a8 98 a6 3d 7e 8a d4 bd
       0.09805135 0.12577948 0.081345856 -0.10377978
0000f0 02 63 0b 3e 0f 45 15 3e 3b c5 a6 3d b3 15 cb 3c
       0.13611987 0.14577125 0.081430875 0.02479062
000100 83 6b 30 bd bb 06 92 bc 34 c4 88 3d 16 26 8b 3d
       -0.04307128 -0.017825475 0.06678048 0.06794374
000110 7b 40 33 bc 7b 02 dc bb 04 86 3e 3d 87 fa 49 bd
       -0.010940666 -0.006714163 0.046514526 -0.049311187
000120 61 aa 84 bd f4 78 59 bd 63 a7 30 bd d3 67 95 bd
       -0.0647781 -0.053093866 -0.043128382 -0.072951935
000130 62 8a fa bc 64 6f b3 bd 8c c0 88 bd 83 10 92 3c
       -0.030583564 -0.087614805 -0.066773504 0.017830139
000140 49 c8 e2 ba e2 43 71 3d 98 ad c7 bc c0 a2 32 bd
       -0.0017302121 0.05890263 -0.024374768 -0.04361224
000150 64 08 14 bd 67 d0 9a bc db 77 c3 3d ee f3 82 3c
       -0.036140814 -0.018898202 0.09544345 0.015985455
000160 95 e5 e4 bc 90 4e b5 3d 46 cf 49 3d 84 38 c7 bc
       -0.027941504 0.08852875 0.049269937 -0.024318941
000170 c6 6a 4b 3d 90 3d 0e 3d 20 8c 9a 3d d1 58 5f 3c
       0.049662374 0.03472668 0.07546258 0.013632015
000180 35 c6 7d bd 8d 20 26 bd 40 6d 52 3d cb cd a0 bc
       -0.061956603 -0.040558387 0.05137372 -0.01962938
000190 35 7e 06 3d 74 98 41 3d 2a e0 ae bb f4 2d 13 bd
       0.032835204 0.04726453 -0.005336781 -0.035932496
0001a0 56 c6 21 bd 4b 90 30 3d 28 32 52 bd 7a c1 ed 3c
       -0.03949579 0.04310636 -0.051317364 0.02902292
0001b0 c7 02 10 bc 5b c6 42 bd 63 5f 5f bd fe 6e 5c 3d
       -0.008789725 -0.047552448 -0.054534327 0.053816788
0001c0 a3 51 ea 3d 49 b1 05 3d d2 97 1c 3d 5b 37 00 be
       0.11441352 0.032639775 0.038230725 -0.12521116
0001d0 57 be 9c bc f9 03 44 bd d0 86 f9 bd 43 4e 22 be
       -0.01913373 -0.04785535 -0.121839166 -0.15850167
0001e0 e9 ea a0 bc cd d6 c6 bd 8f 7d a2 bd 82 b8 e3 bd
       -0.019643264 -0.09708939 -0.07934105 -0.111191764
0001f0 09 d5 51 bd aa 78 9f bc 3e a5 b0 bd a3 61 b9 bc
       -0.051228557 -0.019466717 -0.086252674 -0.022629565
000200 f5 ae 9d 3d 9e cc 26 3d 94 83 02 bd ba c7 bd bb
       0.07699386 0.040722482 -0.031863764 -0.0057916315
000210 dc 86 89 3d 8a f4 a7 3d 3e 69 fa 3c 63 7e b6 bd
       0.067151755 0.08200939 0.030567762 -0.08910825
000220 fd e5 be 3c b8 4b b4 bc 10 24 b3 bc d6 b3 24 bd
       0.023303026 -0.022008762 -0.021867782 -0.040210567
000230 de 61 bf 3c fe 8f 06 3d 9d af 7d 3d f7 7e e3 3d
       0.023362096 0.032852165 0.061935056 0.11108201
000240 8e 82 58 bd 9e 11 92 3d 62 f5 7d 3d e9 f2 a4 3d
       -0.05285888 0.071322665 0.062001593 0.08054144
000250 72 e5 2e bc 5f 07 a6 3d 3e 8c 31 3b b6 7d 82 bc
       -0.010674821 0.08106875 0.0027091647 -0.015929084
000260 24 18 1b 3c 15 4b 91 3c 97 d1 b6 bc 7c a1 14 3d
       0.009466205 0.017735997 -0.022316737 0.036286816
000270 6c 37 b1 3c aa 26 d4 3c 7f 84 aa 3d 5c 9e 96 3d
       0.021632873 0.025897343 0.08326053 0.073544234
000280 b5 5d b6 b9 71 67 c9 3c 3d ae 08 3c db bc 77 3d
       -0.00034783562 0.024585458 0.008342323 0.06048284
000290 7c c9 c6 3d a6 b6 0f 3a 71 53 e8 bc 05 9b a9 3d
       0.09706399 0.0005482234 -0.0283601 0.08281521
0002a0 74 89 2c 3d e0 3d 85 3c 32 b4 4b 3d 9b 8d b7 bb
       0.042123273 0.016264856 0.049732395 -0.0056015975
0002b0 d9 d8 c3 3d 7d 07 a0 3d bb 98 95 3b 27 98 29 3d
       0.09562845 0.07813928 0.004565326 0.04140487
0002c0 6d 4f 1d 3d 60 66 af 3c 0b d4 1b 3d 99 a6 3e bb
       0.038405824 0.02141112 0.038044017 -0.0029091
0002d0 ce 03 c3 3c cd 88 83 bc 5d 07 3f bd ac 2f 0f 3d
       0.023805525 -0.016056443 -0.04663788 0.034957573
0002e0 f0 2d 81 3d bb ff 3c 3d 0e df 8f 3c 4f 93 87 bc
       0.0630759 0.04614232 0.017562415 -0.016549734
0002f0 fd 40 78 3c 7f a7 fa 3c e8 e0 15 bd 84 9f c4 bd
       0.015152213 0.030597446 -0.03659144 -0.09600738
000300 8c 99 8c bc 5f 19 66 3d 42 5d 23 bd 17 67 b9 bc
       -0.01716306 0.05617654 -0.03988386 -0.022632165
000310 1a 0f 92 3d 28 93 ba 3d 33 ff 84 3d 8c f7 61 3d
       0.07131787 0.09110099 0.06493988 0.05516772
000320 ab 50 a9 3d df 16 bd 3d 21 f7 9c 3d 25 af 3d 3d
       0.08267339 0.09232878 0.076643236 0.04630961
000330 74 3d 83 bc be 9f 90 3b 3b bb fc bc 9b 76 be bc
       -0.016020514 0.004413574 -0.030850997 -0.023249915
000340 3a 1b cf 3a 0e 93 c3 bc df 59 55 3d 36 fb 94 3c
       0.0015800961 -0.023873832 0.05208766 0.018186193
000350 a4 67 c7 3c fc 2e 3c 3d 12 64 cd 3c 95 0c 0e 3d
       0.024341412 0.045943245 0.025072131 0.034679968
000360 61 7a 46 bb 29 31 3d 3d 36 72 9b bd 93 fa a5 bc
       -0.0030285346 0.04618946 -0.075901434 -0.020261085
000370 cf 77 58 3a 4b b5 dc bc 59 2f 37 bd 34 05 62 bb
       0.0008257599 -0.026941916 -0.04472289 -0.0034487965
000380 12 de c8 bd a3 8a 14 bd a6 36 a7 bd 70 a8 18 3d
       -0.098079816 -0.036265027 -0.0816472 0.03727001
000390 ba fd 49 3b c0 28 ec bc 31 2d 14 3d e7 d5 ee 3b
       0.0030821399 -0.028828025 0.03617591 0.0072886827
0003a0 a5 99 9a 3d 53 df da 3b fd ae 8d 3d 61 76 d9 bb
       0.075488366 0.0066794544 0.06918142 -0.0066364263
0003b0 0d c7 dd 3c a2 09 4f 3d 59 2a 1d 3c 53 8d d2 bc
       0.027072454 0.050546296 0.009592616 -0.025702154
0003c0 df 0e a8 3d bf ad a1 bc d1 03 e6 bc 58 39 e5 bb
       0.082059614 -0.019736169 -0.028077992 -0.0069953613
0003d0 af 64 2c 3d 57 43 c7 bc 51 56 8f 3b 8b 70 fd bc
       0.042088207 -0.024324102 0.0043743034 -0.030937454
0003e0 45 f2 2a 3d 01 0b 94 3d 78 49 ea 3d fb 60 ca bc
       0.041734952 0.07228661 0.11439794 -0.024704447
0003f0 09 4c cf bc 5c 7f ef bc dd 5b 2b 3c d9 9e 1f 3c
       -0.025304811 -0.029235534 0.010458914 0.009742462

unet_model.enc.1.main.bias f4 [32]
000000 bb ad 4e bd 15 30 f3 bc e3 57 2c bc 0d a4 12 3d
       -0.05045865 -0.029686013 -0.010519001 0.035800982
000010 14 59 05 3d 2b 81 32 bd 9c 45 2e bd 56 68 a0 3c
       0.032555655 -0.043580215 -0.042546853 0.019581001
000020 f9 a9 96 bc 19 94 b1 3c 2d 03 0e 3c 86 fd 95 bc
       -0.018391596 0.021677064 0.008667749 -0.018309366
000030 1d 9f 1b 3c 7c 80 43 3d b0 1d c0 3c c7 09 8d bc
       0.009498385 0.047729954 0.023451656 -0.017216576
000040 ff 27 b8 3c e9 5f e2 bc d3 86 13 3a 45 f0 a3 bb
       0.02248001 -0.027633624 0.00056276954 -0.0050030076
000050 26 3a 19 bc b8 4b 26 3d c4 3e 34 3d 26 0b 9b 3b
       -0.009352243 0.040599555 0.04400517 0.0047315536
000060 8e c4 32 bc 47 a1 51 3c e2 e9 9b 3c 25 85 0d 3d
       -0.01091112 0.012794799 0.019032422 0.034550805
000070 73 8c cb 3c cc 45 76 bc 31 20 02 3a d5 4c 44 bd
       0.024847245 -0.015031289 0.00049639033 -0.047924835

unet_model.enc.2.main.weight f4 [32, 32, 4, 4]
000000 65 0d 1a bd 3b e1 9c bc 4d 1c 23 3d 83 c7 bc bb
       -0.03761043 -0.019150367 0.03982191 -0.0057610883
000010 f4 7b b1 bc 1d 35 88 bd 32 ac 92 bc 0d 61 f9 3c
       -0.02166555 -0.066507556 -0.017904375 0.030441785
000020 16 76 8e bd 73 f0 c4 bb 2f 9f 55 bb ad c7 a6 3c
       -0.06956117 -0.006010109 -0.0032596102 0.020358885
000030 fe 9d aa bd 94 ee 01 bd 3c 7d ea bc 0f 1e 92 bc
       -0.08330916 -0.031721666 -0.02862417 -0.017836599
000040 7d cb 21 bd b8 30 0f bd 49 f5 7c 3c 34 4b 0f 3d
       -0.039500702 -0.03495857 0.01543934 0.03498383
000050 e4 47 60 bd af 76 a0 bc 79 63 8f bd 41 db e8 bc
       -0.05475606 -0.019587843 -0.07001395 -0.02842486
000060 9f 9f 01 bd bc 56 c8 bd a5 8f d3 bd 65 61 c5 bd
       -0.031646367 -0.09782168 -0.103301324 -0.09637717
000070 26 f4 06 be fa cb 98 bd ef 74 64 bd 12 6f 78 bd
       -0.13179073 -0.074607804 -0.05577558 -0.0606528
000080 8e a9 0b bd 3b 0a b2 bd 6c ce 8b bd b5 e2 11 be
       -0.034097247 -0.086933576 -0.06826481 -0.14246638
000090 c5 99 12 bd 26 ce 43 be 65 b2 27 be 95 68 04 be
       -0.035791177 -0.19121608 -0.16376646 -0.1293052
0000a0 14 88 78 bd e1 7f 06 be 30 e7 3c be cf 84 ab bd
       -0.06067665 -0.1313472 -0.18447566 -0.083749406
0000b0 a3 17 ce bb fb 98 8e bd 08 8f ac bd dd 81 ae bd
       -0.006289439 -0.069627725 -0.084257185 -0.08520863
0000c0 29 14 a9 3c 40 af 12 bc c9 04 b3 3d 1b 8b f1 bc
       0.020639496 -0.008952916 0.08741147 -0.029485276
0000d0 fd 32 a8 3c 91 1b cf 3c 83 79 fc 3c a4 b5 56 3d
       0.020532126 0.0252817 0.03081966 0.05241932
0000e0 54 17 3f bd 94 56 2c bc 4c 66 41 3d 71 7a 90 bc
       -0.046653107 -0.010518689 0.0472167 -0.01763651
0000f0 fb 6f db bb 62 5d 28 bd 11 d4 94 bc d5 08 61 bc
       -0.0066966987 -0.04110468 -0.018167527 -0.013735016
000100 b6 be 39 3d 63 11 9e 3d d0 34 8a 3d d3 44 df 3d
       0.04534789 0.0771816 0.067483544 0.10901799
000110 da 99 82 bd 5f f3 42 3d 5f 7c 84 3c be 9d df bc
       -0.06377001 0.047595378 0.016172586 -0.027296897
000120 23 e6 7e bd c6 bd 02 3c 55 2e 4e 3d 76 ab 05 3d
       -0.062231194 0.007979816 0.050337154 0.03263422
000130 a1 4e c7 3c ca 08 a0 3d 72 22 e4 3c 0f 85 af 3c
       0.024329485 0.078141764 0.027848456 0.021425752
000140 12 bd 24 3d fa 41 27 bb 7c 14 65 bc 37 a5 29 3d
       0.040219374 -0.0025521503 -0.013981935 0.041417327
000150 f5 f2 a5 bd cc 45 15 be 6d c2 b2 bd cf 27 a5 bd
       -0.08102981 -0.14577407 -0.0872849 -0.080642335
000160 cc 4c 82 bd 24 00 9c bd b8 c4 0b be 35 0b 25 bd
       -0.06362304 -0.07617214 -0.13649261 -0.04029389
000170 80 aa c2 bd 9d 9a ea bd ad 6e f4 bd 5e be 02 be
       -0.095051765 -0.114552714 -0.11935172 -0.12767932
000180 dc 7a 13 3d 23 9e 08 3d 6f 1b 8c 3d 96 3f 43 3a
       0.03600584 0.033353936 0.0684117 0.0007448135
000190 3b de 50 3d d6 22 08 3d 7e b3 a6 3d 2e 98 0f 3d
       0.050993185 0.033236347 0.08139704 0.03505724
0001a0 73 ea f3 bc f7 ff fd 3b f0 83 d7 bc e3 bd 89 3c
       -0.02977488 0.0077514607 -0.02630803 0.016814178
0001b0 64 66 cd bc fb 95 53 bc 75 b0 2d bc 00 a7 60 3c
       -0.025073238 -0.012914176 -0.010601153 0.013711691
0001c0 a8 ba 3f bd 40 99 94 bd 63 2e 1f bd 75 02 9c 3c
       -0.04680887 -0.072557926 -0.038862597 0.01904414
0001d0 42 81 23 bd 30 0d 60 bd 11 7b f1 bc b9 f7 c4 bc
       -0.03991819 -0.054700077 -0.029477628 -0.024043905
0001e0 84 1a a7 bb 67 39 0a bd 5a 16 a2 3c 4a f2 03 3d
       -0.0050995965 -0.03374615 0.019786049 0.032213487
0001f0 b1 b1 8b bd 3a d5 16 bb d8 e1 55 3c a8 c5 f0 bb
       -0.06821001 -0.0023015277 0.013054334 -0.007347781
000200 d9 d8 27 bd df 45 b0 bc c8 8d 52 bc 47 4d a0 3c
       -0.040978286 -0.021517692 -0.012851186 0.019568099
000210 f8 32 54 bd aa bb 8b bd d4 b0 0b bc 00 f3 6e bb
       -0.05180642 -0.068229035 -0.008526046 -0.0036460757
000220 7e 25 9f 3b d8 b2 24 bd 34 51 74 bd c3 c1 60 bd
       0.0048567643 -0.04020962 -0.059647754 -0.054872286
000230 f5 95 2d bd 1e 4f 82 bc 7c f8 81 bd bb 2a f6 3b
       -0.04237934 -0.015906867 -0.06346223 0.007512418
000240 5b fa 0f 3d aa 13 79 3c eb fc 2d 3d b4 7b 1e 3d
       0.035150867 0.015202442 0.04247753 0.03869219
000250 0f aa bc 3c c4 38 08 3d 64 67 29 3c ac fc 49 bd
       0.023030309 0.03325726 0.010339592 -0.049313232
000260 82 74 bc bc 10 08 8c bb 75 ea 21 bd 04 9b 8d 3c
       -0.023004774 -0.004273422 -0.039530236 0.017285831
000270 55 94 05 bd da af 0f bd 8b 81 85 3c 79 a7 ca bc
       -0.032612164 -0.035079814 0.016297122 -0.02473806
000280 ed 12 c8 bc 87 d0 8a 3a 5a c7 17 3d 6c ae fd bb
       -0.024423087 0.001059071 0.03705535 -0.00774174
000290 04 f7 80 3c 3b be 96 bc 87 c8 a2 3d a8 98 09 bd
       0.015742786 -0.018401256 0.07948404 -0.03359285
0002a0 d0 22 63 3d 96 ce 49 3c f2 d7 b6 3b 92 97 b7 3b
       0.05545312 0.01231732 0.005579942 0.0056027854
0002b0 87 5a ee bc 56 3c 1c 3d b3 24 69 bd 0c 55 e7 3c
       -0.029095901 0.03814348 -0.056919765 0.028238796
0002c0 d4 2e b4 3d 74 71 ae 3d ad a7 92 3d d7 68 8f 3d
       0.08797994 0.08517733 0.07160888 0.070024185
0002d0 3f 7e 5a 3d ce e0 ad 3d db 36 6c 3d e2 4f d9 3c
       0.053343054 0.08490144 0.0576695 0.026527349
0002e0 68 79 d1 bc 58 0d 8b 3d b6 c5 37 bc 2f 85 8d 3d
       -0.025570586 0.067896545 -0.011216572 0.069101684
0002f0 e1 21 e9 bb 5e b5 90 3b 44 8e 50 3d 41 f3 10 3d
       -0.0071146344 0.004416152 0.050916925 0.035388235
000300 9f 48 53 3d 5f f2 d8 3c 50 76 05 bd d7 de 89 bc
       0.05158293 0.026482759 -0.032583535 -0.016829891
000310 de c8 fc bc a6 61 26 bd e7 97 9e bd 7d 95 42 3d
       -0.0308575 -0.04062047 -0.07743817 0.047505844
000320 de d4 1b 3c b5 b9 2c bb ec 8d 88 bd a8 61 30 3d
       0.009511201 -0.0026355807 -0.066676944 0.043061882
000330 28 1c 3d bc 19 fb 13 3c 14 a4 dd 3b 9c 15 90 bc
       -0.0115423575 0.009032034 0.0067639444 -0.01758843
000340 6f 5c 5c 3b 07 8b 70 39 35 26 25 bd 49 0b ef bd
       0.003362443 0.00022939975 -0.04031964 -0.11672074
000350 a7 01 11 3c 32 04 29 3d df 98 51 bd 10 0e c2 bd
       0.008850492 0.041263767 -0.05117118 -0.094753385
000360 a2 39 4a ba 7d 2f 96 bc 9d 7b c9 bd 86 77 92 bd
       -0.00077142764 -0.018333191 -0.098380305 -0.071517035
000370 65 f3 27 ba c2 b9 23 bd 5b 10 3d bd ad 41 a2 bb
       -0.0006406813 -0.039972074 -0.046158176 -0.004951677
000380 de 73 d7 3c cf 42 57 bc 0f 00 a7 bb 29 eb 16 3c
       0.026300367 -0.013138487 -0.0050964425 0.00921134
000390 e5 43 39 3d ab 73 00 bd 3a cc 1f bc 56 29 f4 bc
       0.045230765 -0.03136031 -0.009753281 -0.029804867
0003a0 bb 7b a5 3b d0 20 ff 3c bc 7c 00 bd d7 3a 0e 3d
       0.00505015 0.031143576 -0.031368956 0.034724083
0003b0 fb ba df 3c 8c 36 41 3d 5c 7d 5d bd b4 f2 29 bd
       0.027310839 0.04717116 -0.05407463 -0.041491225
0003c0 9e c0 0e bc 6a 71 75 bd aa 92 d5 3b 33 c6 f2 bc
       -0.008712916 -0.059922613 0.006517728 -0.029635524
0003d0 95 e2 21 bd f9 50 18 bd 37 d2 4c bd ad cc 9b bc
       -0.039522726 -0.037186597 -0.050005164 -0.019018495
0003e0 2a 3e ce bd 61 17 56 bd bf a8 80 bd 75 cb 01 bd
       -0.100704506 -0.05226839 -0.06282186 -0.031688172
0003f0 38 25 c5 bd 2d d7 cc bd 10 a4 b6 bd 8f 32 98 bc
       -0.096262395 -0.10001979 -0.08918011 -0.018578796

unet_model.enc.2.main.bias f4 [32]
000000 f0 0f 71 3c 23 d4 a8 3c ae 51 2e 3d 7c c3 56 bc
       0.014713272 0.020608967 0.042558365 -0.013108131
000010 33 a6 12 3d fd 6f 02 3d 76 74 a7 bb f7 21 e0 bc
       0.03580303 0.03184508 -0.005110319 -0.027359946
000020 9f bf 9c 3c 78 82 80 3c 4e c1 f3 3c ec 97 65 3d
       0.01913434 0.015687212 0.02975526 0.056053087
000030 3f a3 ce bc 5c 04 14 3d 8c a7 a6 3c bc 83 ef 3c
       -0.025224326 0.03613697 0.020343564 0.02923762
000040 22 c3 4a 3c 54 15 eb 3c e8 8c de 3c 89 92 1d 3d
       0.012375625 0.028696693 0.027166799 0.038469825
000050 1d 09 e2 bc f8 ae 66 bc 2b 4f f8 3c 5d 2c 70 3c
       -0.027592236 -0.014079802 0.030311188 0.0146590145
000060 6d 76 6d 3b e4 55 c1 3b 9d b1 96 3d a0 a6 37 bb
       0.0036233917 0.0059001315 0.07358096 -0.00280229
000070 a9 68 71 bd e0 62 2d bc c7 04 2c 3d c8 1e e5 bb
       -0.058937702 -0.010582656 0.041996744 -0.006992195

unet_model.enc.3.main.weight f4 [32, 32, 4, 4]
000000 1b 7a a8 bd 6a 71 b9 3c 10 10 8d bd 66 a8 47 3d
       -0.08226415 0.022637088 -0.06887829 0.04874458
000010 7d 91 6e bd f2 67 ce bc 3d 73 31 3d 25 dd 1a bc
       -0.058244217 -0.02519605 0.04332279 -0.009452139
000020 34 44 47 be a2 9c a7 bd 48 af a5 3b 9a 0e d8 3c
       -0.19459611 -0.08184172 0.0050562955 0.02637415
000030 53 51 0a be 17 25 7e bc 0a d8 c9 3d cf c1 8f bc
       -0.13507585 -0.015511773 0.09855659 -0.01754847
000040 99 a0 a0 bd 2c 92 0c be 25 e7 33 bd 41 04 90 3c
       -0.078431316 -0.13727635 -0.04392161 0.017580153
000050 fa 5c 86 bd 83 9d ca bd ac 42 8a bd 6d fd 7f 37
       -0.065607026 -0.09893324 -0.06750998 1.525819e-05
000060 bb 95 37 3c 52 80 16 bd ba 46 9c 3b b7 20 bb 3c
       0.011205132 -0.03674347 0.0047691735 0.022842748
000070 f1 61 a7 3d 78 7f fd 3c b5 b8 79 3d 52 7b b7 3c
       0.08172978 0.03094457 0.060967166 0.02239767
000080 cb 06 7c bd 53 e8 e4 3a 41 08 f5 3b d2 e2 3d 3d
       -0.061529916 0.0017464258 0.0074777906 0.04635889
000090 2d 03 92 3c b8 b5 19 bd e9 1c 55 3d 5c 40 b8 3b
       0.01782378 -0.037526816 0.052029524 0.0056229066
0000a0 ff 33 c2 bc 31 97 17 3c 5f 8a 33 3d 33 ab 4a 3c
       -0.023706434 0.009252355 0.043833133 0.012369919
0000b0 ca 3b e9 3b d0 7d b0 3c 8b fc 93 bc 54 a0 15 3d
       0.007117723 0.021544367 -0.018064758 0.036529854
0000c0 43 32 3a 3d 16 22 05 bd db fa 89 3c 82 6a 01 be
       0.04545809 -0.03250321 0.01684325 -0.12638286
0000d0 b4 63 4f 3c ac c0 74 bd 02 dc e0 bd b3 ac bb bb
       0.012658048 -0.05975406 -0.10979463 -0.0057273745
0000e0 71 02 ea 38 3b f4 40 bc 21 80 e8 bc 78 f9 cb bc
       0.00011158444 -0.011776979 -0.02838141 -0.02489923
0000f0 3f b0 14 bc d6 8c 7c bb d3 77 45 bd 77 87 e9 3c
       -0.0090752235 -0.0038536093 -0.048209976 0.028506977
000100 66 e7 e2 bd d3 35 14 bd 3a 7f f1 3b ba 34 b7 3c
       -0.11079292 -0.036184143 0.007369903 0.02236401
000110 3e 62 ac bd 2c de d2 bd 31 38 f5 bd dc 59 c2 3c
       -0.08417176 -0.10296282 -0.11973608 0.023724489
000120 1a 78 04 be d2 55 0e be 76 2c fe bc b6 2c b5 3c
       -0.1293644 -0.13899925 -0.03102706 0.022116046
000130 dc 77 0d 3d 81 d7 a6 3c f3 89 b7 3c 82 5c b8 3c
       0.034538135 0.020366432 0.022404647 0.022505049
000140 a3 81 6b bd f8 11 0f 3c b2 53 8b 3c a3 98 d1 3b
       -0.057496678 0.008732311 0.017007682 0.0063963695
000150 74 6e 6f bb c1 ac 6a 3c 7a be c4 3a ad 2f 14 3d
       -0.003653434 0.014323414 0.001501038 0.03617828
000160 6b c0 a5 bb 17 b0 a0 ba 53 7b 72 b9 73 2a 39 3d
       -0.0050583384 -0.001225951 -0.0002312486 0.0452065
000170 33 b0 f9 3a 49 ea 16 3d f7 e5 11 bc 23 85 09 3d
       0.0019049704 0.036844525 -0.008904926 0.033574235
000180 83 9e 30 3b 29 93 36 3d 3b 0a 81 3c d8 9d a3 3c
       0.002694995 0.044573937 0.015751949 0.019972727
000190 98 04 4b 3d d6 7b 72 3c b6 81 bf 3c 76 77 c6 3c
       0.049564928 0.014800033 0.02337728 0.024226885
0001a0 7c 7d 54 bc 53 af 12 3d 12 2f c7 3d ab f1 9e 3d
       -0.012969371 0.035811733 0.09725775 0.07760938
0001b0 87 65 65 bc 10 35 10 bc a4 57 19 bb 18 46 3d bc
       -0.014001257 -0.008801714 -0.0023398185 -0.011552356
0001c0 dc e6 8a bd 72 66 8c bb 2a b5 55 bd ce df 7e bd
       -0.06782314 -0.0042846734 -0.052174725 -0.062225156
0001d0 02 a5 a1 bb fa 1e 07 bd bf d3 30 3d 33 95 99 bb
       -0.0049330005 -0.032988526 0.043170687 -0.0046869754
0001e0 96 11 07 3c 36 47 17 bb 6f 76 16 bd 0c 1f fc 3c
       0.008243939 -0.0023083217 -0.03673404 0.030776523
0001f0 1e 29 a7 3c 64 b0 bf bd 2c 80 1a bd ee 99 18 bd
       0.020405348 -0.09359816 -0.03771989 -0.037256174
000200 49 9b 6e 3d 89 a4 01 3c 20 e7 69 3d d3 91 7a 3d
       0.05825356 0.007912763 0.057105184 0.061174225
000210 26 92 c4 bd 51 07 3b bd 3c 9b 1d bd 2f 99 30 3d
       -0.09598188 -0.045661274 -0.03847812 0.043114837
000220 0f 71 01 be 14 c4 eb bd bb 3f 10 bc 3e 21 64 3c
       -0.12640785 -0.11512008 -0.008804257 0.013923941
000230 2c 64 31 3d 79 97 29 bc 10 de 89 bc 22 97 fd bb
       0.043308422 -0.010351055 -0.01682952 -0.0077389637
000240 6e fb c2 bd 04 f4 8c 3b 63 45 65 bd 9d 9f d8 bc
       -0.09520613 0.00430155 -0.055974375 -0.026443297
000250 c8 2d d7 3c 00 d3 98 3d c2 74 68 3d f7 fd 05 3c
       0.026266947 0.0746212 0.056751974 0.008178226
000260 79 06 90 3d 31 f4 a6 3d 92 74 45 3d 18 dc 57 bb
       0.070324846 0.081520446 0.048206873 -0.0032937583
000270 ec 06 62 3d 56 2b 31 3d f2 f3 a3 3d 9b 75 29 bd
       0.055182382 0.04325422 0.08005513 -0.041371923
000280 75 e0 f8 38 75 db ee 3c 78 95 87 bc e7 bc 43 bd
       0.0001186737 0.02915738 -0.016550764 -0.047787573
000290 7c b7 04 bd b9 64 12 bd 77 2e ac 3c cb 6d 77 3d
       -0.032401547 -0.035740588 0.02101825 0.06040744
0002a0 2f 4e 3c bb 5f 9c 0f 3d 61 34 d3 3d fa aa cd 3d
       -0.0028733124 0.035061236 0.10312725 0.10042377
0002b0 37 3c 71 bc 7d b7 b7 3d 55 cb 77 bb e9 0e 0b 3d
       -0.014723829 0.089705445 -0.0037810404 0.033949766
0002c0 77 c8 86 3d 3d 0b 6f 3d 07 ad bf 3d d9 6c cd 3b
       0.065812044 0.058360327 0.09359174 0.006269079
0002d0 74 2f 21 3d ce 3f 0f 3d 78 01 28 3d 79 d7 9a 3c
       0.039351895 0.03497296 0.041017026 0.018901573
0002e0 1a ef 3d 3d 22 58 29 bd f2 e1 03 3b 89 77 87 bd
       0.046370603 -0.041343816 0.0020123688 -0.066145964
0002f0 34 93 17 bd 3d 1b dd bd 2a e8 51 bd d9 23 5c bd
       -0.03700562 -0.10796211 -0.0512468 -0.053745124
000300 b9 48 41 bd e3 f6 3e bd 95 32 21 bd 4e ca d0 3c
       -0.047188494 -0.04662217 -0.03935488 0.025487091
000310 15 c6 5f bd f7 2a db 3c f2 b0 db bc 3e 36 7d 3b
       -0.054632265 0.026753886 -0.026817773 0.0038637067
000320 20 d3 1e bd ca a2 4e 3c 39 e0 d6 bc 87 00 da 3c
       -0.038775563 0.012612054 -0.026229965 0.02661158
000330 3c d4 07 bc 43 80 05 bd 36 b6 e8 3b 41 ba fa 3c
       -0.008290347 -0.032593023 0.0071017994 0.03060639
000340 e1 d7 d4 3c 91 7d 97 3d 48 dd eb 3c 72 dd 3f bc
       0.025981845 0.07396997 0.028792039 -0.0117105115
000350 73 d5 97 3d ab 6d a6 3d 72 ab dd bc ad 34 d9 bc
       0.07413759 0.08126386 -0.02705929 -0.026514376
000360 5f 72 60 3d d9 f2 05 3c 05 cd b4 3c 55 f6 b5 bc
       0.054796573 0.008175575 0.022070417 -0.022212187
000370 e2 9d 9d 3b 1b a5 00 bd 96 17 8f bd 3b b7 0c bd
       0.004810081 -0.031407457 -0.069869205 -0.03435443
000380 e5 49 14 3d 47 52 36 3d a1 d1 2b 3d 9d cd f9 bc
       0.036203284 0.04451206 0.041947965 -0.030493552
000390 a0 b3 0c 3d ae da b3 3c 50 df 99 3a 2e 95 9f bd
       0.03435099 0.02195486 0.0011739526 -0.07792126
0003a0 77 51 2a 3d b2 66 db bc 7d a3 4d bd f9 63 a8 bc
       0.041581597 -0.026782367 -0.050204743 -0.020555483
0003b0 14 3c 29 3a 45 bc 78 bd 41 d4 91 bd a7 67 b2 bc
       0.0006455791 -0.060726423 -0.07120562 -0.02177794
0003c0 13 82 82 3d 52 87 95 3d 1a 4b a6 3d a1 59 50 3d
       0.06372466 0.07301201 0.08119793 0.050866727
0003d0 7a 63 74 bc 1d dd 1c 3d 20 4f 28 3d e4 41 7e 3c
       -0.014916295 0.038296808 0.041091084 0.015518639
0003e0 f0 b1 19 3d 11 c8 95 bb d7 9a a9 3c dd 47 c2 3d
       0.03752321 -0.004570969 0.020703716 0.09486363
0003f0 fc fa 66 3d 32 ab af bd 20 e8 63 bd ca b4 06 3d
       0.0563917 -0.08577575 -0.055641294 0.032887258

unet_model.enc.3.main.bias f4 [32]
000000 ee 01 d4 3c 97 ef 9c 3b 74 ad 01 bc 12 bd 9e 3c
       0.025879826 0.0047893035 -0.00791489 0.019377265
000010 af 5a c0 bc 19 26 b2 3c 3f f1 0c 3d 20 f8 54 3d
       -0.023480741 0.021746682 0.034409758 0.051994443
000020 c0 27 1c bd 96 2a de 3b 43 0b 90 3c 30 d4 4e bd
       -0.038123846 0.006779979 0.017583495 -0.050495327
000030 57 77 29 bd 0a 48 df bc 32 5d 14 3d ca 75 89 3b
       -0.041373577 -0.02725603 0.03622169 0.0041949498
000040 76 cc 86 bd 3d 9c 3e ba e8 37 85 bc 26 d0 8b bd
       -0.065819666 -0.0007271206 -0.01626201 -0.068268105
000050 8c be 14 3d b4 5a a8 3c 9f 84 24 bd fd 99 86 bd
       0.036314532 0.020551063 -0.04016554 -0.0657234
000060 9a 03 47 3c 6a ed 44 bd 5b ae 17 3d 5c c8 f0 bc
       0.012146855 -0.04807798 0.037031513 -0.029392414
000070 a8 ab aa 3d 5d 0d 83 3a 02 09 36 3b 2b ca d3 bc
       0.08333522 0.0009998489 0.0027776365 -0.025853237

unet_model.dec.0.main.weight f4 [32, 32, 3, 3]
000000 06 b6 77 bd 70 47 43 3d 95 f7 36 3a c5 8f a2 bb
       -0.060476325 0.04767555 0.00069796416 -0.0049609863
000010 ee 0a f3 3c f8 44 63 3d 2f 94 ab bc 06 22 9b bd
       0.029668298 0.055485696 -0.020944683 -0.07574849
000020 3b 86 86 bd 4c f9 65 bd b7 5e 1c 3d 1f 69 91 3d
       -0.06568571 -0.05614595 0.038176265 0.071001284
000030 7c 4a ac bd 3d 6c f2 3c 4f 28 0e bd ca c1 b8 bc
       -0.08412644 0.029592628 -0.03470641 -0.022553343
000040 7d 21 85 3c 83 d0 6c 3d 9d ba 32 bd bd 52 3c 3d
       0.01625132 0.05781604 -0.043635 0.045977343
000050 ed 79 b6 bc a9 02 9d 3c 07 05 80 3b f3 27 22 3d
       -0.022274936 0.019166308 0.0039068493 0.03958888
000060 ff bf 8e bd 9e 55 0b 3d 32 74 75 3d db 80 58 3c
       -0.06970214 0.034017198 0.059925266 0.013214315
000070 f5 de 18 bb d3 cf 19 3d 11 a8 bf 3c 2c 8c cf 3b
       -0.0023326252 0.037551712 0.02339557 0.0063338485
000080 3c 40 81 bd f6 c4 f3 bd 01 1b 44 bc dd d9 8b bb
       -0.0631108 -0.11902802 -0.011969329 -0.0042679147
000090 16 b0 8a 3c 3e e8 d6 bc 69 b5 a0 3b 15 7c 2d 3c
       0.016929667 -0.026233789 0.0049044383 0.0105886655
0000a0 f1 f2 5b 3a c1 de 76 bd 3d 26 ea 3c ce c3 5e bc
       0.0008390388 -0.06027103 0.028582687 -0.013596488
0000b0 8f 61 02 bd 58 ea 0f bd ba 41 84 bc 94 57 04 3d
       -0.03183132 -0.035135597 -0.016144622 0.032310084
0000c0 54 73 2d bc 73 23 10 bc c7 ec a8 bc dd 17 9a 3c
       -0.010586578 -0.008797514 -0.020620717 0.018810207
0000d0 ed 55 7f 3c dc 91 7d bd f4 2d 94 bc fd 3a 84 3c
       0.015584451 -0.06190668 -0.018088318 0.016141409
0000e0 52 c1 b6 3b 0f 59 1c 3c 8b bf 84 3d de 4b 34 3d
       0.005577245 0.009542718 0.064818464 0.044017665
0000f0 78 87 7c 3d b2 be b3 3c 02 db b4 ba cb 6f ab 3d
       0.06165263 0.021941517 -0.001379818 0.08370932
000100 3b 2f 12 3d 0e 25 01 bd 3a 75 ed 3c d7 7d c7 bb
       0.035689574 -0.03152948 0.028986562 -0.0060879993
000110 e0 ab a1 bc 66 db 2e bb 41 4d a1 bd 38 8f 54 bd
       -0.019735277 -0.0026681065 -0.07876063 -0.051894397
000120 39 d3 3c bd 15 e1 df bc 66 1e bf bc 6a e0 d0 ba
       -0.046099875 -0.027329007 -0.023329925 -0.0015936021
000130 f9 90 fe 3c 2b 3b 93 3c aa ab cb 3c d3 17 5e 3d
       0.031074988 0.01797255 0.02486213 0.05422194
000140 c4 8c 8c 3c 4f 51 c2 bc 9f ca 7a bd 8a 36 9f 3b
       0.017156966 -0.023720412 -0.06122839 0.0048587965
000150 e7 b9 ab 3c a7 58 74 bd 33 4e 1e bd 4b 5e bc 3d
       0.020962669 -0.059654858 -0.038648795 0.091976725
000160 c4 39 68 3c 2e dc 3a bd 3a 26 b9 bc fe a4 a6 3d
       0.014173929 -0.045620136 -0.022601236 0.081369385
000170 ac 7b 10 3b 36 9a d2 3c d7 db fe 3d b4 4e 12 bd
       0.002204637 0.0257083 0.12444275 -0.03571959
000180 96 10 a3 3a dd bb 1a 3d 6b 6a 7a bd cc 0e 0c 3a
       0.0012440856 0.037776817 -0.061136644 0.0005342781
000190 7c 63 07 3d fe 0d f5 bb 6f 3e 32 3d d2 6c c7 3c
       0.03305386 -0.0074784746 0.043516573 0.024343882
0001a0 0a 03 1e bc 73 6a 47 3c 0a 33 c5 bd 5d e7 06 3d
       -0.009644279 0.012171376 -0.096288756 0.03293549
0001b0 6c e6 27 bd 17 f1 a5 3d ff fc 07 bd db 9e 1a bd
       -0.04099123 0.08102625 -0.03320026 -0.037749153
0001c0 78 b2 52 3c 97 09 88 3d 6f bd dd 3c fa 1d 1a 3d
       0.012859933 0.06642454 0.027067868 0.037626244
0001d0 b5 ab c3 3c 55 4f 35 bd cf 28 fc 3c 21 b1 23 bd
       0.023885587 -0.04426511 0.030781178 -0.039963845
0001e0 2d c0 8d 3d df 35 54 bd e7 f1 ed 3a 7d 00 d9 bc
       0.0692142 -0.051809188 0.0018153758 -0.02648949
0001f0 40 34 1e bd d9 0b 2a 3c 42 ed ae bd ef 85 14 bd
       -0.03862405 0.010378801 -0.08541347 -0.03626054
000200 fd 65 58 3d 9b 7c 1e bd 4f 9b 81 3d a7 d1 9b bc
       0.05283164 -0.03869305 0.06328451 -0.019020868
000210 6e ee 85 3d ce e0 89 3d a4 d0 a6 3d c9 ed 88 bd
       0.065396175 0.06732331 0.08145264 -0.06685979
000220 19 cb 9f 3a f3 34 b9 bc 85 9b 37 bc de 23 0e 3c
       0.0012191265 -0.022608256 -0.011206512 0.008675544
000230 2e 2d 15 bc 79 65 af bd 00 d7 ca bc 96 24 8a 3d
       -0.00910501 -0.08564276 -0.024760723 0.067452595
000240 2a f4 f5 3d a6 73 00 bd 89 8c 9e 3a 3e 87 c5 3d
       0.12009461 -0.03136029 0.0012096326 0.09644936
000250 23 01 d3 3b a6 0d 32 3d bc 53 a1 3d a1 42 a7 3d
       0.0064393445 0.043470047 0.07877299 0.08167005
000260 d0 d3 5e 3d 0b 44 f0 ba 24 d5 ac 3d cd 78 dc bc
       0.05440122 -0.0018330825 0.08439091 -0.026913071
000270 1c e8 ad 3b d1 ad 80 bc 82 e8 ec bd e3 2f 07 39
       0.0053072106 -0.015707882 -0.11567785 0.00012892442
000280 0b 90 47 3d 0d b4 bb bd 6e c4 4d bd 9f 75 a3 bd
       0.048721354 -0.09165201 -0.050236158 -0.07981419
000290 57 c6 21 bd aa c2 00 3e b4 5a 7c bd be 7a 9c bd
       -0.039495792 0.12574258 -0.06160994 -0.07640599
0002a0 72 86 bc 3d 4d 4e 12 bc a2 54 e7 3c 5a 29 2b 3c
       0.09205331 -0.008929801 0.028238598 0.010446871
0002b0 b9 7e 93 3c 3d c0 0e 3d e1 9b 42 3c f9 18 80 3d
       0.018004762 0.0348513 0.011877985 0.06254763
0002c0 0b 75 9f 3c 00 ec 87 3d e5 04 ad bc d4 e1 f8 bc
       0.01946499 0.0663681 -0.021120498 -0.03038112
0002d0 03 96 af 3d 04 ac 31 3d 4f 17 98 3d 87 82 be bc
       0.08573534 0.043376938 0.07426321 -0.0232556
0002e0 c0 8f 20 3c 3e 11 64 bd f1 34 82 bc 91 ca 01 bd
       0.009799898 -0.055680506 -0.015894385 -0.031687323
0002f0 19 0e 94 bc ae 12 b5 bd 02 28 f0 bd e7 42 cc bc
       -0.018073129 -0.088414535 -0.11726381 -0.024934245
000300 1a b0 d8 bc 03 0e a8 bc e2 cb dd bc 22 9e 73 3d
       -0.02645116 -0.020514494 -0.027074758 0.05947698
000310 8d 20 9b 3d 3c b5 62 3c e1 e7 11 bd c0 96 8f 3d
       0.07574568 0.013837155 -0.035621528 0.07011175
000320 76 f2 68 3c e7 65 f7 3c 5f 75 ac 3d 02 24 60 3d
       0.014217963 0.030199958 0.08420824 0.05472184
000330 09 2b d8 3c 72 a2 d7 3d 2e fd 1b 3c e9 41 c9 3d
       0.026387708 0.10529031 0.009520812 0.098270245
000340 16 f8 28 3d 5c bd f3 ba 69 ec 49 3d 3d e2 21 3d
       0.04125222 -0.0018595862 0.049297724 0.0395224
000350 6a 29 b4 bc 67 e9 60 bd c7 07 95 bd 09 d9 84 bd
       -0.021992404 -0.05491009 -0.07276874 -0.06486709
000360 b2 eb a4 bd de f1 cd bc 3d a7 4a 3b 20 a9 07 bd
       -0.08052768 -0.025139745 0.0030922436 -0.033120275
000370 80 94 99 3d 8e 5a b5 3c e8 92 74 3c 05 7f 4c 3d
       0.07499027 0.022137906 0.014927603 0.049925823
000380 03 f8 4a 3d 6f a3 0d bd 76 5e 49 3d 9b 3a b9 bd
       0.04955293 -0.03457969 0.04916235 -0.09044381
000390 68 f6 74 3d fc 0d 78 3d 47 a7 e8 bd 30 3c a2 3d
       0.059805304 0.06056021 -0.113600306 0.07921636
0003a0 11 b4 3f 3b 79 e8 ca 3a 6b db 2c bd 79 2d 65 3b
       0.0029251615 0.0015480659 -0.04220144 0.003496973
0003b0 49 d5 ae 3c 4f bf 88 3d 1e a4 5e 3d c7 fd 67 3a
       0.021341937 0.06677114 0.054355733 0.00088497665
0003c0 e1 ad 3b bc 06 76 c7 3d bc 47 99 bc 89 25 25 3d
       -0.01145503 0.09739308 -0.018710963 0.040319
0003d0 5b ea 77 bc 79 b6 c5 bc 86 6b 46 bc 73 c5 a6 bc
       -0.015131558 -0.024134861 -0.0121105965 -0.020357823
0003e0 c1 64 d9 bc 59 e8 3d bd 17 6a 45 3d a8 df 4c bd
       -0.026537301 -0.046364162 0.04819688 -0.050017983
0003f0 e7 9c aa bd 2f 30 5d 3a 79 93 79 3a b9 f5 1d 3d
       -0.08330708 0.0008437661 0.00095205713 0.038564418

unet_model.dec.0.main.bias f4 [32]
000000 c4 e0 ad bd df 41 63 bd 4e 1f 59 bd 34 26 51 bd
       -0.08490136 -0.05548274 -0.05300837 -0.051061824
000010 28 44 1e 3d bb 6b da 3c 61 a9 1c 3d 93 d0 1a bd
       0.038639218 0.026662698 0.03824747 -0.037796568
000020 47 c4 6c bb 4c 96 5a 3c 5c 66 0f bc ef dc 88 3c
       -0.0036127733 0.013341498 -0.008752432 0.016706912
000030 12 ea 95 3c e0 74 14 3d 73 8e 3a bd 16 98 b8 bc
       0.01830009 0.036244273 -0.045546006 -0.022533458
000040 26 67 47 bd 9c 45 d5 3c 82 d6 ab ba 37 bd 2e bd
       -0.048682354 0.026034169 -0.0013110193 -0.042660918
000050 cf d6 41 3d c9 37 99 3b 45 20 be bd 4e db 53 3d
       0.047323998 0.0046758396 -0.09283499 0.051722817
000060 80 91 fc 3c cf e2 f3 3c af 45 d2 3c ce 77 9f bc
       0.030831099 0.029771237 0.025667993 -0.019466307
000070 5b 09 f3 3c 54 fa 2f bc 87 02 6d bc a9 1c fe bc
       0.029667547 -0.010740835 -0.014465935 -0.031019526

unet_model.dec.1.main.weight f4 [32, 64, 3, 3]
000000 c5 6b d2 bc 6f bd ce 3a 21 a9 16 bd 82 e0 5c 3b
       -0.025686154 0.0015773008 -0.036782388 0.0033703153
000010 51 5e 2f 3c ee 36 e3 bc 9d 70 90 3c 98 fe 13 bc
       0.010703639 -0.027736153 0.017631823 -0.009032868
000020 ad 37 1c 3d 67 66 bb 3c d2 cd 38 bd 73 b4 9d 3c
       0.038139034 0.022875978 -0.04511816 0.019251084
000030 96 d7 61 bd a9 34 20 bd ae 10 e9 bc 2d 4e 2b bd
       -0.05513724 -0.03911272 -0.028450336 -0.0418226
000040 e6 1f 72 bd ad ba 1a bc 62 2f 00 bd 55 7a 88 3c
       -0.059112452 -0.009443921 -0.031295188 0.016659895
000050 09 ee a0 3d 89 86 20 bb 71 28 dc 3c ff 9f 43 3d
       0.078579016 -0.0024494252 0.026874753 0.047760006
000060 f9 c9 04 3b 38 01 96 3d 42 63 81 3d d7 8b 0c 3d
       0.0020261987 0.07324451 0.0631776 0.03431305
000070 be 8d b3 bb 5b 46 3a bc cf df 93 bd f6 08 84 bd
       -0.0054795435 -0.011369313 -0.072204225 -0.06447022
000080 6a 40 1b bd f6 10 52 bd 23 4a 0e bc 58 34 55 3c
       -0.037903227 -0.051285706 -0.008684668 0.013012968
000090 f8 50 d7 3c c4 22 80 3c 16 cb 6d 3c 3e 73 39 3c
       0.026283726 0.015641578 0.0145137515 0.01131898
0000a0 fa c8 9d 3c 5c 25 1d 3d f4 87 aa 3d 40 e9 82 3d
       0.019260872 0.038365707 0.08326712 0.06392145
0000b0 9c e5 47 3d 85 b7 9c 3d a6 8a 57 bc 55 1e d2 bc
       0.048802957 0.07652191 -0.013155615 -0.025649229
0000c0 42 46 9a 3d f8 ef 4a 3c bb da b1 3b 75 cd be 3c
       0.07532932 0.012386315 0.005427686 0.023291329
0000d0 97 f6 75 bc b2 8b 08 bd d8 4d 55 bd d1 c3 17 bd
       -0.015012405 -0.03333635 -0.05207619 -0.03705198
0000e0 b0 3e 51 bd 9d c2 3a bd ea 7d c8 bc e6 51 12 3d
       -0.051085174 -0.045595754 -0.024474103 0.035722636
0000f0 19 16 e0 bd ba 3b 40 bd e9 9b 84 3c ec 99 82 bd
       -0.10941715 -0.04693196 0.016187625 -0.063770145
000100 42 3e 29 3b 48 84 e5 b9 c2 64 ad bd bb ad 2c 3c
       0.0025824462 -0.0004377684 -0.08466484 0.010539467
000110 28 e6 45 bc e5 69 b2 bc bc ad 15 bd 2a a4 63 bc
       -0.012078799 -0.02177901 -0.03654264 -0.01389412
000120 2f 22 9b bd 30 f9 64 bd 99 d8 32 bc 58 9f c9 bd
       -0.075748794 -0.055901706 -0.010915899 -0.098448455
000130 8a ca ff bc e5 dc d6 3b bd d3 c3 bd 69 55 15 bd
       -0.031224508 0.0065570944 -0.0956187 -0.036458407
000140 88 bf 92 bc 5c 05 91 3c f9 ee d4 3a d8 56 3e bc
       -0.017913595 0.01770275 0.0016245536 -0.011617385
000150 f1 72 b6 bb 76 ae 13 3c a2 e7 7e 3c 16 92 df bd
       -0.0055679013 0.009013763 0.015558155 -0.109165356
000160 a0 1d 95 bc 5c 7c a8 bc c2 e5 40 3d 61 ff 50 bd
       -0.018202603 -0.020567112 0.047094114 -0.0510248
000170 18 b2 75 bd d4 16 4b 3a fb 2d c2 bc d8 6a 4d bd
       -0.059984297 0.0007747237 -0.023703566 -0.050150722
000180 0d 3c 4b 3c 8a 30 ab bd f6 43 7c bd 1b 03 40 bd
       0.012404454 -0.083588675 -0.06158825 -0.04687796
000190 12 be 86 3c b6 b4 7b bd 49 fa e1 bc 14 0d 3f bd
       0.016448054 -0.061451636 -0.027585166 -0.04664333
0001a0 e1 c5 27 bd 6a 9e bd bc 4b e2 b2 bc 8c 53 95 b9
       -0.040960196 -0.023146827 -0.02183642 -0.00028481742
0001b0 6c 06 69 3d 1b e3 fe 3c 2d d2 b1 3d 92 81 06 3d
       0.05689089 0.031114152 0.08682666 0.03283841
0001c0 d8 4b 1d 3d 89 cf 12 3d f8 6c 56 3d 13 84 0f 3d
       0.03840241 0.035842452 0.052350014 0.035038065
0001d0 c8 74 19 3d df 31 4b bb eb 6a 87 3c 3e 20 8d bd
       0.037464887 -0.0031005067 0.016530475 -0.06890915
0001e0 18 41 86 bc df bd 6c bd 86 2b 90 bd 05 9a d5 bc
       -0.016388461 -0.057798263 -0.070395514 -0.026074419
0001f0 01 8f df bc 32 c9 88 3c bb 7b 5a 3b 9b 62 4a bc
       -0.02728987 0.0166975 0.003333791 -0.012352611
000200 f3 66 38 bd 2b d0 fa 39 4b 0c 44 bd a0 be 10 bd
       -0.045020055 0.00047838813 -0.047863286 -0.035338044
000210 4b 21 cc bc c8 eb 98 3c 0b 54 39 bd c9 3f 4e 3c
       -0.02491822 0.018667117 -0.045246165 0.01258845
000220 c3 b4 aa 3b 6d 63 1e bc 8b 56 8a 3d b7 60 ba bc
       0.0052095368 -0.00966726 0.06754788 -0.022751195
000230 df 03 c4 ba de 4a f8 bc b9 a3 28 3c ac d6 e5 3b
       -0.0014954767 -0.030309137 0.010292941 0.0070141163
000240 e9 e6 51 bd 0d b7 94 bd 17 28 5f bd 74 a2 33 bd
       -0.051245604 -0.07261477 -0.054481592 -0.0438561
000250 0e 6c 80 bd 91 a4 b1 bc d0 4d cf bc 37 f9 e3 bc
       -0.0627061 -0.021684917 -0.025305659 -0.027828796
000260 7e 38 e2 bb f8 9f 8e bc 9a d6 9e bb d6 b1 2d bc
       -0.006903707 -0.017410263 -0.00484736 -0.010601481
000270 cf f5 a0 bd b3 7b 39 bd 91 83 05 bc a6 d8 f1 bc
       -0.07859384 -0.045283984 -0.008149044 -0.029522251
000280 59 5f cb bb 71 9f f8 bb f1 57 62 3c 80 e0 c0 3c
       -0.0062064347 -0.0075873663 0.013814912 0.02354455
000290 47 38 84 3d d9 99 83 bc 03 5d 85 3d 0f 37 10 3d
       0.064560466 -0.016064571 0.06511881 0.035208758
0002a0 4c 54 5b bd 49 3e 1f 3d 5a 9d 87 3d e5 f7 24 bd
       -0.05354719 0.03887776 0.06621809 -0.040275473
0002b0 2a 97 13 bc b1 8a 8a 3c a1 0c 0a bd d9 23 03 bd
       -0.009008208 0.016911836 -0.03370345 -0.03201661
0002c0 75 cf 2f bd 66 cb 92 bd 82 ca 93 bd f2 9d 32 bc
       -0.042922456 -0.071677014 -0.0721636 -0.010901915
0002d0 6c 20 a7 bb 26 f5 bf bc 44 0a 05 3c 50 db 5b bd
       -0.0051003005 -0.023432326 0.008120123 -0.05367595
0002e0 26 7d c7 bc 97 dc b9 bb a0 fb 60 bc 12 d5 02 bd
       -0.024351668 -0.0056720483 -0.013731867 -0.03194148
0002f0 03 61 1a bc 54 a7 ec bc 79 84 78 3a c4 f1 49 3d
       -0.009422543 -0.028888382 0.0009480189 0.04930283
000300 53 a9 40 bc 50 7f 67 bc bc e8 c8 bc e8 1b ad 3c
       -0.01175912 -0.014129475 -0.024525039 0.02113147
000310 b8 c9 00 bc dd 60 d5 3c 9b 6a e9 bc a5 7e 5d bd
       -0.0078605935 0.026047165 -0.028493216 -0.054075856
000320 a5 a0 9d bc 3c b5 8d bd ba db 8b 3b 2c a6 f9 bb
       -0.01924164 -0.06919333 0.004268137 -0.007618686
000330 24 dc e6 bc e6 ed 71 bc f4 d8 b9 39 5f 32 7e bc
       -0.028181143 -0.014766192 0.00035447592 -0.015514939
000340 49 bf f0 bc d6 c7 12 3b 77 33 22 3d 24 98 c6 3b
       -0.029388087 0.0022396944 0.039599862 0.006060617
000350 d6 d8 3d bd e7 d8 5d 3d 53 98 9d 3c a3 c9 51 bc
       -0.04634937 0.054161932 0.019237673 -0.012804422
000360 52 d4 91 bd 46 e5 9b bc 7e 0b 4b 3c 2b cf 83 bd
       -0.07120575 -0.019030225 0.012392877 -0.064359985
000370 8e aa 35 bd 67 2d 13 3d 0a 19 be bc c2 ea 33 bc
       -0.044352107 0.03593197 -0.023205299 -0.010981264
000380 3a 9f 4f bd 17 b6 67 3d 7b 98 50 3d 0a 54 a6 3b
       -0.05068896 0.05657014 0.050926667 0.005075936
000390 66 8b 0d 3d 90 b8 47 3c 76 93 dd 3c eb c0 4c 3d
       0.03455677 0.012189999 0.027047854 0.04998867
0003a0 74 7c 08 3d 49 42 99 3c 8f 8f e2 3c 4f 81 5d 3a
       0.033321813 0.018708365 0.027656345 0.00084497494
0003b0 27 74 40 bd 87 5a 52 bc 5a 98 e3 3b 0b 9e bf bc
       -0.04698577 -0.012838966 0.006945652 -0.02339079
0003c0 da 65 85 3d 5d cc 3f 3d 6c 02 d8 bc 2f 58 52 3d
       0.06513567 0.046825755 -0.026368342 0.05135363
0003d0 6e 1b fd bc fc 30 1b 3d cb fe cf 3a 76 01 71 3b
       -0.030896869 0.037888512 0.0015868781 0.0036774552
0003e0 60 e6 f0 3b 06 77 5a bc 41 0e a7 bc a5 f4 36 bd
       0.0073516816 -0.013334041 -0.020392539 -0.044666905
0003f0 5d 3b 8a 3d 9b c1 75 3c 1d c8 1d 3d bf e3 1f 3c
       0.06749604 0.014999772 0.03852092 0.009758889

unet_model.dec.1.main.bias f4 [32]
000000 c2 df 85 3c 17 9b 04 3d aa fd 18 bd 7a 21 5d bb
       0.016342048 0.032374468 -0.037351288 -0.0033741877
000010 a7 67 a8 bc eb 83 22 3d 5d 33 2a 3d e0 9f a6 bc
       -0.020557238 0.039676588 0.04155289 -0.020339906
000020 df 02 8c bc 89 94 10 bd 19 7f 84 bd 6e 58 0e bc
       -0.017091213 -0.035297904 -0.064695545 -0.0086880755
000030 3e aa d0 bd 71 85 cc 3b 5f 4a 67 3b 36 14 a1 bb
       -0.10188721 0.0062414934 0.0035292131 -0.0049157394
000040 8f 23 99 3c 54 39 07 bd db a0 cb 3c 33 a5 1c bd
       0.018693713 -0.033013657 0.024856975 -0.038243484
000050 55 7c 93 bc 19 3f 18 3c 3c 19 83 3c 54 69 7c bb
       -0.018003622 0.009292387 0.016003244 -0.003851493
000060 65 b1 b5 bc df 96 8f 3c a7 3f c8 bd 56 f9 ce bc
       -0.022179315 0.017527996 -0.09777766 -0.025265377
000070 e4 7a 3a 3d d8 5a 12 3d 5c 1f d9 bc 41 45 15 3d
       0.045527354 0.035731167 -0.026504211 0.036443
