experimental_results/08250716_decolearn_is_optimize_regis=[true]/regis_model/epoch050.pt (torch, 975031 bytes, 25 tensors)

unet_model.enc.0.main.weight f4 [16, 2, 4, 4]
0	0x3bdc7362	0.006727622
1	0x3d4469ed	0.04795258
2	0x3dcc8610	0.09986508
3	0xbdadd9f5	-0.08488838
4	0xbe57927e	-0.21051976
5	0x3dacf0d7	0.08444374
6	0xbd9e8762	-0.07740666
7	0x3e18de3f	0.1492853
8	0xbe12fb32	-0.14353636
9	0xbe49b872	-0.19699267
10	0x3e28e8cc	0.16495055
11	0x3e19939a	0.14997712
12	0xbdc7e034	-0.0975956
13	0xbe538681	-0.20656778
14	0xbe02fc07	-0.12791453
15	0x3c1fe20a	0.009758482
16	0xbc36842a	-0.011139909
17	0xbd6eb5b8	-0.05827877
18	0x3e6a3981	0.22873498
19	0xbdaa9819	-0.083297916
20	0xbde50a34	-0.11183587
21	0xbe0157e1	-0.1263118
22	0x3d8eae2d	0.06966815
23	0x3e5b177a	0.21395674
24	0x3d8d26c2	0.06892158
25	0x3e16be63	0.14721064
26	0xbb0e6fab	-0.002173404
27	0x3e7617f3	0.24032573
28	0xbe00224f	-0.12513088
29	0xbe488643	-0.19582467
30	0xbc3feeac	-0.011714619
31	0x3e2d5ea9	0.16930641
32	0xbe42807a	-0.18994322
33	0xbd90deb7	-0.070737295
34	0xbdd8451a	-0.10560055
35	0x3dae4c44	0.0851064
36	0x3c8d4d13	0.017248666
37	0xbdefa933	-0.11702194
38	0xbbcab8cd	-0.0061865808
39	0x3cb8b204	0.022545822
40	0x3cdcb1da	0.026940275
41	0xbe524ac8	-0.2053634
42	0xbc9fdb28	-0.019513682
43	0xbc579c00	-0.013159752
44	0xbc7b1ddf	-0.015326946
45	0x3d7ecbd5	0.062206108
46	0xbd85cfb0	-0.06533754
47	0x3e443dc3	0.19164185
48	0x3ddbb705	0.107282676
49	0x3d7892bd	0.060686816
50	0x3df87b6c	0.12132916
51	0xbc8ba7d7	-0.017047806
52	0x3db99f7b	0.090636216
53	0x3d7de7d3	0.061988663
54	0xbe4e17ff	-0.20126341
55	0xbccf93c0	-0.025339007
56	0x3d4e8582	0.05042029
57	0xbdd22ff0	-0.102630496
58	0xbe4cc45f	-0.19996785
59	0x3dd35ef3	0.103208445
60	0xbdc69549	-0.09696443
61	0xbb7fe44f	-0.0039045995
62	0x3dcf97ca	0.10136373
63	0xbe2e9c05	-0.17051704
64	0xbc3a8878	-0.011385076
65	0x3e5bf320	0.21479464
66	0x3e40133f	0.18757342
67	0xbda2b33e	-0.07944344
68	0x3d981725	0.074262895
69	0x3e4053c0	0.18781948
70	0x3e0fe6a4	0.14052826
71	0x3e35208b	0.17688195
72	0x3d4c56c0	0.04988742
73	0x3e0a5722	0.13509801
74	0x3e226cbf	0.15861796
75	0xbda22e2a	-0.07918961
76	0x3c13d9da	0.009024108
77	0x3e406cea	0.18791547
78	0x3dbf96be	0.09354924
79	0xbe57eefb	-0.21087258
80	0xbde447ef	-0.11146533
81	0x3e1b89e2	0.15189317
82	0x3dda6d03	0.106653236
83	0xbe1adfc5	-0.15124424
84	0xbdc993e8	-0.09842664
85	0xbd431036	-0.04762288
86	0xbcc7707e	-0.024345633
87	0xbe18c2c5	-0.14918049
88	0xbd929482	-0.07157232
89	0x3ba24ccb	0.004953002
90	0xbe314548	-0.17311585
91	0xbe814ac6	-0.2525236
92	0xbd365ddf	-0.044523116
93	0xba82e8dd	-0.0009987612
94	0xbe745ccd	-0.23863526
95	0xbdfd1560	-0.123575926
96	0xbd8d638c	-0.06903753
97	0xbc475b0f	-0.012167706
98	0xbbf5195c	-0.0074798297
99	0xbe676881	-0.22598459
100	0xbcf87444	-0.030328877
101	0x3d575872	0.052574582
102	0xbe6812b5	-0.22663386
103	0xbddf7c3a	-0.10912366
104	0x3d7902ae	0.06079357
105	0x3d6db49a	0.058033563
106	0xbe835bf8	-0.25656104
107	0xbde21004	-0.11038211
108	0x3d18fdfc	0.037351593
109	0xbe2318ab	-0.15927379
110	0xbd09dbb1	-0.03365678
111	0xbe58dede	-0.21178767
112	0x3dae452b	0.085092865
113	0x3e1aea59	0.15128459
114	0x3e26c609	0.16286482
115	0x3d674e9e	0.05647146
116	0x3e50c035	0.20385821
117	0xbd889bb4	-0.06670323
118	0xbd8afc32	-0.06786384
119	0xbd9f02aa	-0.0776418
120	0x3e2509cf	0.16117023
121	0x3e273843	0.16330056
122	0x3e382b4a	0.17985263
123	0xbe391fd0	-0.18078542
124	0x3e1cd3b5	0.15315135
125	0x3dc5ceb2	0.096585646
126	0x3e1ace19	0.15117683
127	0xbc685197	-0.014179609
128	0xbdf52e45	-0.11971716
129	0xbdeda388	-0.11603457
130	0x3d35a7ad	0.04434936
131	0x3c9e2c74	0.019308306
132	0xbe698e68	-0.2280823
133	0xbd534706	-0.051581405
134	0xbdebc4d5	-0.11512152
135	0x3de5cced	0.11220727
136	0x3b704a97	0.0036665553
137	0xbe2c3b5c	-0.16819519
138	0x3e218d85	0.15776642
139	0x3d9ba1ef	0.07599246
140	0xbe6af38d	-0.2294447
141	0x3e00d0db	0.12579672
142	0x3e02c6a4	0.12771088
143	0x3e69ee05	0.22844703
144	0xbcbc8c0b	-0.023015996
145	0xbd45c574	-0.04828401
146	0x3db8399d	0.08995364
147	0xbe2febbd	-0.17179771
148	0xbdff7b59	-0.124746986
149	0xbe004646	-0.12526807
150	0xbd9f0f53	-0.07766595
151	0x3e3c1767	0.18368302
152	0x3d675cd2	0.056485005
153	0xbd7a87ba	-0.061164595
154	0x3e148daf	0.14507173
155	0x3cd62725	0.026141712
156	0x3d5dc666	0.054144286
157	0x3e349fcd	0.17639084
158	0x3d4e18ca	0.05031661
159	0x3da7bb50	0.08190024
160	0x3d978fbd	0.07400463
161	0x3d5fd4a3	0.054646146
162	0xbdc71508	-0.09720808
163	0xbe5da60d	-0.21645375
164	0xbdaab35a	-0.0833499
165	0xbdcb7b03	-0.09935572
166	0x3e1f045c	0.15529007
167	0xbc5b985a	-0.013403023
168	0x3e68c439	0.22731103
169	0x3e329f58	0.17443597
170	0x3d31a3eb	0.043369215
171	0xbd81821a	-0.06323643
172	0xbcecfbd1	-0.02892867
173	0x3c9fdc6e	0.019514289
174	0x3d92e547	0.071726374
175	0xbdb918bf	-0.09037923
176	0x3e357ffa	0.177246
177	0x3e1f4082	0.15551952
178	0xbd651fc8	-0.055938512
179	0xbe139709	-0.14413084
180	0x3e0f40fe	0.13989636
181	0x3e2ee22e	0.17078468
182	0xbe2cf324	-0.16889626
183	0xbe883d75	-0.26609388
184	0x3e11dc0f	0.14244102
185	0x3dbd952c	0.09256968
186	0xbdc33fce	-0.09533654
187	0xbd844531	-0.0645851
188	0x3e16f336	0.14741215
189	0xbbc992a4	-0.006151514
190	0x3d91e263	0.07123258
191	0xbd0aa53b	-0.033848982
192	0x3e079d70	0.13243651
193	0x3d1a985c	0.037742957
194	0xbc784ce0	-0.015155047
195	0xbd8df8c5	-0.06932215
196	0xbdd0eb2d	-0.10201106
197	0x3ceb0122	0.028687064
198	0x3ddf5bc8	0.10906178
199	0xbdc1d044	-0.09463552
200	0xbd24d84f	-0.04024535
201	0xbdb5b550	-0.08872473
202	0xbdec188f	-0.11528122
203	0xbe188cd6	-0.14897475
204	0xbe0dee22	-0.13860372
205	0xbe0bbf46	-0.13647184
206	0xbd972dc9	-0.0738178
207	0x3a74eb5c	0.00093429326
208	0x3da7c6ab	0.0819219
209	0x3e80000a	0.2500003
210	0x3d91f173	0.07126131
211	0x3dd7adec	0.1053122
212	0x3dc14185	0.09436325
213	0x3e50f912	0.20407513
214	0x3dc40468	0.09571153
215	0x3e2da107	0.16955958
216	0x3d8d7380	0.069067955
217	0xbd4225d7	-0.047399368
218	0x3e3532df	0.17695187
219	0x3bd42024	0.006473558
220	0xbd8efc6c	-0.069817394
221	0x3d96b338	0.07358402
222	0xbe328892	-0.1743491
223	0x3cc0ccb4	0.02353511
224	0xbe0a3332	-0.13496092
225	0xbe56f4ac	-0.20991772
226	0xbdcd8ffa	-0.10037227
227	0xbdd6483b	-0.104629956
228	0xbe21836f	-0.15772794
229	0xbe2739ea	-0.16330686
230	0x3deaa1d7	0.1145665
231	0x3d59e752	0.05319912
232	0xbd8afe32	-0.06786765
233	0xbd68ae14	-0.05680664
234	0xbdc3d4b9	-0.09562058
235	0xbc23f435	-0.010006954
236	0xbd52a6c4	-0.05142857
237	0xbd23a22b	-0.039949577
238	0x3d23d528	0.039998204
239	0xbd696c50	-0.05698806
240	0xbdf3e22a	-0.11908372
241	0x3d0128d6	0.031533085
242	0x3d59711e	0.053086393
243	0xbd3486fc	-0.044074044
244	0x3d2aa0a9	0.041657124
245	0xbdc65340	-0.096838474
246	0x3e129ba2	0.14317182
247	0x3d470dc1	0.0485971
248	0x3d9a1645	0.07523779
249	0x3ddf39dc	0.10899708
250	0x3e39d068	0.18145907
251	0x3dd7ce88	0.105374396
252	0x3db05d1f	0.086115114
253	0x3dfaf0a9	0.122529335
254	0x3e4c6790	0.19961381
255	0x3d8cead8	0.068807304

unet_model.enc.0.main.bias f4 [16]
0	0x3c623a39	0.013807827
1	0x3d2607ac	0.04053466
2	0x3ba4d08a	0.0050297426
3	0x3c985210	0.018593818
4	0x3ba044b3	0.004891002
5	0xbd815e5a	-0.06316824
6	0xbd26daab	-0.04073588
7	0x3c03fc0d	0.008055699
8	0x3cc3ee61	0.023917379
9	0xbd1e3c5b	-0.03863178
10	0xbcc85407	-0.02445413
11	0x3d9299bf	0.07158231
12	0x3d44118e	0.047868304
13	0xbd9ff876	-0.07811062
14	0x3b79b285	0.003810079
15	0x3db70625	0.08936719

unet_model.enc.1.main.weight f4 [32, 16, 4, 4]
0	0x3cad3da4	0.021147557
1	0x3d1205d7	0.0356501
2	0x3c189053	0.009311753
3	0x3b7c0aba	0.0038458542
4	0x3c911216	0.01770882
5	0x3d558703	0.05213071
6	0x3d433dd4	0.047666386
7	0x3db43601	0.08799363
8	0xbd308661	-0.043096904
9	0xbd8f7b18	-0.070059
10	0x3d1cb1f6	0.038255654
11	0x3db1b4ff	0.086771004
12	0xbc4ba605	-0.012429719
13	0xbd81e4bc	-0.06342456
14	0xb9a5e686	-0.00031643006
15	0x3dfd9540	0.12381983
16	0x3dce78d8	0.10081643
17	0xbc184d49	-0.00929577
18	0x3c0a8347	0.0084541505
19	0xbc4cf374	-0.012509216
20	0x3d85844b	0.065193735
21	0x3deb8956	0.11500804
22	0x3cea85c9	0.028628247
23	0x3cadf53a	0.021235097
24	0x3d42a51b	0.047520738
25	0x3d376846	0.044777177
26	0x3ded7d82	0.11596204
27	0x3d4ce21a	0.050020315
28	0x3d1fd616	0.039022528
29	0xbbb48c7f	-0.0055099125
30	0x3d929e72	0.07159127
31	0x3d4c5ddc	0.0498942
32	0x3c2090e6	0.0098001715
33	0xbddfee94	-0.10934177
34	0xbd8591a7	-0.065219216
35	0x3cce96bb	0.025218358
36	0xbd284150	-0.04107791
37	0xbd162bd9	-0.03666291
38	0xbd296c53	-0.04136307
39	0xbd2fec80	-0.042950153
40	0x3cbb76a5	0.022883723
41	0xbc813f3a	-0.01577722
42	0x3d3b0d11	0.045666758
43	0x3cbbfa3b	0.022946468
44	0xbbd5d0c2	-0.00652513
45	0x3d89b8f5	0.06724731
46	0xbbce1b48	-0.0062898733
47	0xbd0ca819	-0.034339998
48	0x3cbcb4e0	0.023035467
49	0x3d3380e8	0.043824106
50	0x3d158608	0.036504775
51	0xbdd2411f	-0.10266327
52	0x3d3ef18b	0.046617072
53	0x3dda1a9f	0.10649609
54	0xbd2ef4a5	-0.04271378
55	0xbe16145f	-0.14656208
56	0x3dafa6bc	0.08576724
57	0x3e08d0fd	0.13360973
58	0x3da96bcd	0.082725145
59	0xbddd14d5	-0.10794989
60	0x3df147f5	0.11781303
61	0x3e0edd12	0.13951519
62	0x3dad6942	0.08467342
63	0x3cd0e7a7	0.025501085
64	0xbdad2a95	-0.084553875
65	0xbd141b49	-0.036158834
66	0x3d943bf4	0.07237998
67	0x3d2a1045	0.041519422
68	0xbd24b0c5	-0.040207643
69	0xbd05dbac	-0.0326802
70	0x3d5e8cce	0.0543335
71	0xbdacd381	-0.08438779
72	0xbdb1a6ee	-0.086744174
73	0xbd8e6c6e	-0.06954275
74	0xbd067bbb	-0.032832842
75	0xbdbf0e52	-0.09328903
76	0xbc8fbd14	-0.017546214
77	0xbddb8000	-0.107177734
78	0xbd7c33c5	-0.06157281
79	0xbba4409e	-0.005012586
80	0xbcc83af9	-0.024442183
81	0x3d55677c	0.052100644
82	0xbc9acf79	-0.018897759
83	0xbd34e070	-0.044159353
84	0xbd4a1200	-0.049333572
85	0xbcae4287	-0.021271957
86	0x3ded916a	0.11600001
87	0x3be02e6b	0.006841471
88	0xbd2bc845	-0.04193904
89	0x3dda2672	0.10651864
90	0x3d8fddf0	0.07024753
91	0xbcef7e50	-0.029235035
92	0x3d4c619e	0.049897783
93	0x3d4aefd0	0.04954511
94	0x3dae4c88	0.08510691
95	0xbb7df416	-0.0038750223
96	0xbd876637	-0.06611293
97	0xbcf687ce	-0.030094054
98	0x3d71c9bd	0.059030283
99	0xbc3f6e4a	-0.01168401
100	0x3d038bbb	0.03211568
101	0x3da2071c	0.07911512
102	0x3cb28327	0.021791054
103	0xbcebef4c	-0.02880063
104	0xbcc50484	-0.024050005
105	0x3d8ad77f	0.06779384
106	0xbcf093dd	-0.029367382
107	0x3d821c2f	0.06353032
108	0xbc8c358e	-0.01711538
109	0xbd1a1e6a	-0.03762666
110	0xbcf89e37	-0.03034888
111	0x3dccd991	0.10002435
112	0x3de43da6	0.11144571
113	0x3d73e550	0.05954486
114	0x3da1c755	0.07899348
115	0xbdf8078c	-0.121108145
116	0xbb9be7a5	-0.004757839
117	0xbbd8eba5	-0.006619888
118	0xbdaa3c76	-0.08312313
119	0xbe2e26d2	-0.17006996
120	0xbd228e6e	-0.039686613
121	0xbdb3f4de	-0.08786939
122	0xbd94fa4a	-0.07274301
123	0xbdd56c68	-0.104210675
124	0xbd3128ed	-0.04325192
125	0xbca279a3	-0.019833392
126	0xbd8ccfe6	-0.06875591
127	0xbacd29e6	-0.0015652745
128	0x3d94ff18	0.07275218
129	0x3d2cf76f	0.04222816
130	0xbc8d8377	-0.017274601
131	0xbac13551	-0.0014740621
132	0x3d83518d	0.06412039
133	0x3e014696	0.12624583
134	0x3d5ad610	0.053426802
135	0xbda80bfc	-0.08205411
136	0x3c5781c6	0.013153499
137	0xbc6e44d8	-0.014542781
138	0xbcf86806	-0.03032304
139	0xbc99ec59	-0.018789457
140	0x3c2173dd	0.009854284
141	0x3d1c67a4	0.038184777
142	0x3da38ed3	0.07986226
143	0x3e1aa00c	0.15100116
144	0xbd83c2c6	-0.064336345
145	0x3d901fe1	0.070373304
146	0x3d81458a	0.06312092
147	0x3d20e15f	0.03927743
148	0x3d13d49f	0.036091443
149	0x3de1265f	0.10993647
150	0x3d285d1b	0.041104417
151	0xbcbbe27f	-0.02293515
152	0x3d0da19e	0.03457796
153	0x3c9ce7c8	0.01915349
154	0xbd819973	-0.06328096
155	0x3d1bd302	0.03804303
156	0x3c1a432e	0.009415431
157	0x3cd3cc98	0.025854394
158	0x3df36e66	0.11886291
159	0x3dd6f430	0.10495794
160	0x3d010f50	0.031508744
161	0x3b823136	0.0039731516
162	0x3d016aa0	0.031595826
163	0x3da0797f	0.078356735
164	0x3dff387e	0.12461947
165	0xbd5def0e	-0.05418306
166	0xbcd12e89	-0.025534885
167	0x3dcc576e	0.099776134
168	0x3d7f2ca1	0.06229842
169	0x3bb17d88	0.005416576
170	0x3d3f00e9	0.046631727
171	0x3caac68b	0.020846626
172	0x3db1f694	0.08689609
173	0x3d8def1f	0.06930374
174	0xbc195066	-0.009357547
175	0x3d4c76f0	0.049918115
176	0x3d15e9fe	0.036600105
177	0x3c648711	0.013948218
178	0x3cb3ccae	0.021948185
179	0xbc9e9c65	-0.019361684
180	0x3ceb88aa	0.02875169
181	0xbc53622e	-0.012901826
182	0xbd351474	-0.04420896
183	0x3d01514b	0.031571668
184	0x3d31df4d	0.043425847
185	0x3d45a0c1	0.04824901
186	0x3bccea4e	0.0062535172
187	0xbcdfce21	-0.02731997
188	0x3ba391ec	0.0049917605
189	0x3cf8a6da	0.030352999
190	0xbd0faaaf	-0.035074886
191	0xbdd381a5	-0.10327462
192	0x3c87c709	0.0165744
193	0x3d81ac9d	0.063317515
194	0xbca5751f	-0.02019745
195	0x3a6c2400	0.000900805
196	0x3db10b24	0.08644703
197	0x3dd8696a	0.10566981
198	0x3dc7ad89	0.09749896
199	0x3d8e74e0	0.06955886
200	0x3ddf884b	0.10914668
201	0x3df68afb	0.12038227
202	0x3de11150	0.1098963
203	0x3d87c03c	0.06628463
204	0xb8d273fe	-0.000100351856
205	0x3cb57cbd	0.022154206
206	0xbba01b04	-0.004886033
207	0xb9432130	-0.00018609012
208	0x3c11961c	0.0088858865
209	0xbb03a1bd	-0.0020085417
210	0x3d81d446	0.06339316
211	0x3d0518d5	0.032494385
212	0x3d47c75f	0.04877412
213	0x3dad8276	0.08472149
214	0x3cf08a10	0.029362708
215	0x3d367e2a	0.044553913
216	0x3bf62133	0.007511282
217	0x3d5d0f9b	0.05396996
218	0xbd86ae84	-0.06576255
219	0x3c52349f	0.012829929
220	0x3bdeef12	0.0068034017
221	0xbc767cea	-0.01504443
222	0xbc287ab0	-0.010283157
223	0x3cbb05c6	0.022829901
224	0xbdbb634e	-0.091498
225	0xbd676e49	-0.05650166
226	0xbdaec925	-0.08534459
227	0x3d1928ce	0.03739243
228	0x3c1d8d08	0.009616144
229	0xbd61b9dc	-0.05510889
230	0x3c527ee9	0.012847641
231	0xba990def	-0.0011677126
232	0x3d97f5a4	0.07419899
233	0x3c64424e	0.013931824
234	0x3da34803	0.079727195
235	0xbb81e483	-0.0039640083
236	0x3ccf687d	0.025318379
237	0x3d87c927	0.06630164
238	0x3cd48e4e	0.025946762
239	0xbcd9bcb3	-0.026579237
240	0x3dff2a15	0.124591984
241	0x3c324e68	0.010882951
242	0xbc1cc70b	-0.00956894
243	0x3c0d8e69	0.00863991
244	0x3d958f12	0.07302679
245	0xbc336c50	-0.010951117
246	0x3cbbd5f9	0.022929179
247	0xbbbbab26	-0.0057271896
248	0x3d62eff0	0.055404603
249	0x3d9213bd	0.07132671
250	0x3dfb5b80	0.122733116
251	0xbc84c3a1	-0.016206564
252	0xbc5d76f6	-0.013517132
253	0xbcbf1e12	-0.023329768
254	0x3ca5ca98	0.020238206
255	0x3ccf21f7	0.02528475

unet_model.enc.1.main.bias f4 [32]
0	0xbd89e7b1	-0.06733645
1	0xbcd091d0	-0.025460154
2	0xbbba2bc9	-0.005681489
3	0x3d107869	0.035271082
4	0x3d2463fe	0.040134422
5	0xbd180b7d	-0.03712033
6	0xbd11da45	-0.03560855
7	0x3c9986c3	0.018741017
8	0xbc367673	-0.011136639
9	0x3c8ec87a	0.017429579
10	0x3c569620	0.013097316
11	0xbc4d5e86	-0.012534743
12	0x3bc9011f	0.006134167
13	0x3d291b1b	0.041285615
14	0x3caff6b1	0.021479936
15	0xbc6648e7	-0.014055467
16	0x3d067b16	0.032832228
17	0xbc9e5d57	-0.019331617
18	0xbb1c9cbe	-0.0023897137
19	0x3b80ad72	0.0039269263
20	0xbc6121d3	-0.0137409745
21	0x3d1ab948	0.037774354
22	0x3d453747	0.04814842
23	0x3be7f24f	0.007078446
24	0xbc0b28e4	-0.008493636
25	0x3c960760	0.018314064
26	0x3cbafd40	0.022825837
27	0x3cf077e3	0.029354041
28	0x3d170f8a	0.036880054
29	0xbbec5d62	-0.0072132805
30	0x3adf282f	0.0017025525
31	0xbd1d6d37	-0.038434234

unet_model.enc.2.main.weight f4 [32, 32, 4, 4]
0	0xbd4a10a3	-0.049332272
1	0xbcb86784	-0.022510298
2	0x3c34ffbf	0.011047303
3	0x3c1b5719	0.009481215
4	0xbd3d41e1	-0.046205405
5	0xbdbb95b6	-0.091594145
6	0xbd214ede	-0.039381854
7	0x3cbaf223	0.022820538
8	0xbd9ecebe	-0.07754277
9	0xbc5d6d5d	-0.013514844
10	0xbbcb6ee8	-0.0062082894
11	0x3bc34814	0.00595952
12	0xbdafaa61	-0.08577419
13	0xbd57d9b3	-0.05269785
14	0xbd549e03	-0.051908504
15	0xbce32c59	-0.027731108
16	0xbd2dca39	-0.042429183
17	0xbd23c4cb	-0.0399826
18	0x3c8e03a7	0.017335726
19	0x3d665b83	0.056239616
20	0xbd729bf7	-0.05923077
21	0xbcaffde4	-0.02148337
22	0xbd994981	-0.07484723
23	0xbcfe9ab5	-0.03107963
24	0xbcecd731	-0.028911205
25	0xbdbe680e	-0.092971906
26	0xbdd6e198	-0.10492247
27	0xbdde6e75	-0.10860912
28	0xbe0ecda2	-0.1394563
29	0xbd674133	-0.056458663
30	0xbd1b50b1	-0.03791875
31	0xbd3e5377	-0.046466317
32	0xbd56e5d7	-0.052465286
33	0xbde16cb6	-0.11007063
34	0xbdc7cc8d	-0.09755812
35	0xbe17d72b	-0.14828174
36	0xbd43f10b	-0.0478373
37	0xbe5599af	-0.20859407
38	0xbe25d0e9	-0.16192974
39	0xbe14729b	-0.14496844
40	0xbd55cabb	-0.052195292
41	0xbe106eb1	-0.14104725
42	0xbe4a794a	-0.1977283
43	0xbdcf49f9	-0.10121531
44	0x3cb85a49	0.022503989
45	0xbd8ac745	-0.06776289
46	0xbda747bd	-0.0816798
47	0xbd98ba73	-0.07457437
48	0x3cce5840	0.025188565
49	0xbc5ead0c	-0.013591062
50	0x3db2a872	0.08723535
51	0xbc852e0a	-0.016257305
52	0xbaa463b2	-0.0012541919
53	0x3c1680f9	0.009186023
54	0x3bc0e257	0.005886357
55	0x3d904078	0.070435464
56	0xbd66fdc7	-0.056394365
57	0xbcc6802f	-0.024231045
58	0x3d36e1f3	0.044649076
59	0xbcb666ed	-0.022265876
60	0xbced1934	-0.028942682
61	0xbd55f13c	-0.052232012
62	0xbc99b06a	-0.018760879
63	0x3c34c0c1	0.011032284
64	0x3d42b11a	0.04753218
65	0x3db99db7	0.09063285
66	0x3d8edcb9	0.06975693
67	0x3dec0921	0.11525179
68	0xbd6490b2	-0.055802055
69	0x3d6e9c83	0.05825473
70	0x3d36f641	0.04466844
71	0x3b059f8c	0.0020389287
72	0xbdb1bed7	-0.08678978
73	0x3bb385b6	0.005478586
74	0x3d955b6f	0.0729283
75	0x3d17aeab	0.03703181
76	0xba1ed272	-0.00060585805
77	0x3d8eb4b5	0.06968061
78	0x3d4f9395	0.050677855
79	0x3d3be21a	0.045869924
80	0x3cce04d0	0.02514878
81	0xbb20249e	-0.0024435888
82	0xbcbc749b	-0.02300482
83	0x3cfd99c3	0.030957108
84	0xbdd493bd	-0.10379741
85	0xbe2270b4	-0.15863305
86	0xbda15811	-0.078781255
87	0xbd90bc89	-0.0706721
88	0xbda6f6c1	-0.08152533
89	0xbd9e7024	-0.07736233
90	0xbe32702a	-0.174256
91	0xbd777c79	-0.06042144
92	0xbdebbe14	-0.11510864
93	0xbdeee6e2	-0.11665131
94	0xbe11bd9c	-0.14232486
95	0xbe0967fe	-0.13418576
96	0x3ced436b	0.028962811
97	0x3d035c49	0.03207043
98	0x3d521e56	0.05129846
99	0xbb00f9b0	-0.0019680075
100	0x3d5b8739	0.053595755
101	0x3cf010c6	0.029304873
102	0x3daa06bb	0.08302065
103	0x3cd69273	0.02619288
104	0xbd0fb4b0	-0.035084426
105	0xbb0c3c31	-0.0021398182
106	0xbd1cd315	-0.03828724
107	0x3c0d6230	0.008629367
108	0xbd0b2e03	-0.033979427
109	0xbce727e8	-0.028217271
110	0xbc9ac64c	-0.018893383
111	0x3c140b02	0.009035828
112	0xbd23e5e2	-0.040014155
113	0xbdaf9ea3	-0.085751794
114	0xbd319e66	-0.04336395
115	0x3cab5b40	0.020917535
116	0xbd083cad	-0.03326099
117	0xbd72ce45	-0.059278745
118	0xbc16bf37	-0.009200863
119	0xbcf3a804	-0.029743202
120	0xbb74af60	-0.0037335977
121	0xbd15c781	-0.036567215
122	0x3c72570e	0.014791263
123	0x3cb16465	0.021654317
124	0xbd8aa74c	-0.067701906
125	0x3bb01ffb	0.005374906
126	0x3cd51a71	0.026013585
127	0x3b71a877	0.0036874095
128	0xbd734401	-0.059391025
129	0xbcd641af	-0.026154367
130	0xbcb9a32d	-0.022660816
131	0x3c1aabff	0.009440421
132	0xbd53c8b3	-0.051705074
133	0xbd885621	-0.06657053
134	0xbb994c2f	-0.0046782712
135	0xbc354226	-0.011063134
136	0x3c491656	0.012273392
137	0xbd2c99dc	-0.04213892
138	0xbd92ee2d	-0.07174335
139	0xbd76f78a	-0.060294665
140	0xbcf3cd5b	-0.029761007
141	0xbcdfc8a6	-0.027317356
142	0xbdaa32ad	-0.08310447
143	0xbb36e968	-0.0027910117
144	0x3d4c6515	0.049901087
145	0x3ce75d56	0.028242748
146	0x3d3d0f0e	0.046156935
147	0x3d264bd9	0.040599678
148	0x3d212cfa	0.039349534
149	0x3d09eed7	0.03367504
150	0xbb6f90f4	-0.0036554905
151	0xbcff1659	-0.031138586
152	0xbc79d060	-0.015247434
153	0xbc419d77	-0.011817328
154	0xbd458c3f	-0.048229452
155	0x3c3c2cb8	0.011485271
156	0xbcd9f04a	-0.026603837
157	0xbd374814	-0.044746473
158	0x3cc799d2	0.02436534
159	0xbca76bde	-0.020437177
160	0xbd4c194c	-0.049828812
161	0x3c901af8	0.017590985
162	0x3d0d91a0	0.034562707
163	0xbcfa89e2	-0.030583326
164	0x3c58b2fc	0.013226267
165	0xbb960fe5	-0.0045795315
166	0x3dd1f11c	0.10251066
167	0xbcec5075	-0.028846959
168	0x3d622fb0	0.05522126
169	0x3c8832cf	0.01662579
170	0x3b7010de	0.0036631147
171	0x3c81c441	0.015840651
172	0xbd39e64d	-0.045385648
173	0x3d0df0d7	0.03465351
174	0xbd764280	-0.060122013
175	0x3d154afe	0.03644847
176	0x3d9eede6	0.07760219
177	0x3d8bc049	0.06823785
178	0x3d5a1cec	0.05325024
179	0x3d9f6366	0.077826306
180	0x3d5a4ba9	0.05329481
181	0x3da924fb	0.082590066
182	0x3dc6c78b	0.097060286
183	0x3d2c7d05	0.042111415
184	0xbd1c31d2	-0.03813345
185	0x3da880dd	0.08227704
186	0xbca3073d	-0.019900912
187	0x3dad5aad	0.08464561
188	0xbd1dae90	-0.038496554
189	0x3c733e60	0.014846414
190	0x3d62d184	0.05537559
191	0x3d8fbde0	0.07018638
192	0x3d61754e	0.05504351
193	0x3caf3b8d	0.0213907
194	0xbd38c23b	-0.045107108
195	0xbc8de1e0	-0.01731962
196	0xbcde8941	-0.027165057
197	0xbd4fee26	-0.050764225
198	0xbd93496f	-0.07191741
199	0x3d503394	0.05083044
200	0x3ca41c0e	0.020032909
201	0xbc7a2650	-0.0152679235
202	0xbd6436eb	-0.055716436
203	0x3d25a009	0.040435825
204	0x3c9de7d5	0.019275585
205	0x3b0979ac	0.0020977063
206	0x3be40fe4	0.006959902
207	0xbc17c8db	-0.009264196
208	0xbc33fc9d	-0.010985521
209	0x3ccc52cb	0.024941823
210	0xbd518c0c	-0.05115895
211	0xbdfafbb9	-0.122550435
212	0x3baa82bd	0.0052035735
213	0x3d15d50a	0.036580123
214	0xbda368de	-0.07978986
215	0xbda8e404	-0.082466155
216	0xbc4b423d	-0.012405929
217	0xbc9661f4	-0.018357255
218	0xbde1067d	-0.10987566
219	0xbdaff5d8	-0.08591813
220	0xbbea252e	-0.0071455454
221	0xbd30c130	-0.043152988
222	0xbcf0069c	-0.029300027
223	0x3c9a6e99	0.018851565
224	0x3d01970c	0.03163819
225	0xbc7a9d77	-0.015296332
226	0x3cb31eaa	0.021865208
227	0x3c961b6b	0.01832362
228	0x3d821acc	0.06352767
229	0xbd152fe9	-0.036422644
230	0xbc820751	-0.01587263
231	0xbd13d7a7	-0.036094334
232	0x3d123fc3	0.03570534
233	0x3d3e6c60	0.046490073
234	0xbd1ae3d4	-0.03781493
235	0x3d498d21	0.049206857
236	0x3d0f8240	0.035036325
237	0x3d2eeaac	0.04270427
238	0xbd657676	-0.056021176
239	0xbd2a888b	-0.041634124
240	0xbbe25f39	-0.006908324
241	0xbd7c1600	-0.06154442
242	0xbcaad9f3	-0.02085588
243	0xbcf86519	-0.030321645
244	0xbd240c13	-0.040050577
245	0xbdb14b2a	-0.086569145
246	0xbd9bf764	-0.076155454
247	0xbc5a60dc	-0.013328757
248	0xbdf267cf	-0.11836206
249	0xbd1d8009	-0.038452182
250	0xbdc683a6	-0.09693079
251	0xbd11713d	-0.035508383
252	0xbdf802a1	-0.121098764
253	0xbe11bc64	-0.14232022
254	0xbdbc86df	-0.09205412
255	0x38e011c0	0.000106844585

unet_model.enc.2.main.bias f4 [32]
0	0x3c1cd31c	0.009571817
1	0x3cef3903	0.02920199
2	0x3d443b51	0.04790813
3	0xbbf28713	-0.007401356
4	0x3d1bae13	0.038007807
5	0x3d1bb5e4	0.03801526
6	0xbbeb1060	-0.007173583
7	0xbcd25da7	-0.025679423
8	0x3c76df21	0.0150678465
9	0x3c91e0a5	0.017807314
10	0x3cb9aec2	0.022666339
11	0x3d8d0337	0.06885379
12	0xbc8a1335	-0.016854862
13	0x3cf8e845	0.030384192
14	0x3c5acfe8	0.013355233
15	0x3d0c7399	0.03428993
16	0x3bac577c	0.0052594524
17	0x3d1df98e	0.038568072
18	0x3ce45167	0.027870847
19	0x3d242a66	0.040079497
20	0xbd02c634	-0.031927302
21	0xbc287479	-0.0102816755
22	0x3d23a174	0.039948896
23	0x3c4af26a	0.012386898
24	0x3c24e759	0.010064923
25	0x3c05a252	0.008156376
26	0x3da5c615	0.08094422
27	0x3b68ff7d	0.0035552674
28	0xbd81d246	-0.063389346
29	0xbbc860e1	-0.0061150645
30	0x3d444b1b	0.04792319
31	0xbb151e71	-0.002275374

unet_model.enc.3.main.weight f4 [32, 32, 4, 4]
0	0xbd8f6520	-0.0700171
1	0x3ce007a1	0.027347388
2	0xbd9634ef	-0.07334315
3	0x3d7d13c9	0.061786447
4	0xbd2a0140	-0.0415051
5	0xbd1a7f06	-0.037718795
6	0x3d71e522	0.05905641
7	0x3c687104	0.014187101
8	0xbe3af375	-0.18256934
9	0xbdb9117c	-0.09036538
10	0xbb1f36de	-0.0024294178
11	0x3c18ffae	0.009338303
12	0xbe379f70	-0.17931914
13	0xbcb16382	-0.021653894
14	0x3d41716f	0.04722732
15	0xbd32a014	-0.043609694
16	0xbdc35421	-0.09537531
17	0xbe332fc5	-0.17498691
18	0xbd5d6a19	-0.05405626
19	0xbcc36220	-0.0238505
20	0xbd5d629a	-0.054049112
21	0xbdd3f219	-0.10348911
22	0xbd8245ec	-0.06360993
23	0xbcbab2a1	-0.022790255
24	0x3cd600db	0.026123455
25	0xbc949c05	-0.018140802
26	0x3d02a612	0.03189666
27	0x3c5e3f44	0.013564888
28	0x3dbb2462	0.09137799
29	0x3d70bdce	0.05877476
30	0x3db179ff	0.08665847
31	0x3d0a077e	0.03369855
32	0xbdd497af	-0.10380494
33	0x3c8fb440	0.017542005
34	0x3d42e3f1	0.047580663
35	0x3cccac00	0.02498436
36	0x3c13076b	0.008973937
37	0xbd1a28cf	-0.037636574
38	0x3d9d4cf8	0.07680696
39	0x3c8c39dc	0.017117433
40	0xbd44ff09	-0.048094783
41	0x3d1a758c	0.037709758
42	0x3cfe85d5	0.031069675
43	0x3cf62284	0.030045755
44	0x3c919e50	0.017775685
45	0x3b09ca42	0.0021025096
46	0x3a7a94f7	0.00095589407
47	0xba807cc6	-0.000980281
48	0x3d3c265d	0.045935024
49	0xbc15d71c	-0.009145524
50	0x3d71591a	0.058922864
51	0xbde1bc68	-0.11022264
52	0x3cecc91a	0.028904486
53	0xbd0ffb86	-0.03515198
54	0xbe10054a	-0.14064518
55	0xbd020e5e	-0.031751983
56	0xbc058ac8	-0.008150764
57	0xbc972268	-0.018449023
58	0xbc8aaec2	-0.016929034
59	0xbd678c28	-0.056530148
60	0x3d06f3fe	0.032947533
61	0xbc20bcfc	-0.009810682
62	0xbd33c7e9	-0.04389182
63	0x3c2fd103	0.010730985
64	0xbdcf22fb	-0.10114094
65	0xb99814f1	-0.00029007302
66	0x3c7088b9	0.014681035
67	0x3c50ea9e	0.01275125
68	0xbd616e5a	-0.05503688
69	0xbde1772e	-0.1100906
70	0xbdd8b55c	-0.105814666
71	0x3c9f0b83	0.019414669
72	0xbe146894	-0.14493018
73	0xbe21e2a2	-0.1580911
74	0xbd1fe2b8	-0.039034575
75	0x3d0221c5	0.031770486
76	0x3d1e57aa	0.03865782
77	0x3d2a128b	0.04152159
78	0x3ba5c176	0.0050584627
79	0x3c934195	0.017975608
80	0xbd3670f1	-0.044541303
81	0x3cf7c98a	0.030247469
82	0xba63e55c	-0.000869354
83	0x3c8ead29	0.017416554
84	0xbccd3f72	-0.025054667
85	0x3cac4f01	0.021033766
86	0x3c57a28c	0.013161313
87	0x3afc9ec0	0.0019273385
88	0xbc867849	-0.016414778
89	0x3cc912c8	0.024545088
90	0x3d54b56f	0.05193084
91	0x3d306741	0.04306722
92	0x3a7fe80d	0.0009762056
93	0x3d770fbc	0.06031774
94	0xbb2d7d10	-0.0026472248
95	0x3cba6f79	0.022758232
96	0xbd461997	-0.048364248
97	0x3d306f50	0.043074906
98	0xbcca0275	-0.024659375
99	0xbb4bd1bb	-0.003110035
100	0x3d400384	0.046878353
101	0x3cd21276	0.025643568
102	0x3cc271dd	0.023735935
103	0x3b7c3b30	0.0038487427
104	0xbc2297ad	-0.009923858
105	0x3cc47cd2	0.0239853
106	0x3dba9ae8	0.09111577
107	0x3d6feb63	0.05857409
108	0xbd37d279	-0.044878457
109	0xbcb10894	-0.021610536
110	0x3c525d19	0.012839579
111	0xbbaf345a	-0.005346817
112	0xbdaf6f8e	-0.08566199
113	0xbcb92f6d	-0.022605622
114	0xbd2adc0b	-0.041713756
115	0xbd0fe1f7	-0.035127606
116	0xbc5a7314	-0.013333101
117	0xbd3b0224	-0.04565634
118	0x3d6b44b7	0.05743858
119	0xbc9ac028	-0.018890455
120	0xbb72df97	-0.003705954
121	0xbc42a909	-0.011881121
122	0xbcff5d60	-0.031172454
123	0x3ca1f72e	0.019771185
124	0x3cae34d8	0.021265432
125	0xbda74b31	-0.081686385
126	0xbd8c666c	-0.06855473
127	0xbcd34991	-0.025791915
128	0x3cd14283	0.02554441
129	0x3cc689cc	0.024235629
130	0x3db7d40d	0.08975992
131	0x3cd038c8	0.0254177
132	0xbe099037	-0.1343392
133	0xbd7fabe3	-0.062419783
134	0xbcc83862	-0.024440948
135	0x3cba5ccc	0.022749327
136	0xbe1d4f0e	-0.15362188
137	0xbe049b15	-0.12949784
138	0xbc5d7611	-0.013516919
139	0xbc277509	-0.010220774
140	0x3b6a647d	0.0035765462
141	0x3c593d4e	0.013259245
142	0xbd49788a	-0.04918722
143	0xbd5e0179	-0.054200623
144	0xbded654a	-0.11591585
145	0x3c83ebf7	0.016103728
146	0xbd4ae806	-0.04953768
147	0xbd1b2a24	-0.037881985
148	0x3c15a6f3	0.009134042
149	0x3d967a46	0.073475406
150	0x3d609efc	0.05483912
151	0xbb9de95a	-0.0048190774
152	0x3dbe419e	0.09289859
153	0x3db4c8fc	0.08827397
154	0x3d9590fd	0.07303045
155	0xbc0ce3eb	-0.008599262
156	0x3d8cc672	0.06873788
157	0x3d555c31	0.052089874
158	0x3dc5c294	0.096562535
159	0xbd8ff061	-0.070282705
160	0xbc41546b	-0.011799912
161	0x3d3ae1cb	0.04562549
162	0xbd08ae6a	-0.03336946
163	0xbdb8c322	-0.09021594
164	0xbd047a9d	-0.032343496
165	0xbcc2767e	-0.023738142
166	0x3d5d244b	0.05398969
167	0x3d20fb2a	0.03930203
168	0x3cb78d27	0.022406174
169	0x3cba09b3	0.022709703
170	0x3dbe3b53	0.09288659
171	0x3d9e5b7c	0.07732293
172	0x3abc2066	0.0014352917
173	0x3e117ef3	0.14208584
174	0x3c4edb48	0.012625523
175	0x3d9e28a3	0.077225946
176	0x3d69fa28	0.057123333
177	0x3da4bc74	0.08043757
178	0x3de1a217	0.11017244
179	0x3c9302bb	0.017945638
180	0x3ce5cf64	0.028052993
181	0x3d364413	0.044498514
182	0x3d322781	0.043494705
183	0x3d1e8e30	0.03870982
184	0x3d2c6ca0	0.04209578
185	0xbd8a126c	-0.06741795
186	0xbba07d5e	-0.0048977574
187	0xbdb3d1fe	-0.08780287
188	0xbd59d10c	-0.05317788
189	0xbe0672bd	-0.13129707
190	0xbd87ca58	-0.06630391
191	0xbd66f654	-0.05638726
192	0xbd2980a3	-0.041382443
193	0xbd5b813f	-0.053590056
194	0xbd1b54e5	-0.03792276
195	0x3cd6eece	0.026236918
196	0xbd0d8a8d	-0.03455596
197	0x3d356723	0.044287812
198	0xbcae0c4d	-0.0212461
199	0x3b8871c2	0.0041639516
200	0xbd5eab25	-0.054362435
201	0x3c095774	0.008382667
202	0xbd2b8742	-0.04187704
203	0x3d5e9ffb	0.054351788
204	0xbc34ca05	-0.011034493
205	0xbd557919	-0.05211744
206	0x3cdc8524	0.026918955
207	0x3ce6f490	0.028192788
208	0x3d0ea11f	0.034821626
209	0x3dbbcd4c	0.09170017
210	0x3d3184ff	0.043339726
211	0xbbb66423	-0.0055661364
212	0x3daa5361	0.083166845
213	0x3dc5159d	0.09623263
214	0xbcd4779a	-0.025935937
215	0xbcb78dd0	-0.022406489
216	0x3d35e1a8	0.044404656
217	0x3c99bad6	0.018765848
218	0x3cce8dd5	0.025214115
219	0xbce9bf51	-0.02853361
220	0x3b37517b	0.002797215
221	0xbcbaab33	-0.022786712
222	0xbd915ed9	-0.07098169
223	0xbd83c193	-0.06433406
224	0x3cdaf9ac	0.026730381
225	0x3c679037	0.014133505
226	0x3d274671	0.040838663
227	0xbc86922d	-0.016427124
228	0x3afb641d	0.0019179616
229	0x3d10489f	0.035225507
230	0xbcb18335	-0.02166901
231	0xbdc0721f	-0.09396767
232	0x3d1ae94a	0.037820138
233	0xbc86b414	-0.01644329
234	0xbd77536d	-0.060382295
235	0xbce8042b	-0.0283223
236	0xbcc9866b	-0.024600228
237	0xbdd522e4	-0.104070455
238	0xbd927895	-0.071519054
239	0xbcbf21da	-0.023331571
240	0x3d5b3d84	0.053525463
241	0x3db95b15	0.09050576
242	0x3da4b6c5	0.08042673
243	0x3d41a13f	0.047272917
244	0x3a856ed4	0.0010180124
245	0x3d10ed19	0.035382364
246	0x3d8cb92a	0.06871255
247	0x3d26a347	0.040683057
248	0x3d1b3e81	0.037901405
249	0x3be70d2f	0.007051132
250	0x3c62b12a	0.0138361845
251	0x3db7ab2c	0.08968195
252	0x3d3140e6	0.043274783
253	0xbdbe925b	-0.09305259
254	0xbd90ddd8	-0.07073563
255	0x3d412dd6	0.047162853

unet_model.enc.3.main.bias f4 [32]
0	0x3ca2015b	0.019776037
1	0x3aab4882	0.0013067874
2	0xbc0fe68c	-0.008782994
3	0x3c81288d	0.015766406
4	0xbcf32313	-0.02967981
5	0x3c712a23	0.014719519
6	0x3cdcd18a	0.026955385
7	0x3d3b7ff4	0.045776322
8	0xbd304da3	-0.04304279
9	0xba86c75d	-0.0010282804
10	0x3c977f7e	0.01849341
11	0xbd3538a6	-0.044243477
12	0xbd4233fc	-0.047412857
13	0xbd2408b1	-0.04004735
14	0x3ceaed5f	0.02867764
15	0x3abc445b	0.0014363633
16	0xbd79ede1	-0.061017875
17	0xbb7bfb68	-0.003844941
18	0xbc875ff6	-0.01652525
19	0xbd8837a1	-0.06651235
20	0x3cdec6f7	0.027194483
21	0x3cba6c3d	0.02275669
22	0xbd3345a4	-0.043767586
23	0xbd973334	-0.07382813
24	0x3c41b6f7	0.011823407
25	0xbd6ec1a9	-0.058290157
26	0x3d1a5807	0.037681606
27	0xbd211f69	-0.039336596
28	0x3da4ab56	0.08040492
29	0x3a1e5117	0.0006039305
30	0x393a0a49	0.00017742174
31	0xbcba5448	-0.022745267

unet_model.dec.0.main.weight f4 [32, 32, 3, 3]
0	0xbd738cc1	-0.059460405
1	0x3d229b4a	0.039698876
2	0xbb573d35	-0.0032842879
3	0xbc3e9d17	-0.011634133
4	0x3c9c158f	0.019053249
5	0x3d5ce1c8	0.05392626
6	0xbc0f33f6	-0.008740416
7	0xbd7d2ec8	-0.061812192
8	0xbd75fed9	-0.060057495
9	0xbd29a8fb	-0.041420918
10	0x3d3fc847	0.04682186
11	0x3da9f4b7	0.08298629
12	0xbda0926d	-0.078404285
13	0x3d0cc018	0.034362882
14	0xbd20cd2a	-0.03925816
15	0xbcf9f5e8	-0.030512765
16	0x3cd3fd24	0.025877543
17	0x3ddc88dd	0.10768292
18	0x3a902534	0.0010997416
19	0x3d42fb48	0.04760292
20	0xbce04c67	-0.027380181
21	0x3caa6314	0.020799197
22	0x3c9ab18a	0.018883485
23	0x3d388337	0.04504701
24	0xbda3ef49	-0.080046244
25	0x3cd518e7	0.02601285
26	0x3d69ba16	0.05706223
27	0x3c6a46a4	0.014299069
28	0xbbe5ae1b	-0.0070092804
29	0x3c900c0e	0.017583873
30	0x3c9584dd	0.01825183
31	0x3b3b3729	0.0028566814
32	0xbd986764	-0.07441595
33	0xbe0abf7c	-0.13549608
34	0xbce85f70	-0.02836582
35	0xbc554b8a	-0.013018498
36	0x3bc732e8	0.0060790665
37	0xbc92e9e2	-0.01793379
38	0x3c7c8d55	0.015414556
39	0x3d16b7cb	0.036796372
40	0xbcd187d7	-0.025577469
41	0xbd36d577	-0.04463717
42	0x3c25fb77	0.010130755
43	0xbc0499fb	-0.008093352
44	0xbc9e86a3	-0.01935131
45	0xbcf0cfe3	-0.029396003
46	0xbc57f405	-0.013180737
47	0x3cf75ef5	0.030196646
48	0xbcd72a74	-0.02626536
49	0xbcae83a4	-0.021303006
50	0xbbd780d1	-0.0065766354
51	0x3c22d38a	0.00993813
52	0x3bddced6	0.0067690415
53	0xbd8205a9	-0.06348736
54	0xbd11e075	-0.03561445
55	0x3c2c8627	0.010530031
56	0x3abb1fac	0.0014276407
57	0x3c06ec92	0.008235114
58	0x3d862a5a	0.06551047
59	0x3d545d10	0.051846564
60	0x3d6fffa3	0.058593404
61	0x3d33009a	0.043701746
62	0x3b231652	0.002488513
63	0x3dab32a2	0.08359267
64	0x3d654bdf	0.05598056
65	0xbcf71f3f	-0.030166266
66	0x3cdf6e0b	0.027274152
67	0x3c0c0efd	0.008548495
68	0xbc96b469	-0.018396573
69	0x3aacb9f3	0.0013177976
70	0xbd80a1d3	-0.062808655
71	0xbd4678b7	-0.048454966
72	0xbd5c88ec	-0.053841516
73	0xbcc63e95	-0.024199763
74	0xbccb0f4f	-0.024787573
75	0xbc71c0cf	-0.014755442
76	0x3cdf57bf	0.02726352
77	0x3cf06e61	0.029349508
78	0x3baf4770	0.005349092
79	0x3d63309e	0.055466287
80	0xbc03469b	-0.008012439
81	0xbc2962e4	-0.010338519
82	0xbd464409	-0.048404727
83	0xbb336462	-0.0027373065
84	0x3ca0cb4d	0.019628191
85	0xbd8e8a48	-0.06959969
86	0xbd45941e	-0.04823696
87	0x3dd91c32	0.10601081
88	0x3ce179ea	0.027523953
89	0xbd03103a	-0.031997897
90	0xbd178b37	-0.036998
91	0x3d60115e	0.054704063
92	0xbc82c637	-0.015963657
93	0x3cf0deae	0.029403057
94	0x3e08ecf4	0.1337164
95	0xbd165988	-0.036706477
96	0x3bc8e12d	0.0061303587
97	0x3d2325a1	0.039830808
98	0xbda7fd46	-0.08202605
99	0x3c2ada01	0.010427953
100	0x3d07d6d5	0.033163864
101	0xbcf599ec	-0.029980622
102	0x3d63fd4e	0.055661492
103	0x3d641f72	0.05569405
104	0xbc97b37c	-0.018518202
105	0x3d3bd321	0.045855645
106	0xbe05bf04	-0.13061148
107	0x3d245cab	0.040127438
108	0xbd1fbc96	-0.03899821
109	0x3dd3e8d1	0.103471406
110	0xbd00d2ea	-0.031451143
111	0xbd28c9cf	-0.041208085
112	0x3cdc984b	0.026928088
113	0x3db6a7f8	0.08918756
114	0x3ce62035	0.02809153
115	0x3ce8cf64	0.028419204
116	0x3d0be8cf	0.03415757
117	0xbd0e349e	-0.03471815
118	0x3ca886a0	0.020572007
119	0xbd14ebcc	-0.036357686
120	0x3db83cfd	0.089960076
121	0xbd713b2d	-0.058894325
122	0xbce89193	-0.028389728
123	0xbcb3ac1e	-0.021932658
124	0xbd51c814	-0.0512162
125	0x3ad905b9	0.0016557492
126	0xbd9a81a0	-0.07544255
127	0xbcf09e68	-0.029372409
128	0x3d32f617	0.04369172
129	0xbc952a8c	-0.018208764
130	0x3da1bd9e	0.07897495
131	0xbc87afac	-0.016563259
132	0x3d91e841	0.07124377
133	0x3d863c03	0.06554415
134	0x3d9ff421	0.07810236
135	0xbd9865a7	-0.07441264
136	0x3cadb734	0.021205522
137	0xbccc7876	-0.024959784
138	0xbb0ec6ce	-0.0021785977
139	0x3cf234a4	0.029566117
140	0xbbdabddb	-0.0066754646
141	0xbd977014	-0.07394424
142	0xbc07bf3f	-0.008285343
143	0x3da35a4d	0.07976208
144	0x3df87950	0.121325135
145	0xbcf51b49	-0.029920237
146	0xbb30345a	-0.0026886673
147	0x3de0aaa3	0.10970046
148	0x3caf6cef	0.021414248
149	0x3d4aa366	0.049472235
150	0x3d6f6dd3	0.058454346
151	0x3daf050a	0.08545883
152	0x3d29bfa4	0.04144253
153	0xbc1ce3fe	-0.009575842
154	0x3db41a7b	0.08794113
155	0xbd5681a9	-0.052369747
156	0x390f9709	0.00013693808
157	0xbba7987e	-0.005114614
158	0xbe08a384	-0.13343626
159	0xbcf72bc4	-0.030172236
160	0x3da750f8	0.081697404
161	0xbd971fbd	-0.073791005
162	0xbd9d6d13	-0.0768682
163	0xbdcb8a4c	-0.099384874
164	0xbd1ccbf2	-0.038280435
165	0x3dda0b42	0.106466785
166	0xbd8de12c	-0.06927714
167	0xbdc1fdd4	-0.09472242
168	0x3dee33ff	0.11631011
169	0x3c2ad801	0.010427476
170	0x3d211317	0.039324846
171	0x3c9d0e4b	0.019171854
172	0x3bc90186	0.006134215
173	0x3d17eff8	0.037094086
174	0x3c8a0dcc	0.016852282
175	0x3d877a0f	0.06615078
176	0x3cd63c2c	0.026151739
177	0x3d854f20	0.065092325
178	0xbcda1585	-0.02662159
179	0xbcf74f7f	-0.030189274
180	0x3d610250	0.054933846
181	0x3d0dc511	0.034611765
182	0x3db6d340	0.089270115
183	0xbd4e3cf9	-0.050351117
184	0xbca5d2a1	-0.020242037
185	0xbd82856d	-0.06373105
186	0xbcc138e1	-0.023586692
187	0xbd65e477	-0.056126084
188	0xbbb6d16a	-0.0055791633
189	0xbdc6408d	-0.09680281
190	0xbe0b9a32	-0.1363304
191	0x3cf43296	0.029809278
192	0xbc6841fa	-0.014175886
193	0x3bda74a7	0.006666738
194	0xbc8018f3	-0.015636897
195	0x3d883ff4	0.06652823
196	0x3dada2fb	0.08478352
197	0x3cbe7f6e	0.023254123
198	0xbc979831	-0.018505188
199	0x3d63fa4d	0.055658627
200	0x3b94b98d	0.004538721
201	0x3cf2ae8b	0.029624244
202	0x3d9a8e42	0.07546665
203	0x3d33e62d	0.043920685
204	0xb99ca4a0	-0.00029877294
205	0x3da23623	0.07920482
206	0xbb2a0000	-0.0025939941
207	0x3dd0af89	0.10189731
208	0x3d4f7500	0.05064869
209	0xbc0df1fa	-0.008663649
210	0x3d1611c9	0.036638055
211	0x3d14e0ba	0.03634713
212	0x3af9907f	0.0019040256
213	0xbd8bf27e	-0.06833361
214	0xbd4c146d	-0.049824167
215	0xbd8450a3	-0.06460693
216	0xbd7b247c	-0.06131409
217	0xbcf8a125	-0.030350277
218	0x3c924dd9	0.017859386
219	0xbbb58121	-0.005539075
220	0x3d9c8837	0.076431684
221	0x3c62fe88	0.01385463
222	0x3c7ddb5c	0.015494194
223	0x3d7c7ea9	0.06164423
224	0x3d822168	0.06354028
225	0xbd67bfde	-0.056579463
226	0x3d89e978	0.06733984
227	0xbdab7258	-0.08371419
228	0x3d667368	0.056262404
229	0x3d90cafb	0.070699655
230	0xbdd85997	-0.10563963
231	0x3dab6f71	0.08370865
232	0x3c8665e7	0.016406013
233	0x3c43bc82	0.011946799
234	0xbd4a34fd	-0.04936694
235	0x3c20d891	0.009817258
236	0x3ce5e95d	0.028065378
237	0x3d88d623	0.06681468
238	0x3d810159	0.06299085
239	0x3c264130	0.010147378
240	0xbc00d3f5	-0.0078630345
241	0x3de0c89b	0.109757625
242	0xbcc584e0	-0.024111211
243	0x3d3a0cdd	0.045422424
244	0xbc613c06	-0.013747221
245	0xbd25c20f	-0.04046827
246	0x3bcb8012	0.0062103355
247	0xbc36a3fc	-0.011147495
248	0xbc8af0a3	-0.016960448
249	0xbd8d3553	-0.068949364
250	0x3d854e7b	0.065091096
251	0xbcdfdae1	-0.02732605
252	0xbda23c04	-0.07921603
253	0x3abbd0cb	0.0014329193
254	0xbc15f2e9	-0.009152153
255	0x3d0fd04d	0.03511076

unet_model.dec.0.main.bias f4 [32]
0	0xbdbb1102	-0.09134103
1	0xbd7b4396	-0.06134375
2	0xbd4d10d3	-0.050064873
3	0xbd349057	-0.044082966
4	0x3d1dc2c7	0.038515832
5	0x3ca9ea73	0.020741677
6	0x3d26eb03	0.04075147
7	0xbd4e7f15	-0.050414164
8	0xbbf85b65	-0.0075792545
9	0x3c7768c6	0.0151006635
10	0xbc374223	-0.011185202
11	0x3c8f1147	0.017464293
12	0x3c6b110d	0.014347327
13	0x3cc583ea	0.024110753
14	0xbd4d414f	-0.05011111
15	0xbcc3f2ef	-0.02391955
16	0xbd4d344f	-0.050098713
17	0x3c917001	0.017753603
18	0xbbf6aad3	-0.007527688
19	0xbd3d825e	-0.046266906
20	0x3d3a7c21	0.045528535
21	0xb8e75875	-0.00011031415
22	0xbdc1075c	-0.09425232
23	0x3d4ede90	0.05050522
24	0x3cfe444a	0.031038422
25	0x3ca9929e	0.020699795
26	0x3cb2afb1	0.021812292
27	0xbc8fed58	-0.017569229
28	0x3cdfe4a5	0.027330706
29	0xbc7f2a5d	-0.015574065
30	0xbc9d56b6	-0.019206386
31	0xbd113a4d	-0.03545599

unet_model.dec.1.main.weight f4 [32, 64, 3, 3]
0	0xbcd333fd	-0.025781626
1	0x387d2b51	6.0360242e-05
2	0xbd27832e	-0.040896587
3	0x3b491262	0.0030681123
4	0x3c4f0c15	0.012637158
5	0xbd03577a	-0.032065846
6	0x3c2e68c9	0.0106451
7	0xbc77c83c	-0.015123423
8	0x3ccbd206	0.02488042
9	0x3d64a9f9	0.05582616
10	0xbd717bea	-0.058956064
11	0xbb0eccd6	-0.0021789572
12	0xbd59fd0e	-0.053219847
13	0xbd1768f8	-0.03696534
14	0xbcc7f994	-0.024411
15	0xbd76bccc	-0.060238644
16	0xbd8049b4	-0.06264058
17	0xbc3e0de7	-0.011599994
18	0xbcbd33e6	-0.023096036
19	0x3c95ef7a	0.018302668
20	0x3d1e3867	0.03862801
21	0xbc52c62f	-0.012864633
22	0x3d1c3a43	0.0381415
23	0x3c9cd3d0	0.019143969
24	0xbc009506	-0.00784803
25	0x3da84f53	0.08218255
26	0x3cb3e644	0.021960385
27	0x3d097e4e	0.03356772
28	0xbc4aa37e	-0.012368081
29	0xbcc269f2	-0.02373216
30	0xbd837ef4	-0.06420699
31	0xbd8672b0	-0.06564844
32	0xbd2fdce6	-0.042935275
33	0xbd1ea694	-0.03873308
34	0xbc9a5d55	-0.018843332
35	0x3b9d0d87	0.0047928724
36	0x3bfffc31	0.007812046
37	0x3cf36bbf	0.029714463
38	0x3c6befd8	0.014400445
39	0x3c93a08a	0.018020887
40	0x3d1c73fe	0.038196556
41	0x3d6256cb	0.055258553
42	0x3dc58940	0.09645319
43	0x3d90236f	0.070380084
44	0x3d4afe0a	0.049558677
45	0x3da4bd99	0.080439754
46	0xbc58a93f	-0.013223945
47	0xbca7c6cb	-0.020480534
48	0x3db0a5a0	0.086253405
49	0x3c99d59f	0.01877862
50	0x3c8923b1	0.016740652
51	0x3c8834d4	0.016626753
52	0xbc9557d9	-0.018230366
53	0xbcea5cca	-0.028608698
54	0xbd26cde9	-0.040723715
55	0xbcef4770	-0.029208869
56	0xbd7d6cd4	-0.061871365
57	0xbc36823c	-0.011139449
58	0x3b91a6e1	0.0044449423
59	0x3d2d99fb	0.042383175
60	0xbdb55cef	-0.08855616
61	0xbce35e9b	-0.027755072
62	0x3cb3a603	0.021929746
63	0xbd897c86	-0.06713204
64	0x3c83c30b	0.016084215
65	0x3c137e9c	0.009002354
66	0xbdc55770	-0.09635818
67	0x3c92a79b	0.017902186
68	0x3a7391e2	0.00092914526
69	0xbd0aa9ef	-0.033853468
70	0xbd24997f	-0.040185448
71	0xbc1c96b6	-0.009557417
72	0xbd8f85e4	-0.070079595
73	0xbd4511fe	-0.04811286
74	0xbc1622a7	-0.009163535
75	0xbdc56cd6	-0.096398994
76	0xbcb82594	-0.022478856
77	0x3c61b30d	0.013775599
78	0xbdec8d30	-0.11550367
79	0xbd2ad370	-0.04170555
80	0xbc6b2535	-0.014352133
81	0xbb39f131	-0.002837252
82	0xbd083a84	-0.03325893
83	0xbc9000b8	-0.017578468
84	0xbd12ef8c	-0.03587298
85	0xbc9e0c00	-0.019292831
86	0x3c0d564e	0.008626534
87	0xbe0595de	-0.13045451
88	0xbd1cd331	-0.038287345
89	0xbcea5ba9	-0.02860816
90	0x3d800396	0.06250684
91	0xbd9b9970	-0.07597625
92	0xbd9f4550	-0.07776892
93	0x3b60a50f	0.003427807
94	0xbd374c04	-0.04475023
95	0xbd55d81d	-0.052208055
96	0x3b8ed1a7	0.0043584886
97	0xbdc5b9da	-0.09654589
98	0xbd8fe75b	-0.070265494
99	0xbd8640ce	-0.06555329
100	0x3a56a15c	0.00081874966
101	0xbda0fade	-0.07860349
102	0xbd068cfb	-0.032849293
103	0xbd437dce	-0.0477274
104	0xbd0458e7	-0.032311346
105	0xbd17b5f6	-0.037038766
106	0xbcf8d768	-0.030376151
107	0x3c3018f5	0.010748138
108	0x3d6e446d	0.058170725
109	0x3cc468b5	0.02397571
110	0x3da44ed7	0.0802285
111	0x3d338076	0.04382368
112	0x3d1744ac	0.036930725
113	0x3d10fe90	0.03539902
114	0x3d9289da	0.07155199
115	0x3d1e357d	0.03862523
116	0x3d4833b0	0.048877418
117	0x3cdce799	0.026965903
118	0x3d124c90	0.035717547
119	0xbd866eef	-0.06564128
120	0x3c2ae553	0.010430652
121	0xbd5bf6dc	-0.05370222
122	0xbda7e2f6	-0.08197586
123	0x3b5012a8	0.0031749401
124	0xbcc8397e	-0.024441477
125	0x3c404437	0.011735014
126	0xbc9ce027	-0.019149853
127	0xbcc4cc0f	-0.024023084
128	0xbd1ca4f6	-0.038243257
129	0xbc71faa1	-0.014769227
130	0xbd447e64	-0.047972098
131	0xbbd71bde	-0.0065646013
132	0xbd179f27	-0.037017014
133	0x3c9c92a0	0.019112885
134	0xbcbd9604	-0.023142822
135	0x3d523a0d	0.051324893
136	0x3cb058e8	0.021526769
137	0xbbbe06f5	-0.005799169
138	0x3dd513f6	0.10404198
139	0xbcb8e630	-0.0225707
140	0xbbc03f69	-0.005866934
141	0xbca58dbd	-0.020209188
142	0xbb6d4280	-0.0036202967
143	0xbb0f6491	-0.002188001
144	0xbd6ecb5f	-0.05829942
145	0xbd852f1d	-0.06503127
146	0xbd0e0a9a	-0.03467808
147	0xbd506531	-0.050877754
148	0xbd6ac16f	-0.05731338
149	0xba567596	-0.0008180974
150	0xbcd43ea4	-0.025908776
151	0xbc71e96f	-0.014765128
152	0x3ca6353a	0.020289052
153	0xbc1977b7	-0.009366921
154	0x3b76ad19	0.0037639795
155	0xbc619361	-0.013768048
156	0xbdb1b14e	-0.08676396
157	0xbd2392ed	-0.03993504
158	0xbafeb229	-0.0019431758
159	0xbd2164aa	-0.03940264
160	0xbc70f25f	-0.014706223
161	0xbc1e5046	-0.009662693
162	0xbba0f736	-0.0049122823
163	0x3cf5c35f	0.030000387
164	0x3d84f616	0.0649225
165	0xbd2342bb	-0.03985856
166	0x3d6a0f9c	0.057143793
167	0x3ccbcce6	0.024877977
168	0xbd51f054	-0.051254585
169	0x3cd9c1c7	0.026581658
170	0x3d82611d	0.06366179
171	0xbd2c860f	-0.042120036
172	0xbc8f2723	-0.017474717
173	0x3c864f99	0.016395377
174	0xbd3fad52	-0.04679615
175	0xbd39350e	-0.045216613
176	0xbd49dcc2	-0.049282797
177	0xbdbe5a9e	-0.092946276
178	0xbdb24771	-0.087050326
179	0xbc93bf04	-0.01803542
180	0xbc1c42c8	-0.009537406
181	0xbce451de	-0.027871069
182	0x3b6eeb75	0.0036456261
183	0xbd5f6e97	-0.054548826
184	0xbc3a523b	-0.011372144
185	0x3c07519e	0.008259205
186	0xbcf7cb8f	-0.030248431
187	0xbd12758c	-0.035756633
188	0x3b9fe9ac	0.004880151
189	0xbcacf9a7	-0.021115137
190	0xba6ae50d	-0.0008960523
191	0x3d28405e	0.04107701
192	0x3b5091fa	0.003182529
193	0xbc0c513a	-0.008564288
194	0xbc8211ee	-0.01587769
195	0x3d4295ff	0.04750633
196	0x3c50933a	0.012730414
197	0x3d0c13e5	0.03419866
198	0xbcb2c9e1	-0.021824779
199	0xbd909815	-0.07060257
200	0xbcba0032	-0.022705171
201	0xbd5ecaa9	-0.05439249
202	0xba59f472	-0.0008314318
203	0x3b944b8d	0.004525608
204	0xbcc126ff	-0.023578165
205	0xbca46a70	-0.020070285
206	0x3cc72346	0.024308812
207	0xbc2b58d5	-0.010458191
208	0xbd0ccf37	-0.034377303
209	0xbc8335ba	-0.01601683
210	0x3d58b34b	0.052905362
211	0x3bcc22fa	0.0062297555
212	0xbd5b4677	-0.053533997
213	0x3d73a652	0.059484787
214	0x3c580576	0.013184896
215	0xbc8cf0ff	-0.01720476
216	0xbdb855b8	-0.090007246
217	0xbce81658	-0.028330967
218	0x3c98c4e4	0.018648572
219	0xbd980c78	-0.07424253
220	0xbd0b51a0	-0.03401339
221	0x3d48fd26	0.049069546
222	0xbcedbfa4	-0.029022045
223	0x3b807421	0.0039200936
224	0xbcd313ac	-0.025766216
225	0x3da325e0	0.079662085
226	0x3d5b1e27	0.053495552
227	0x3c5dedba	0.013545448
228	0x3d478e64	0.04871978
229	0x3bdb6c4e	0.0066962605
230	0x3d1d4850	0.03839904
231	0x3d40f109	0.04710487
232	0x3c85f699	0.016352938
233	0x3ccd4ca0	0.025060952
234	0x3c72d666	0.014821624
235	0xbbe91f73	-0.0071143447
236	0xbd1a4d27	-0.037671234
237	0xbcbaa104	-0.022781856
238	0x3c6e0277	0.014526955
239	0x3ab308e6	0.0013659268
240	0x3d8557e7	0.06510907
241	0x3d4a922e	0.049455814
242	0xbce83e39	-0.028349983
243	0x3d8dbbdf	0.06920599
244	0xbcc8616e	-0.02446052
245	0x3d3b562f	0.045736488
246	0x3c98d460	0.018655956
247	0xb901dbdd	-0.00012384304
248	0x3b4abdfa	0.0030935989
249	0xbb1236c1	-0.0022310468
250	0xbcb24f80	-0.021766424
251	0xbcf53954	-0.029934563
252	0x3dac5ae8	0.084157765
253	0x3beb0d8d	0.0071732462
254	0x3d2e7eb4	0.042601302
255	0x3be47e11	0.006973036

unet_model.dec.1.main.bias f4 [32]
0	0x3c44998d	0.0119995
1	0x3cdbb9c0	0.026821971
2	0xbd34734b	-0.044055264
3	0xbc60a4c6	-0.01371116
4	0xbce5734e	-0.028009083
5	0x3d2ede60	0.042692542
6	0x3d23022c	0.039796993
7	0xbc98c844	-0.018650182
8	0xbc76ddb1	-0.015067504
9	0xbd198eda	-0.03748975
10	0xbd984de7	-0.07436734
11	0xbbac6d8c	-0.0052620824
12	0xbde48877	-0.11158841
13	0x3c3b8a33	0.0114465235
14	0x3b7b5219	0.0038348495
15	0xbbfdf3e6	-0.007750022
16	0x3c9e1efe	0.019301888
17	0xbd2936af	-0.041311916
18	0x3cb06d50	0.0215365
19	0xbd352ae5	-0.04423036
20	0xbcc5b947	-0.024136199
21	0x3b7dbee7	0.0038718523
22	0x3cac76a2	0.021052662
23	0xbbe4a90d	-0.0069781602
24	0xbce64cee	-0.028112855
25	0x3bcf55c7	0.006327364
26	0xbdd86415	-0.10565964
27	0xbcec3321	-0.028832974
28	0x3d78c7f1	0.060737554
29	0x3d11db7f	0.03560972
30	0xbd207c8c	-0.039181277
31	0x3d067165	0.032822985
