experimental_results/08250716_decolearn_is_optimize_regis=[true]/regis_model/epoch040.pt (torch, 975031 bytes, 25 tensors)

unet_model.enc.0.main.weight f4 [16, 2, 4, 4]
00000000: b7d7 233c 8526 4c3d 1433 c73d 3e72 babd
00000010: dfb5 58be faae ac3d 0e77 adbd 19a0 0f3e
00000020: f6bf 0abe 0ed8 42be 7642 2b3e e54c 183e
00000030: e530 c0bd 99e1 4fbe 4ae4 05be f923 d23b
00000040: d2c3 bbbb abbc 74bd 40cb 633e 611b b6bd
00000050: cb8e d9bd be82 02be 1f07 7a3d ae1b 543e
00000060: 2776 ad3d 1617 1d3e 37c4 a8bb a3ff 713e
00000070: 487c e8bd 6e70 43be f0ab 85bc 7864 283e
00000080: e31f 3fbe b0bb 8cbd 3bdd e1bd b069 863d
00000090: 9172 883c 02f2 f4bd c09f 72bc c4cd e43a
000000a0: 8c5d d93c 5a3c 56be 0162 adbc f9b6 cdbc
000000b0: 653c 90bc f56b 723d fc79 84bd 338e 3d3e
000000c0: 902d dc3d 987e 623d 947a e53d 1831 fdbc
000000d0: 666f b53d 38dc 633d f0ec 51be a0f1 07bd
000000e0: 8f5a 4e3d 5f5b d0bd 5eb2 43be 2fce d93d
000000f0: 6180 c7bd d0ed debb 7e14 db3d fdf8 30be
00000100: 2767 3abc 2237 583e 38bc 3c3e 6c29 9fbd
00000110: 7f3f 913d ecc1 383e 32fa 093e 0867 383e
00000120: 0c21 293d eff1 f93d bed0 173e b1e9 a4bd
00000130: 3548 883c 1239 483e 486b d53d 012b 49be
00000140: a980 f7bd cf44 1f3e 99b2 dd3d 4798 15be
00000150: db06 dcbd ad67 21bd 556f 9dbc a3a5 0bbe
00000160: 6904 aabd 125b 433c 618b 2bbe b836 73be
00000170: d761 4dbd 4e23 583c 543b 6cbe f09f cfbd
00000180: 9ccb 8dbd 5c1c d7bb 9e84 02bb 38ae 64be
00000190: 160a 11bd 5b49 583d 23c6 67be 7499 e4bd
000001a0: c929 7c3d 46dd 853d aa95 7fbe cfb3 d5bd
000001b0: ec55 eb3c 5ce6 27be c1e3 12bd 67f1 5abe
000001c0: 9de7 b63d 232a 1a3e b2e1 2c3e ec90 803d
000001d0: 2b8c 4c3e 9322 a0bd 59ef 92bd 168f a5bd
000001e0: b55a 273e bc84 223e e612 3b3e 1811 36be
000001f0: a9de 193e 3805 b13d ab8f 183e c95e 8dbc
00000200: 071c eebd 711e f6bd 8734 343d c86b 3e3c
00000210: 1c28 5bbe e754 30bd 2917 e0bd e3b3 e93d
00000220: 72d2 b33b 7b00 34be 13d6 173e 3147 783d
00000230: 0594 66be 93cf fd3d 328a f53d 8c3c 623e
00000240: 42f1 fcbb e538 1fbd 114a c03d ae48 28be
00000250: 1c69 e6bd 6873 00be 8705 9ebd 438a 403e
00000260: 1597 823d 0a8a 87bd 7f6b 0b3e 5b99 ca3c
00000270: 65a7 8e3d 297c 353e f4d9 423d 7bca ae3d
00000280: 9a91 9b3d 2002 563d 8c5d b9bd a659 53be
00000290: 1178 b2bd 72e8 dbbd c991 1f3e 95ea dfbb
000002a0: 2b35 663e f513 2b3e 4731 2d3d 0643 7abd
000002b0: 9ba0 04bd b381 4c3c 832c 913d 094f b2bd
000002c0: 81ce 343e 8a18 283e baad 41bd 74d7 01be
000002d0: 1b15 093e cc74 343e e132 26be 773e 81be
000002e0: c5a3 083e aa8b c33d 8eb4 b9bd f872 51bd
000002f0: 6bf4 123e b2a5 b6ba 6eda 983d 9c99 bdbc
00000300: 754a 103e 8692 463d c7c6 03bc e88c 8bbd
00000310: d108 ddbd 3479 cd3c 6466 d03d bc41 e0bd
00000320: e67c c1bc 1db6 90bd 5940 d5bd ec63 12be
00000330: 8560 0ebe 4c95 0bbe b984 9ebd e6a1 93bb
00000340: 36da b23d d873 7a3e befd 903d 6ef6 e23d
00000350: 877e c13d 546f 4b3e cdd3 af3d cd32 2f3e
00000360: 6f66 ac3d 6319 43bd 6160 383e d476 543c
00000370: d067 5fbd ca4f aa3d 8107 2ebe 032b 193d
00000380: b4d7 0fbe 5a1d 5bbe b1f2 cfbd 97d8 e1bd
00000390: 5ea0 14be 0dc1 16be 53a8 073e 7c0c 843d
000003a0: 275e 97bd aac4 7abd 59b6 ccbd fdc7 a6bc
000003b0: 0caf 44bd 3208 0dbd 40d7 363d 1910 65bd
000003c0: e449 f2bd 7094 f83c f5e5 533d 3768 32bd
000003d0: b279 493d 1b4a c6bd 9262 173e 3eaf 563d
000003e0: 5439 903d 3b9a cd3d d128 323e 2b6d cf3d
000003f0: 3a9d b53d 2bd2 f33d 9c3b 4d3e 34c5 8c3d
0.010000161 0.049841423 0.09726539 -0.09103821 -0.21163128 0.08431812 -0.084699735 0.14025916
-0.1354979 -0.19027731 0.16724572 0.14873083 -0.09384326 -0.20300902 -0.13075367 0.0064129797
-0.0057301307 -0.05975024 0.22245502 -0.08891941 -0.10622939 -0.12745187 0.061041947 0.20713684
0.084698014 0.15340838 -0.0051503438 0.23632674 -0.1135183 -0.19085857 -0.016317338 0.16444576
-0.18664508 -0.06871736 -0.110285245 0.06563127 0.016656192 -0.11960222 -0.014808595 0.0017456342
0.026533864 -0.2092146 -0.021164896 -0.025111662 -0.017606923 0.059184987 -0.06468579 0.18511276
0.10750878 0.05529651 0.112050205 -0.030907199 0.08859138 0.05562994 -0.2050054 -0.033189416
0.050379332 -0.10173678 -0.1911101 0.106350295 -0.09741283 -0.006803252 0.10697268 -0.17282481
-0.0113771325 0.21114781 0.18431175 -0.077715725 0.07092189 0.18042725 0.13474348 0.18008053
0.04129128 0.12204348 0.14825723 -0.080523856 0.016635993 0.1955302 0.10420853 -0.19645311
-0.12085087 0.15553592 0.108250804 -0.1460887 -0.10743495 -0.039405514 -0.019218126 -0.13637404
-0.083016224 0.011923568 -0.16752388 -0.23751342 -0.050142135 0.013192011 -0.23069507 -0.101379275
-0.06923601 -0.00656466 -0.0019915472 -0.22332084 -0.03541001 0.052804332 -0.22634177 -0.11162081
0.061563287 0.06536345 -0.24959436 -0.104346864 0.028727494 -0.16396469 -0.035861734 -0.2138115
0.089308955 0.15055136 0.16882971 0.06277642 0.19975345 -0.078190945 -0.07174558 -0.08083932
0.16343196 0.15870947 0.18268928 -0.17779958 0.15026344 0.086435735 0.14898555 -0.017257111
-0.116264395 -0.12017525 0.043995406 0.011622377 -0.2140202 -0.04304972 -0.109419174 0.11411264
0.0054877335 -0.17578308 0.14827757 0.06061477 -0.22517402 0.12393107 0.11989249 0.2209341
-0.00771919 -0.03887262 0.09389127 -0.16433975 -0.11250517 -0.12544024 -0.07715898 0.18802743
0.06376473 -0.06618126 0.13615225 0.024731329 0.06965522 0.17723145 0.047571138 0.08534714
0.07596131 0.05224812 -0.09051046 -0.20639667 -0.08714307 -0.10737695 0.15582956 -0.0068333843
0.2248122 0.16706832 0.042283323 -0.061099075 -0.032379728 0.012482095 0.07088568 -0.08706481
0.176569 0.16415611 -0.04728482 -0.12679845 0.13386957 0.1762268 -0.16230346 -0.2524297
0.13343723 0.09548123 -0.09067641 -0.051135033 0.1435105 -0.0013934879 0.07463537 -0.023144536
0.14090903 0.04847958 -0.008042998 -0.06813985 -0.10792697 0.025082208 0.101757795 -0.10950038
-0.023619127 -0.07065985 -0.10412664 -0.1429593 -0.13904007 -0.13631171 -0.077401586 -0.004505384
0.08733027 0.24458253 0.070796475 0.11082159 0.09447961 0.19866687 0.0858532 0.17109223
0.08417975 -0.047631633 0.18005516 0.012967784 -0.054542363 0.08316 -0.1699505 0.037394535
-0.14047128 -0.21397915 -0.101537116 -0.11027639 -0.145143 -0.1472208 0.13247804 0.06447694
-0.07391005 -0.06122271 -0.099957176 -0.020359034 -0.0480185 -0.034431644 0.044638872 -0.055923555
-0.118305 0.030344218 0.051732976 -0.04355642 0.049188323 -0.09682103 0.14783695 0.052413218
0.070421845 0.10039183 0.17398383 0.10128244 0.08867879 0.11905321 0.2004227 0.06873551

unet_model.enc.0.main.bias f4 [16]
00000000: b8ce 5f3c 142f 553d 1a63 45bb cc26 8e3c
00000010: 6ab8 093b 8c9c 9abd 3d47 53bd 8b0a cf3b
00000020: 2dca ca3c c53a 44bd 3908 09bd ad12 a73d
00000030: 823c 773d e90c b9bd 7cb4 dcba 32c0 cc3d
0.013660125 0.05204685 -0.0030118884 0.017352484 0.002101446 -0.0754939 -0.05158161 0.0063183955
0.024754608 -0.04790761 -0.033455107 0.08157859 0.06036044 -0.090356655 -0.0016838457 0.09997596

unet_model.enc.1.main.weight f4 [32, 16, 4, 4]
00000000: e9eb 033d 7119 263d 82e0 0e3c be98 8a3c
00000010: a69a ac3c c394 233d b937 093d 2716 b23d
00000020: c08a c6bc 25fd 71bd 8aab 2a3d b0ab b83d
00000030: 8440 3cbb a118 3dbd afe6 c8ba de6e fb3d
00000040: c2a4 c93d 2479 02bc e01a b83b 350b 8ebb
00000050: 804c 893d 0d15 e33d 190d a33c 0ea0 b03c
00000060: f1bb 4a3d a41b 033d 22cb d33d deb4 503d
00000070: 8963 233d bd25 c9bb 358c 873d d304 533d
00000080: 7cb6 933b d6cc dbbd ab05 70bd 2379 e03c
00000090: bf39 2fbd ddda 7bbc fdad 16bd 1ccc 29bd
000000a0: cef5 c53c 9768 1fbb 0904 523d 048e f53c
000000b0: 699a c7ba ec29 9c3d cff2 9fba b1f7 0abd
000000c0: a361 153d ba97 4b3d 541d 2f3d 2f16 c2bd
000000d0: 29b1 593d 5b8f d23d c538 29bd a98d 0abe
000000e0: 8f50 b93d bad5 063e cd65 a63d 60f6 dabd
000000f0: b6a7 003e f4ee 153e d2a5 b23d 9811 003d
00000100: 5d4b 84bd 2845 d4bc 9808 953d 5d63 533d
00000110: ba8b d7bc 78a0 c5bc 0ed6 413d f86e 99bd
00000120: 7130 9fbd 8f99 82bd bd29 25bd 5cf9 aebd
00000130: ebbe cebc 51bd e0bd 2f02 8dbd e7ad 313b
00000140: 10b2 6ebc 6dc8 773d 81f9 9ebc c62a 36bd
00000150: 9c74 36bd aff5 71bc 0bf5 e13d 248c 803c
00000160: 0165 02bd 6a44 cf3d b97b 853d de4d b6bc
00000170: bd76 473d f17e 3f3d cc3e a03d 1c3e 3b3a
00000180: fd3d 7abd 9c58 10bd c43b 573d 9ef8 a4bc
00000190: 8153 133d c899 893d f074 1e3c 65a6 14bd
000001a0: f43f 00bd 0545 663d a0b4 2ebd 1ef0 2c3d
000001b0: eba2 30bc 169e 1fbd aaf0 1fbd 4ce7 ad3d
000001c0: b8e2 f53d cc12 573d d09e 8d3d 1117 f7bd
000001d0: c27b 06bc f3e7 d9bc 4f56 d1bd 05ff 34be
000001e0: a34e 01bd 96e8 c1bd 4ebb a9bd 0cda d5bd
000001f0: d444 4ebd e706 c7bc dc73 a0bd 9912 d1bb
00000200: 6fef a33d ef8e 283d cc44 a4bc c044 55bb
00000210: 2f09 873d 10ad d53d 8d29 193d 24ae b5bd
00000220: 673e 813c b352 b4bc 23a7 00bd 6f5f 02bd
00000230: 6629 893c ce80 143d be75 973d f5d0 103e
00000240: efe2 79bd fe7e 853d 5ec6 4d3d ad09 3e3d
00000250: 1343 753c 81dd c03d 4a09 9b3c 8ba1 cbbc
00000260: 4508 bb3c 3742 cc3c 31d2 46bd 9738 f93c
00000270: 3382 9b3c bd1d 053d 4adf e83d dd35 d73d
00000280: ca9d 943c 2ee8 fe3b 3da5 c33c 65b2 8d3d
00000290: 55ec db3d db50 ffbc 58c9 eabc 63d5 c13d
000002a0: e627 683d d4c1 7b3c 85ff 553d 6ab0 0f3c
000002b0: e9e8 bb3d 41bf 993d dcbe c3bb 63b2 2e3d
000002c0: cd79 1e3d f60e 9c3c 7b60 033d 126d 13bc
000002d0: f62a d03c 5d71 48bc c763 34bd d7f4 193d
000002e0: 6621 503d 5334 3e3d b266 3e3c e326 acbc
000002f0: 4205 073c 3274 ff3c 8162 10bd 13e7 c9bd
00000300: 0118 27bb 2fd1 6a3d ecae f5bc 6501 fdbb
00000310: 963b a03d e780 c83d 869f a73d 320d 853d
00000320: 8abe cb3d 326f df3d 14ee c13d 6534 693d
00000330: 4fa7 f4bb 5565 3e3c 43aa a9bc 1a2a 66bc
00000340: 53a7 373c 9646 17bc a39b 803d 2b36 bd3c
00000350: d5b9 263d 3896 8f3d 49ae b73c 82f3 033d
00000360: a12a 8f3b 8744 503d e9ea 91bd 479b 263a
00000370: f139 f13b 989b a3bc 8be0 c6bc 6d4a 833c
00000380: dacf ccbd 9170 45bd 32b1 a8bd d0b6 103d
00000390: 36f0 0e3b 0e95 4bbd 29c2 963c 89ac 01b9
000003a0: d2d5 9e3d 5519 4a3c 404f 9d3d eaa0 68bb
000003b0: ad5e be3c 858b 643d 7ca3 4a3c afa1 f3bc
000003c0: 2386 dd3d 786a e2ba d35a 93bc 4f06 ae3b
000003d0: 5ac0 6b3d 291f 91bc f9cf 7a3c eb68 5fbc
000003e0: 2e65 4d3d c8d3 973d 2512 fa3d 69ad 81bc
000003f0: a1bd 9abc 1653 babc 53d5 8f3c b1b5 ab3c
0.032207403 0.040551607 0.008720519 0.016918536 0.021069836 0.039936792 0.033500407 0.086956315
-0.024236083 -0.059079308 0.0416675 0.09017122 -0.0028724978 -0.046166066 -0.0015327538 0.122770056
0.09845878 -0.0079634525 0.005618438 -0.004334832 0.06704044 0.110879995 0.019903706 0.021560695
0.04949564 0.032008782 0.10341479 0.05095374 0.039889846 -0.006138532 0.06618539 0.051518273
0.004507838 -0.10732429 -0.058599155 0.027401512 -0.04277968 -0.015372005 -0.036787022 -0.04145442
0.02416506 -0.0024323815 0.05127338 0.029974945 -0.0015228513 0.076251835 -0.00122031 -0.033927623
0.036470067 0.049705245 0.04275258 -0.094768874 0.05314747 0.10281249 -0.041313905 -0.13530602
0.090485685 0.13167468 0.08124886 -0.106915236 0.12563977 0.14641935 0.08723034 0.03126678
-0.06459687 -0.025911883 0.0727703 0.051608432 -0.026311744 -0.024124369 0.04732328 -0.07491869
-0.07772911 -0.06376945 -0.040323008 -0.08543655 -0.025237521 -0.10973609 -0.06885182 0.002711171
-0.014568821 0.060493875 -0.019406082 -0.044474386 -0.0445448 -0.014768048 0.11033066 0.015691824
-0.031834606 0.10120471 0.06517739 -0.022253927 0.048697222 0.04675192 0.078244776 0.0007142739
-0.061094273 -0.035240754 0.05254723 -0.020138081 0.035968307 0.067187846 0.009671435 -0.0362915
-0.03131099 0.056218166 -0.042652726 0.04222118 -0.01078103 -0.038969122 -0.039047875 0.08491382
0.12006134 0.05250816 0.06915057 -0.120649464 -0.008208217 -0.02659986 -0.1022154 -0.17675407
-0.031569134 -0.0946819 -0.08287679 -0.1044198 -0.05035861 -0.024295283 -0.078345984 -0.006380391
0.08004653 0.041151937 -0.020052336 -0.00325422 0.065935485 0.104334 0.03739314 -0.08871105
0.015776826 -0.02201209 -0.031409394 -0.031829294 0.016743373 0.03625565 0.073955044 0.14142211
-0.061007436 0.065183625 0.050238006 0.046395946 0.014969605 0.094172485 0.018925328 -0.024857303
0.022831092 0.024933917 -0.048540298 0.030422492 0.018982982 0.032499064 0.11370714 0.105083205
0.018141646 0.007779143 0.023882503 0.06918792 0.10738436 -0.031166485 -0.028660461 0.094645284
0.056678675 0.015366036 0.052245636 0.008770088 0.091752835 0.07507182 -0.00597368 0.04265059
0.038690377 0.019050103 0.032074433 -0.008998172 0.02541111 -0.012234059 -0.044040468 0.037587013
0.0508131 0.04643662 0.011621164 -0.021014636 0.008241 0.031183336 -0.03525019 -0.09858527
-0.0025496485 0.0573284 -0.029990636 -0.0077211135 0.07823865 0.09790211 0.081847236 0.064966574
0.09948452 0.10909881 0.09469238 0.056934733 -0.007466234 0.011620839 -0.02071107 -0.014048124
0.011209327 -0.009233138 0.06279685 0.023097118 0.040704567 0.07011074 0.022421973 0.03221465
0.0043690954 0.050846603 -0.07124884 0.00063555356 0.0073616435 -0.019971654 -0.024276992 0.0160267
-0.10000582 -0.048203055 -0.08236922 0.035330594 0.0021810657 -0.049702697 0.01840313 -0.00012366673
0.07755627 0.012335141 0.07681131 -0.0035496303 0.023238504 0.05579712 0.012368079 -0.029740183
0.108166 -0.0017274162 -0.017987644 0.0053108106 0.057556488 -0.017715054 0.015308374 -0.013635854
0.05014532 0.07413441 0.12210492 -0.015829759 -0.01888925 -0.022744697 0.017557776 0.02096066

unet_model.enc.1.main.bias f4 [32]
00000000: 503c 79bd ff70 e5bc 21d8 f9bb acb5 143d
00000010: 0603 163d e8d0 28bd 7d25 23bd 34a7 9a3c
00000020: a5b1 7ebc 5f8b 9d3c 6616 263c 5f58 77bc
00000030: 033c f83b 5500 343d 3009 c53c ce3c 80bc
00000040: e8bd d83c 8da2 b7bc baec 15bb 6cab 9f39
00000050: 202b 3cbc 5757 1d3d 8ed0 3c3d 2332 9f3b
00000060: ab68 1fbc 67dd 813c eb31 a23c c279 fd3c
00000070: c214 f33c 98ce 3abc 2c91 833a cf99 32bd
-0.060848534 -0.028007982 -0.0076246415 0.03630607 0.036623977 -0.041214854 -0.039830673 0.018878557
-0.015545283 0.019231496 0.010137176 -0.015096753 0.0075755133 0.04394563 0.024052233 -0.015653994
0.026457742 -0.022416377 -0.0022876696 0.00030454563 -0.011484891 0.038413372 0.04609733 0.0048582717
-0.009729545 0.015852643 0.019799193 0.030941848 0.029672984 -0.011401795 0.0010037771 -0.043603715

unet_model.enc.2.main.weight f4 [32, 32, 4, 4]
00000000: bbeb 09bd 21cd 26bc a469 e83c 63b3 0f3c
00000010: 091b ffbc b3c8 96bd 6b49 c8bc 3fb4 df3c
00000020: 6b5e 8abd adf7 52bb 6d70 513b f8da 9c3c
00000030: 074a 9cbd 6f61 17bd 795d e3bc ab3d 54bc
00000040: 0ed3 0abd 4a9f d2bc 6f37 b33c 866a 4c3d
00000050: b322 58bd 0554 95bc 0584 8fbd 22b9 e7bc
00000060: 3fec f8bc c100 c1bd 1b1b cfbd 3799 d4bd
00000070: 900a 10be d184 83bd 48dd 2bbd 9dab 5dbd
00000080: 688e 1bbd bb01 bfbd 9b5c c4bd 62e9 0ebe
00000090: c2f1 3ebd 61df 50be 896f 2abe 7ea2 0dbe
000000a0: 1cbb 82bd 3d76 02be 26f4 55be 267a c4bd
000000b0: f8a3 c83b 0515 7cbd df4e b7bd 4de4 a2bd
000000c0: 75d4 fa3c 30c0 81bb 9a14 b53d 76d0 8fbc
000000d0: daaa 4d3c 08f7 a23c ee49 ac3c 53de 813d
000000e0: bfba 4dbd 58ec 65bc 5187 473d 785e 85bc
000000f0: 9bd6 9ebc 0905 48bd 9cd6 b1bc fb19 82bb
00000100: 15dd 4c3d 66fa ae3d a24e 953d 6ebb ed3d
00000110: fdc4 74bd 4cdc 6e3d 5310 153d 3f9a 4abc
00000120: 7148 a6bd 3a8c cdbb 6ee9 613d abb0 d93c
00000130: 5cc7 8f3c d0a4 883d 5363 053d bab6 f23c
00000140: 45b9 0b3d 77f9 debb ec24 8fbc ff83 3c3d
00000150: 51ff d0bd a2e8 1abe 1bd1 b0bd 031b a3bd
00000160: 1a4b 81bd 3ca5 9cbd 5081 20be 1247 2fbd
00000170: 2e27 d9bd 500d f6bd 50cb 0fbe d62d 11be
00000180: fc19 0f3d 490c 0b3d df2b 693d 8824 e339
00000190: 9b06 3b3d 09a6 083d 8a59 ac3d f034 ef3c
000001a0: 7819 10bd 90bd 343b 762a 0ebd 4e64 663c
000001b0: bafd 11bd 1edc c8bc b34f 5cbc 34d1 1d3c
000001c0: 736a 3dbd 8088 99bd a983 31bd 842b 9e3c
000001d0: 42fe 11bd 75f2 70bd 7b77 a1bc 1dcc eabc
000001e0: a325 02bc 19e3 06bd 110a 8a3c bd70 d23c
000001f0: b73a 90bd 9ca9 b239 3419 c13c 52eb 793a
00000200: 8d31 3dbd 3bd2 a5bc 00bd 9bbc b0ac 993c
00000210: 5fd3 57bd 2066 89bd d859 12bc 2561 9ebb
00000220: 703b 3d3c 815a 25bd 6032 80bd ecdc 65bd
00000230: d3fe 11bd fd2e 84bc 3905 98bd e020 8e3b
00000240: 2a1d 323d 82bd cc3c 5135 203d 2d81 343d
00000250: bc60 e13c c79b 1b3d f70f 013b b796 28bd
00000260: 22ad 8dbc edb4 8bbb aa76 43bd ec15 5a3c
00000270: 4efa bcbc 4a69 28bd b178 913c 0cd3 a9bc
00000280: ad5f 2fbd 516e 5f3c 10d4 063d bf0b c9bc
00000290: 8bf6 883c 8f85 04bc eaad b13d abfc f5bc
000002a0: e054 693d 59a0 843c 0b19 a0bb ef27 553c
000002b0: 42d3 12bd 6eb8 133d c932 63bd 5ba4 123d
000002c0: 9ed2 ae3d 30ab 9c3d 4767 763d b77e 993d
000002d0: 13d4 633d e51d ac3d f92e a43d dd78 013d
000002e0: d0f7 2cbd db05 a23d 403f 87bc f3d2 9c3d
000002f0: 84cb fbbc ef95 1f3c 39d4 573d c126 5d3d
00000300: cd0c 653d dfb1 e63c cb52 31bd 6e1f a2bc
00000310: cda5 03bd abea 3dbd b66f a5bd db02 503d
00000320: a1c9 0d3c a62b 66bb 1883 7ebd 1b03 383d
00000330: 7a5a a5bb bf45 843b 9b7c 873b 868d 31bc
00000340: 6dd2 05bc 4f2d 053c 98ed 53bd e75d e4bd
00000350: 65ce 1e3c 20e4 363d dc9b 8abd fbde b3bd
00000360: eee1 08bc 8901 8cbc 0eba f5bd 0bc3 a7bd
00000370: a400 07bb 7d4f 39bd 04fc 31bd 4c45 503c
00000380: e2c2 ea3c ce17 8ebc bd6b 0c3c 2aca 5f3c
00000390: ae64 5e3d cf50 0fbd c033 68bc 8071 04bd
000003a0: 0e39 163d d07d 3f3d dd97 0dbd a3e6 353d
000003b0: e531 223d 47ee 383d d9dd 7cbd da22 34bd
000003c0: 3e33 f63a 657c 26bd 8557 52bb 9e2f a6bc
000003d0: 57d5 17bd f939 82bd f9ad 7dbd 1ae6 42bc
000003e0: ce22 debd 8d25 27bd e7ae a2bd baf5 ffbc
000003f0: 0e3e ddbd 57c5 04be 178d c4bd 42e3 a3bc
-0.033672076 -0.0101807425 0.028370686 0.0087707965 -0.031140821 -0.07362499 -0.02444907 0.027307628
-0.0675629 -0.0032191083 0.003195788 0.019147381 -0.07631307 -0.036958154 -0.027754532 -0.012954156
-0.033892684 -0.02571072 0.021877019 0.049906276 -0.052767467 -0.01822854 -0.070076026 -0.02828652
-0.030386088 -0.09423972 -0.10112592 -0.10380786 -0.1406653 -0.06421817 -0.041959077 -0.05411874
-0.037977606 -0.09326502 -0.095879756 -0.13956216 -0.046617277 -0.20397712 -0.1664411 -0.13831517
-0.063833445 -0.12740417 -0.20893916 -0.095936105 0.006123062 -0.061543483 -0.0895059 -0.07953701
0.030618886 -0.003959678 0.0884182 -0.017555457 0.012552941 0.019893184 0.021031346 0.06341233
-0.050226923 -0.0140333995 0.048713032 -0.016280398 -0.019389441 -0.048832927 -0.021708779 -0.0039703823
0.050015528 0.085438535 0.07290389 0.11608015 -0.059758175 0.05831556 0.03639252 -0.012365877
-0.08119286 -0.00627282 0.055154257 0.0265735 0.017551117 0.066720605 0.032565426 0.029628146
0.034112234 -0.006804641 -0.01747366 0.04602432 -0.10204948 -0.15127805 -0.08633634 -0.079641365
-0.063131526 -0.076487035 -0.15674329 -0.042792387 -0.10603176 -0.12014258 -0.14042401 -0.14177641
0.03493689 0.033947263 0.056926604 0.00043324032 0.045660596 0.03336147 0.08415516 0.029200047
-0.03518054 0.0027578808 -0.034708463 0.014062 -0.035642363 -0.024519023 -0.013446736 0.009632397
-0.046244096 -0.074967384 -0.04333845 0.01930786 -0.03564287 -0.058824975 -0.019710293 -0.028661782
-0.007943544 -0.03293142 0.016850503 0.025688523 -0.07042449 0.00034077174 0.023571588 0.00095336617
-0.046189833 -0.020241847 -0.01901102 0.018759102 -0.052691814 -0.06708932 -0.008932553 -0.004833358
0.011549816 -0.040369514 -0.06259608 -0.05611889 -0.03564341 -0.016135687 -0.07422871 0.004337415
0.043484844 0.024992708 0.039113346 0.044068504 0.027511947 0.037990358 0.0019693354 -0.041159358
-0.01729447 -0.0042635114 -0.04772059 0.013310891 -0.023068573 -0.041116036 0.017757745 -0.020730518
-0.042815853 0.013637141 0.032917082 -0.024541734 0.016719123 -0.0080884835 0.086757496 -0.030027708
0.05696571 0.016189741 -0.004885798 0.013010009 -0.035846002 0.036064558 -0.055468354 0.035801273
0.08536266 0.07649839 0.060157087 0.07494872 0.05562217 0.084041394 0.08016772 0.031609405
-0.04222852 0.07911273 -0.016509652 0.07657423 -0.030736692 0.009740337 0.052692626 0.053992037
0.05592041 0.028160987 -0.04329185 -0.019790377 -0.03214054 -0.046366375 -0.08077948 0.050783973
0.008654029 -0.0035121231 -0.06213674 0.044924837 -0.005046186 0.0040366347 0.004134727 -0.0108369645
-0.008167845 0.008128478 -0.05174026 -0.11150723 0.009692763 0.04465115 -0.06768009 -0.087827645
-0.008354647 -0.017090576 -0.11998378 -0.08191498 -0.0020599747 -0.04524182 -0.04345323 0.012711834
0.02865738 -0.017345335 0.008570609 0.0136590395 0.054295234 -0.034989174 -0.014172494 -0.032334805
0.036675505 0.046750844 -0.034568656 0.044409405 0.039598364 0.045149114 -0.061735008 -0.04397855
0.0018783582 -0.040645976 -0.0032095623 -0.020286378 -0.03706869 -0.06358714 -0.06193349 -0.011895681
-0.10846482 -0.040807296 -0.07943516 -0.031245101 -0.108028516 -0.12965904 -0.09597223 -0.020005826

unet_model.enc.2.main.bias f4 [32]
00000000: c254 4d3c a1a3 d93c 2765 373d 02e2 2dbc
00000010: 6354 153d 3ba4 ee3c 671c d0bb 668d cbbc
00000020: 0cf4 863c 49f5 8d3c e6a9 c93c 9f7b 813d
00000030: b532 9cbc 7a05 083d acea 823c 7841 073d
00000040: a04a 023c 2017 043d 34fe e23c 6105 283d
00000050: f21b eebc b73c 4abc d29e 0d3d 4f15 623c
00000060: 464f 013c cde7 b53b 5823 9d3d d7d9 533a
00000070: 152c 73bd 1ea8 07bc 8a16 383d ed3b 10bc
0.012532415 0.026567282 0.0447742 -0.0106129665 0.03645743 0.029131046 -0.006351042 -0.024847697
0.016473792 0.017328875 0.024617147 0.06322407 -0.019067148 0.033208348 0.01598104 0.03302142
0.007952362 0.032248616 0.027709104 0.041020755 -0.02906606 -0.012343577 0.03457529 0.013799026
0.007892435 0.0055513144 0.07672757 0.0008081472 -0.05936821 -0.008279828 0.04494337 -0.00880335

unet_model.enc.3.main.weight f4 [32, 32, 4, 4]
00000000: 8be2 59bd fe25 373c db66 97bd 5ccd 463d
00000010: 1e55 45bd 92e4 57bd 456e 833d 015e 373b
00000020: d8ba 35be c276 c4bd f028 163b 9fae af3c
00000030: 6b07 0ebe 9b7e a0bc ff3b ae3d cc4f f9bc
00000040: 3459 bdbd 6b2c 26be baaf 5ebd 5d01 4237
00000050: 8195 6cbd 0463 d9bd 398d 7abd 9133 f0bb
00000060: 8362 7d3c bbab eebc a1bf 883c 1c39 923c
00000070: 289e b33d 40e1 393d 0809 943d e8cf f73c
00000080: 6266 b4bd 59e5 1a3c d49f 843c aa4e fb3c
00000090: d37b 893c 3d59 4cbd ac37 983d f509 393c
000000a0: 0804 fcbc b593 973c 911a 173d ec95 893c
000000b0: 4ace 9b3c f9f0 013b aa6a 75bc 6167 d33b
000000c0: 77f0 3f3d bd05 c2bc aa62 1d3d 3398 f2bd
000000d0: 30ac ad3c 109e 71bd 48c6 fcbd 3f85 83bb
000000e0: 7eb7 6139 66c2 39ba 35c9 66bc 6d58 02bd
000000f0: 2a2a 4c3c c690 ef39 e48e 56bd 7185 ca3c
00000100: b02d e0bd cf38 05bc cdf2 713c 37c3 503c
00000110: facb 7bbd bc40 dabd a455 f0bd 1aa8 4e3c
00000120: 03cc 11be 1652 1fbe 2020 15bd 427d 063d
00000130: c441 e23c 184e b63c a1e7 343c ba39 a53c
00000140: 020b 51bd ad08 973c 75d0 9ebb 105f 963c
00000150: 7854 89bc b9b9 913c fac3 3f3b ce72 ae3c
00000160: 4f41 31bc 89d4 603c 24ba cd3c da6b 593d
00000170: b6a7 a9bb 70bf 2b3d 11d8 39bc 3cd4 ec3c
00000180: b534 16bd 17d6 113d 31cd e73b 86fe 433c
00000190: ad17 4d3d 1b32 8b3c 8e7c c33c d0aa c33b
000001a0: 4f66 4fbc cfde e73c b83d ad3d c3e9 763d
000001b0: d160 a7bc 5f51 28bc 1b56 193c b6fc 46bb
000001c0: 64da acbd aaf6 4bbc 0c31 59bd c544 35bd
000001d0: c128 dfbb aa64 26bd 7d38 673d eb42 31bc
000001e0: 744a 24bb 39ba 15bb 2682 28bd fa95 fa3c
000001f0: bd01 d13c bba9 afbd 2739 62bd 2b31 cbbc
00000200: 64e2 093d 530d 533c 7982 8f3d c246 603d
00000210: 399c 09be 1a69 83bd 3898 38bd f0f0 f53c
00000220: 3ab0 19be 0b9b 06be 8444 76bc 6a31 e43b
00000230: 11fb 513c 19ee 74bc b60b c3bc 4b2c 76bc
00000240: 7a26 cfbd 8cf8 613c 23cb 5abd b35e 29bd
00000250: 6306 cc3c 608c a73d c863 6b3d d826 9b3b
00000260: 3c61 c13d 9fdb ad3d 8af0 853d 9379 16bb
00000270: f1eb 8e3d 3e89 843d 54b0 b53d 877e 6dbd
00000280: e39f 02bc de27 e03c 7966 e6bc f50b 89bd
00000290: dcef 07bd 7f3e aabc 7a88 123d c811 373d
000002a0: c090 c73c b5de 233c 1c94 cc3d 43b1 b73d
000002b0: a5cc c2bb 4a1c f83d fb96 273c 863f 6b3d
000002c0: 288b 813d 4323 8b3d 9628 db3d 39b9 203c
000002d0: d55c 133d 1f21 2a3d e8de 293d a1fc b13c
000002e0: 5958 213d e836 85bd cdf0 56bb 1167 9dbd
000002f0: 13e7 40bd 7560 febd 1cd5 62bd a13b 52bd
00000300: 75e1 37bd 12fa 63bd e793 1ebd bf90 d03c
00000310: c1b0 3abd 416d 023d 39d5 65bc 92c8 77b9
00000320: 6f7b 44bd cf48 683c ea7e 2fbd 8e6f 3e3d
00000330: 2a8d 5ebc b21c 21bd 35e2 d43c 9a5b e83c
00000340: 1ada df3c 17d6 a73d 83d8 0d3d bb1f 31bc
00000350: 97e3 a93d 598a ad3d e56e f7bc f69f 9bbc
00000360: cb2a 3e3d ba79 513c f8ba 8a3c 36c1 0fbd
00000370: 5b2a 1e3b 91d0 0dbd 63c1 9bbd 8d94 2dbd
00000380: ab7a 293d 979a 093d 8a4f 2a3d aa06 a2bc
00000390: a4dc 673c 1f63 f33c dc94 1fbc cc6c bebd
000003a0: 7bd0 2f3d 95f2 bdbb 8690 6fbd 9723 2dbc
000003b0: 8a8e 87bc 9834 8fbd 894f 95bd 7232 a2bc
000003c0: 8b5a 8a3d b952 b43d 3f3a 973d 4aff 803d
000003d0: c8d6 54bc 5b0b f93c 1e0b 653d c95c 0a3d
000003e0: ceca e53c 8bf2 3b3b 5fad 803c cb93 cc3d
000003f0: b1d8 4f3d 5c63 b0bd 282b 8dbd fa30 463d
-0.053194564 0.011178492 -0.07392665 0.04853569 -0.048176877 -0.052708216 0.064175166 0.0027979615
-0.17747056 -0.09592964 0.0022912584 0.02144557 -0.13870017 -0.01959162 0.08507537 -0.030433558
-0.0924553 -0.16227882 -0.054366805 1.15636185e-05 -0.057759766 -0.10614589 -0.061169837 -0.007330366
0.015465382 -0.029134622 0.016692938 0.017849497 0.087704 0.04538083 0.07228285 0.030250505
-0.088085905 0.009454095 0.016189493 0.030677158 0.016782677 -0.04988979 0.074324936 0.011293878
-0.030763641 0.01850305 0.03689057 0.016795121 0.019019265 0.0019827469 -0.014979044 0.0064515327
0.046860185 -0.023684377 0.03842417 -0.11845436 0.02120027 -0.05898863 -0.12342507 -0.004013687
0.00021526028 -0.00070861576 -0.014086057 -0.03182261 0.012461225 0.00045693497 -0.052382365 0.024721833
-0.10946214 -0.00813122 0.014767361 0.012741855 -0.061473824 -0.10656878 -0.11735085 0.012613321
-0.1423798 -0.15558657 -0.03640759 0.0328343 0.02761925 0.022254035 0.011041553 0.020169128
-0.05103589 0.018436754 -0.0048466274 0.018355876 -0.01676391 0.017788755 0.0029261098 0.021294978
-0.010818793 0.013722547 0.025113173 0.05308137 -0.0051774634 0.041930616 -0.011343018 0.028909795
-0.03667136 0.035604563 0.0070740213 0.011962539 0.050071407 0.016991666 0.023863103 0.00597129
-0.01265867 0.028304486 0.084590375 0.060281526 -0.020431908 -0.010273307 0.009358908 -0.003036303
-0.08440092 -0.012448946 -0.05302529 -0.044255037 -0.006810278 -0.040623344 0.056450356 -0.010819177
-0.0025068792 -0.0022846593 -0.041139744 0.030589093 0.025513524 -0.085772954 -0.055230286 -0.024803719
0.03366317 0.012881595 0.070073076 0.05475498 -0.134385 -0.06416531 -0.045067042 0.030022115
-0.15008631 -0.13145082 -0.015030984 0.0069638984 0.012816207 -0.014949345 -0.023809295 -0.015025209
-0.10114761 0.013792168 -0.053416383 -0.041350078 0.02490539 0.08181071 0.057468206 0.004734855
0.09442374 0.08489155 0.0654002 -0.0022960647 0.06978596 0.06471489 0.088715225 -0.057981994
-0.00797269 0.02736276 -0.028125035 -0.06691734 -0.033187732 -0.020781754 0.035774685 0.044694692
0.024361014 0.010001828 0.09989187 0.08969357 -0.0059448057 0.12114771 0.010228868 0.057433628
0.0632537 0.06793835 0.107011005 0.0098097855 0.035977203 0.041535493 0.041472346 0.021726908
0.039390896 -0.06504613 -0.0032797337 -0.07685674 -0.04709537 -0.124207415 -0.05537902 -0.051326398
-0.044892747 -0.055658408 -0.03871527 0.025459645 -0.045578722 0.031842474 -0.014027887 -0.00023630474
-0.047969278 0.014177515 -0.042845644 0.046493106 -0.013583461 -0.039334007 0.02598677 0.028363992
0.027325679 0.08195131 0.03463031 -0.010810788 0.082953624 0.08473653 -0.030204246 -0.018997174
0.04642753 0.0127853695 0.016934857 -0.03509637 0.0024134133 -0.034622733 -0.07605245 -0.042377997
0.04137675 0.033594694 0.04157976 -0.019778568 0.014151726 0.02971035 -0.009740081 -0.09298095
0.04292343 -0.0057967403 -0.058487438 -0.010567567 -0.01654746 -0.06992453 -0.07290561 -0.019799445
0.06755551 0.088048406 0.073841564 0.062986925 -0.012990661 0.030400923 0.055918805 0.033779893
0.028050806 0.0028678502 0.01570767 0.09989127 0.050743762 -0.08612701 -0.06892997 0.04838655

unet_model.enc.3.main.bias f4 [32]
00000000: 3386 b73c e4f7 7c3b c6a4 aebb b7e8 8b3c
00000010: 18a0 e0bc 5c19 933c 40fb 053d 9e9b 4d3d
00000020: 6089 21bd 2f75 4c3b 78dd 8c3c 3857 43bd
00000030: 2cbc 36bd 654e 09bd 2f34 043d 3ba1 a03a
00000040: ca52 82bd 0a55 33bb 3c9f 48bc 3d10 8dbd
00000050: dd9b de3c f6d9 a23c 9292 27bd 6dad 93bd
00000060: 4c67 103c 4c4a 62bd 8e51 133d f9d1 07bd
00000070: 6edf a73d 2bb2 02bb b9b3 093b e39d d4bc
0.022402858 0.0038599903 -0.005329701 0.01707874 -0.027420089 0.017956428 0.032710314 0.050197236
-0.03943765 0.0031197777 0.017195448 -0.0476906 -0.04461305 -0.03352203 0.03227633 0.0012255082
-0.06363447 -0.002736392 -0.012244996 -0.06887863 0.02717393 0.019879322 -0.040911265 -0.07210813
0.00881369 -0.055246636 0.03596645 -0.03315923 0.08196913 -0.0019942622 0.0021011664 -0.025954193

unet_model.dec.0.main.weight f4 [32, 32, 3, 3]
00000000: 1649 72bd 717b 3e3d ff80 80b9 495d ebbb
00000010: 21f9 d83c 623f 573d 4a98 46bc eea6 8cbd
00000020: d42c 8cbd f4f3 52bd d92c 4f3d 1f64 b43d
00000030: b15e a1bd 57cc 003d 8f27 f9bc e85b c0bc
00000040: 164c b93c 8949 b43d e48b 9cbc ff16 3c3d
00000050: 16af fdbc 6bf6 bf3c 49a3 f13b 3726 173d
00000060: 7b98 84bd 15b5 163d b238 7a3d 1dcb 9c3c
00000070: c660 dd3a 8a43 cc3c 2973 e03c 4210 bf3b
00000080: a0e4 92bd 317e f2bd 3842 9ebc c1e0 5bbc
00000090: afcf c83b 765d eabc e588 b4bb 0cc8 e4b8
000000a0: ef25 a3bc c2f7 7abd 528d 913c eaa9 83bc
000000b0: 3f5b d0bc 9d56 edbc 3110 5cbc 8d2d f73c
000000c0: 3c5d c2bc bb4b 7ebc c56d 3dbc 000e 0f3c
000000d0: ef8f 483c 19a0 85bd 80b9 eebc 31f7 343c
000000e0: ce93 403b 4724 d13b c333 863d 0f8f 483d
000000f0: 6d55 743d c196 0b3d 8754 51ba 722c ba3d
00000100: baba 3b3d d724 13bd e3ec fb3c 2fe5 84bb
00000110: 6f95 b6bc d5a8 71b9 3948 99bd a220 58bd
00000120: 7df0 22bd 53a0 f3bc 5404 a7bc 9c55 b43a
00000130: 2942 ec3c 6629 db3c 9e8a 5d3c b0d9 5e3d
00000140: a53e b7bb a717 96bc 41f8 6fbd c58e 8abb
00000150: 402d dd3c 3090 8abd 8328 40bd 145e d13d
00000160: 129d d13c a8a6 32bd 99ff 0dbd 6eff 893d
00000170: 2c16 fbbb 418d e13c 5615 093e ffe1 21bd
00000180: c84c 613b 194f 113d 313a 9abd d77b d53b
00000190: 87f2 263d 3239 5abc 59c7 5c3d 60fb 323d
000001a0: 122e 6bbc 746d 9e3c b96a f8bd 6380 113d
000001b0: 5cf3 49bd b803 b23d a58a 30bd c2f5 3bbd
000001c0: 5233 6b3c 34fb 953d 9801 863c 7d4e de3c
000001d0: 1539 ab3c 01c0 2fbd 757f 923c 88d8 1cbd
000001e0: 2451 ac3d 4114 6bbd 7732 8abc d11e cdbc
000001f0: 527d 57bd 3d8f 983a b806 a6bd 671c 23bd
00000200: 2495 383d dcf3 fcbc e927 913d 78a4 91bc
00000210: 8a45 8e3d 68dc 943d 7d38 aa3d 35d5 96bd
00000220: da1d 1a3c d6bb efbc a6bf 2abc c8e3 793c
00000230: 6505 39bc f8c2 a1bd 44e1 bdbc 2fc6 913d
00000240: f0b3 ee3d 96f2 21bd 2e3c e7bb ee48 d33d
00000250: 6342 203c 4337 3f3d 879f 9b3d 1762 b13d
00000260: 62c9 683d 27bd b1bb 0748 bb3d 2b92 14bd
00000270: 322e 78ba 8de7 373a 92dd 06be ff2a 52bc
00000280: f9b3 8d3d 2f51 c1bd 6dc6 85bd e2a8 aabd
00000290: ab76 f6bc 1a70 f23d 2d2a 85bd 1bd0 afbd
000002a0: d928 d53d 215c 81b9 d0ed f63c 593f 473c
000002b0: b302 063c 2198 053d 032c f83b 6d19 6e3d
000002c0: f496 bb3c 3896 6b3d b851 fabc 0731 ddbc
000002d0: 9d89 a93d 29f0 243d 28a8 b53d e018 f5bc
000002e0: e1e2 89ba 97fd 55bd cb93 31bc 05ba 2abd
000002f0: 08fe 4fbc 7608 b3bd c713 07be a7c0 ac3a
00000300: 5624 9ebc 2d11 1fbc 4231 03bd 0544 733d
00000310: f669 a53d 3e18 a23c 2b75 07bd 433b 803d
00000320: 42d0 363c d03f be3c 9f45 ac3d 5176 443d
00000330: b6d8 3c3b b686 bc3d 20e3 1b3b 6989 bd3d
00000340: f649 3e3d e5ee 8a3a 08e8 1d3d 85f0 113d
00000350: 5985 dabb 9c82 87bd d784 71bd 71a4 67bd
00000360: b76f 91bd 5aa6 cabc d0a5 d93b 917f 97bc
00000370: fc91 9e3d 40f0 143c d49b 3d3c 4c96 4d3d
00000380: 69b6 6b3d f80f 46bd 9d80 663d b703 bcbd
00000390: c7cc 813d 6c2b 763d d82b f2bd 2192 b43d
000003a0: e437 62bb 27f7 02bb 4059 3dbd beb4 c83b
000003b0: 79cb de3c efd6 843d 40c0 703d b1f3 a23b
000003c0: 8f3b 29bc 4c22 d13d 2287 95bc eb53 393d
000003d0: ed87 90bb 60f9 e8bc 837c afbb e011 56bc
000003e0: 8f23 cabc 798d 60bd 1667 6c3d 88aa 30bd
000003f0: 32f0 9fbd a759 143a 45d0 dbbb 995f 303d
-0.05915173 0.04650444 -0.00024510172 -0.0071827513 0.026485981 0.05255068 -0.0121212695 -0.06867777
-0.06844488 -0.051502183 0.05057988 0.08808159 -0.07879389 0.031444874 -0.03041437 -0.023481324
0.022619288 0.08803088 -0.019109674 0.04592037 -0.030967277 0.023432931 0.0073742014 0.03690168
-0.06474396 0.036793787 0.061089225 0.01913982 0.0016889803 0.024934549 0.027398663 0.0058307955
-0.07172513 -0.11840475 -0.019318685 -0.013420285 0.0061282734 -0.028609019 -0.005509483 -0.00010909149
-0.01991555 -0.061271437 0.017767582 -0.016072232 -0.025434135 -0.028971964 -0.013431595 0.030173087
-0.023726098 -0.015520985 -0.011561816 0.008731365 0.012241348 -0.06524677 -0.029141188 0.011045263
0.0029384973 0.0063824984 0.065528415 0.048964556 0.05965178 0.034079317 -0.0007985313 0.090905085
0.045832373 -0.035923805 0.030752605 -0.004055641 -0.022288052 -0.00023046446 -0.074844785 -0.052765496
-0.03978013 -0.029739534 -0.020387806 0.0013758424 0.028840141 0.026753139 0.013521818 0.05440682
-0.0055921846 -0.018321825 -0.058586363 -0.0042284452 0.026999116 -0.06765783 -0.046913635 0.10223022
0.025587592 -0.043615967 -0.034667585 0.067381725 -0.007662555 0.027533175 0.13387045 -0.039522167
0.003437804 0.035475824 -0.075306304 0.006515007 0.040758636 -0.0133193005 0.05390105 0.04369676
-0.014354246 0.0193393 -0.12129731 0.03552283 -0.04930435 0.086921155 -0.04310097 -0.04588867
0.014355497 0.07323304 0.016358182 0.027137036 0.020901242 -0.04290772 0.017883042 -0.038292438
0.08413914 -0.057392363 -0.016869767 -0.025039108 -0.05260975 0.0011639368 -0.0810675 -0.03982201
0.045064107 -0.030878 0.070876904 -0.01777862 0.06946857 0.07268602 0.083115555 -0.07364885
0.009406531 -0.029264372 -0.010421669 0.015252061 -0.01129279 -0.078985155 -0.023178704 0.07117879
0.11655414 -0.03953799 -0.0070567345 0.103166446 0.009781453 0.04668356 0.07598787 0.08661287
0.05683268 -0.00542416 0.091445975 -0.03627221 -0.0009467333 0.00070154 -0.1317046 -0.012827634
0.06919093 -0.09439313 -0.06531987 -0.08332993 -0.030085882 0.11837788 -0.06502185 -0.08584615
0.10408182 -0.0002467344 0.030142695 0.012161099 0.0081793545 0.032615785 0.007573606 0.058129717
0.022899128 0.057516307 -0.030556545 -0.027000917 0.08278201 0.040268097 0.08869964 -0.029919088
-0.0010519886 -0.052243795 -0.010838459 -0.04168131 -0.012694843 -0.08741848 -0.13191138 0.0013179973
-0.019304436 -0.009708685 -0.032029398 0.05939104 0.08076851 0.01978695 -0.033070724 0.06261303
0.011158051 0.023223788 0.08411717 0.047964398 0.0028815693 0.092053816 0.00237865 0.092547245
0.046457253 0.001059976 0.03855136 0.035629768 -0.0066687283 -0.06616709 -0.058964577 -0.056553308
-0.07101386 -0.024737526 0.006642081 -0.018493446 0.07742688 0.009090483 0.011572797 0.050192162
0.057547007 -0.048355073 0.056275 -0.09180396 0.06337886 0.060100004 -0.11824769 0.088169344
-0.0034518177 -0.001998374 -0.046227694 0.006125062 0.027196633 0.06486308 0.058777094 0.004972898
-0.010329141 0.1021162 -0.018252913 0.045246046 -0.004410735 -0.028439224 -0.005355419 -0.013065785
-0.024675159 -0.05482242 0.057715498 -0.04313138 -0.078094855 0.0005659111 -0.0067081773 0.04305992

unet_model.dec.0.main.bias f4 [32]
00000000: b4b7 b9bd 8c29 72bd 30af 54bd 859a 39bd
00000010: a3e8 1d3d 17f7 d33c 9272 373d 6975 3abd
00000020: 4a42 74bb 6003 583c da77 d5bb 0444 893c
00000030: bebe 7d3c 459f f53c 215d 47bd e7ab bcbc
00000040: 6bb1 46bd 39e4 bc3c 2c9f eeba 19ad 3ebd
00000050: 6e9e 423d b3d6 ef3a a334 bfbd c059 533d
00000060: f64e fe3c 19a8 cf3c a989 bc3c c74e b3bc
00000070: 109e ec3c 242b 31bc 31c6 8cbc dc5b 0bbd
-0.09068242 -0.059121653 -0.051924884 -0.045313377 0.038551938 0.025874658 0.044786997 -0.045522127
-0.0037270957 0.013184398 -0.0065145316 0.016756065 0.015487371 0.029983172 -0.0486728 -0.023031188
-0.048509043 0.023058044 -0.0018205396 -0.046551798 0.04751437 0.0018298238 -0.093362115 0.051599264
0.03104351 0.02534871 0.02301486 -0.02188815 0.028883964 -0.010813508 -0.017184349 -0.03402315

unet_model.dec.1.main.weight f4 [32, 64, 3, 3]
00000000: 24dc e8bc 8392 703a 2aaa 19bd 08a8 343b
00000010: b0be 4c3c 9a3e e1bc 87c0 7d3c d712 3dbc
00000020: 3548 073d 56b0 1d3d 49ea 60bd ed9b e6ba
00000030: c635 6abd 4bba 37bd 54b5 f7bc d386 63bd
00000040: c44f 8cbd 4f2c 61bc 12a7 e6bc 9809 cb3c
00000050: 3e88 813d 84bd 6ebc 5a83 093d cdda 1d3d
00000060: e594 d7bb 1308 a13d 5b0c 453d 193b 083d
00000070: 8e1f 06bc ac8a 9dbc c83a 94bd 4ed9 85bd
00000080: e3d8 25bd a688 55bd 8850 8abc 762b fe3b
00000090: fe49 403c 69f4 6d3c 609e a93b f8d6 633c
000000a0: 7a16 e53c 7485 333d 7231 b53d db8f 8d3d
000000b0: 5891 563d 00b0 a13d da68 20bc ba9a adbc
000000c0: 8719 a53d fc68 933c 7cba 363c 434c b53c
000000d0: aaa7 6cbc ef6e 02bd 38c3 4dbd 39a5 0fbd
000000e0: 38d9 7bbd 16ad ebbc 0867 13bc 2ac5 113d
000000f0: 35b1 d0bd 06ea 18bd 3df8 813c 3951 8cbd
00000100: 4bd9 123b b556 133a 6170 bbbd fb65 ed3b
00000110: db8b 05bc 4ae2 c0bc d952 2dbd c379 4bbc
00000120: 2188 9abd 37e8 4ebd 8a32 24bc 2671 cebd
00000130: 6ae9 d6bc 7420 1c3c 936c ddbd b6d1 15bd
00000140: dc12 65bc f11d 383c 27ed 5ebc c669 f6bb
00000150: 847b 77bc 1486 c2ba 7cf5 963c b1ce e7bd
00000160: 9859 b7bc 2c08 89bc 15c4 483d 6bb0 87bd
00000170: ec32 90bd d91f 41bb c515 1abd b754 54bd
00000180: 62f0 51bb 7843 c9bd 906e 8dbd 95eb 66bd
00000190: 8f16 083c 7ae4 93bd f7aa 02bd 51e2 3cbd
000001a0: bf12 09bd 6515 01bd a31f d5bc f283 053c
000001b0: 21f1 763d b1b3 d43c 27e6 a33d 7daa 1e3d
000001c0: 40aa 1e3d b29d 143d 3f49 803d 598e 173d
000001d0: 236e 1b3d cea1 6e3c b63a fa3c 9cda 89bd
000001e0: cbf3 89ba 6610 5dbd c607 9fbd 7885 f8bb
000001f0: ebc3 c8bc 502d 713c fde2 cebb b647 b3bc
00000200: 2a20 2abd 468a 2a3a 2c92 50bd 3d19 9dbc
00000210: 28d2 cdbc 487e 4a3c bacd 18bd 0af2 0a3d
00000220: 0638 443c 4e5e 09bc 877a b33d d605 c3bc
00000230: 10b4 a1bb aa59 b9bc ed32 a73b f98a 1c3b
00000240: 501f 57bd c563 91bd be4f 33bd e539 3fbd
00000250: e0c9 75bd 372e f3bb c7c2 cabc dd22 8cbc
00000260: ba47 8b3c 6687 49bc b875 893b 3022 20bc
00000270: 5543 a9bd cf61 27bd 2113 0fbc ec75 25bd
00000280: a5e8 51bc 6859 61bc 9b55 c63b 5b24 e03c
00000290: 4fa4 843d b206 0bbd 732e 6e3d 8c04 ea3c
000002a0: f2e9 5ebd 2c40 063d 57d7 893d 9239 2ebd
000002b0: eaca 73bc a2cd 7a3c 5318 33bd 4f5c 2abd
000002c0: 33a5 41bd e331 b0bd 7a88 abbd 9c32 90bc
000002d0: 17c3 20bc 7972 b0bc 4912 d23b 1a72 77bd
000002e0: 6007 6ebc 6657 8b3b c2c8 ebbc 8ccb 04bd
000002f0: 054e 253a 5a1d a0bc 400e 0a3c c212 543d
00000300: b645 c5ba 8646 d2bb d2c5 81bc b36d fc3c
00000310: 8490 b839 af4c e63c 1900 c9bc ad69 81bd
00000320: 0ef2 b1bc 3f04 7dbd 384b e93a 823a 64ba
00000330: 4120 aebc 0768 43bc d123 8d3c 463e 67bc
00000340: e454 f7bc 0ea8 4ebb 1d87 353d 9327 df3b
00000350: 7a10 39bd 86a0 5a3d ffc0 793c 5428 5abc
00000360: 71ca a8bd 36de cabc 06c6 863c 526d 8fbd
00000370: c6ef 1dbd c7d5 3a3d ffc6 e2bc b06c 82bb
00000380: e65b 10bd a5da 8d3d 3d68 5c3d 9ca4 393c
00000390: 64c9 2d3d c1ad 393c a037 0f3d 2e02 473d
000003a0: 9bc6 d43c 3b3c b03c 09df b23c b8b9 08bb
000003b0: e7a5 1cbd b400 a7bc 0f29 303c a550 d9bb
000003c0: 4c97 7c3d 0395 3d3d 4377 d2bc b81e 6c3d
000003d0: 6bc3 f3bc 7e16 183d 15f8 023c 46d3 70b8
000003e0: 847b 3f3b 02fc c2bb 554b b3bc 5cc7 20bd
000003f0: df84 953d 6826 0a3c 4a04 223d 89ca 493b
-0.028425284 0.00091771054 -0.037515797 0.0027565975 0.012496635 -0.027495671 0.015487797 -0.011540136
0.033027846 0.038498245 -0.05491093 -0.0017594077 -0.05718019 -0.044855397 -0.030237831 -0.0555485
-0.068511516 -0.013743474 -0.028155837 0.024784848 0.06324814 -0.014571551 0.033572532 0.038538743
-0.006579029 0.07862868 0.048107486 0.033259485 -0.008186234 -0.019231163 -0.07237774 -0.06535588
-0.040490042 -0.05213227 -0.016884103 0.007756646 0.011736391 0.014523604 0.0051763505 0.013906233
0.02796482 0.043828443 0.088473216 0.06912204 0.052384704 0.078948975 -0.009790624 -0.021191943
0.080615096 0.017994396 0.01115286 0.022131091 -0.014444271 -0.031844076 -0.050235003 -0.035069678
-0.061486453 -0.028769057 -0.0089967325 0.03558842 -0.101900496 -0.037332557 0.01586544 -0.068514295
0.0022407349 0.00056205253 -0.09152294 0.007244823 -0.00815102 -0.023545403 -0.042315338 -0.012419167
-0.07545496 -0.050514426 -0.010021815 -0.10080175 -0.026234347 0.009529222 -0.108117245 -0.03657695
-0.013981547 0.011237607 -0.013606346 -0.0075199334 -0.015105132 -0.0014840984 0.018427603 -0.1131872
-0.022381589 -0.01672753 0.049015123 -0.06625446 -0.070409626 -0.0029468446 -0.037618417 -0.051838603
-0.0032034148 -0.09827322 -0.06905854 -0.056377012 0.00830616 -0.07221313 -0.031901326 -0.04611427
-0.033465143 -0.031514544 -0.026016062 0.008149134 0.060288552 0.02596459 0.080028825 0.03873681
0.03873658 0.036283202 0.062639706 0.037000988 0.03794683 0.014564944 0.030545574 -0.067311496
-0.0010524926 -0.053970717 -0.077651545 -0.00758427 -0.024507483 0.014720276 -0.00631368 -0.02188478
-0.04153458 0.00065055897 -0.05092065 -0.019177074 -0.025124624 0.012359209 -0.03730557 0.033922233
0.011976248 -0.0083843 0.087636046 -0.023806494 -0.004934795 -0.022625763 0.0051025064 0.0023886545
-0.052520096 -0.07099108 -0.04377722 -0.046686072 -0.060006976 -0.0074212807 -0.02475108 -0.017106468
0.017001975 -0.012300348 0.0041949414 -0.009773776 -0.08264796 -0.040864762 -0.008732588 -0.040395662
-0.012811814 -0.013754226 0.0060526854 0.027361086 0.06476652 -0.033941932 0.058149766 0.028566621
-0.054422326 0.032776043 0.06730526 -0.042535372 -0.014879921 0.015307816 -0.04372437 -0.04159194
-0.047276687 -0.08603265 -0.0837564 -0.017602257 -0.009812138 -0.02153896 0.006410871 -0.06041155
-0.0145281255 0.004252362 -0.028782252 -0.03242068 0.00063058763 -0.019545246 0.008426249 0.0517757
-0.0015050683 -0.0064170985 -0.015841398 0.030814027 0.00035202887 0.028112737 -0.02453618 -0.06318984
-0.021721866 -0.061771628 0.0017798906 -0.0008706228 -0.021255614 -0.0119266575 0.017228993 -0.014113968
-0.030191846 -0.0031533274 0.044318307 0.0068101375 -0.04518173 0.053375743 0.015243768 -0.013315279
-0.08241738 -0.024764162 0.016451847 -0.07003273 -0.038558744 0.04561403 -0.02768278 -0.0039802417
-0.03524389 0.06926469 0.053810347 0.01133075 0.04242839 0.01133293 0.034965158 0.048586063
0.025973609 0.021513095 0.021834867 -0.002086265 -0.038244154 -0.020386077 0.010751977 -0.006631928
0.061667725 0.046284687 -0.025691634 0.057646483 -0.029756268 0.037130825 0.007993718 -5.7417223e-05
0.0029217908 -0.005950452 -0.021886507 -0.039252624 0.07300734 0.008432008 0.03955487 0.0030790886

unet_model.dec.1.main.bias f4 [32]
00000000: 1a92 6d3c ecc4 fd3c ccae 23bd 33ae ecbb
00000010: b721 c9bc 9b9e 283d ef9f 2a3d cb21 a1bc
00000020: 3649 75bc 194a 10bd 1839 8bbd d974 c0bb
00000030: cfeb d8bd 638b 0c3c a623 af3b 8145 0ebc
00000040: bed3 af3c 9310 19bd 1059 b53c f1f8 27bd
00000050: 793d b1bc 8bf0 ec3b 7dd8 983c df0b cfbb
00000060: cd5e d4bc 9499 4e3c e82c d3bd ccf1 d5bc
00000070: 2e94 553d dc60 1a3d 88c7 01bd 7c08 103d
0.014500165 0.030977689 -0.03996162 -0.0072229146 -0.02455221 0.041166883 0.04165643 -0.019669434
-0.014971068 -0.035226915 -0.06797999 -0.0058733043 -0.10591852 0.008578154 0.005344826 -0.008683563
0.021463271 -0.037369322 0.022137195 -0.041008893 -0.021635758 0.0072308234 0.018657917 -0.006318554
-0.02592411 0.012609858 -0.103112996 -0.026116274 0.05214327 0.03769003 -0.03168443 0.03516434

unet_model.dec.2.main.weight f4 [32, 64, 3, 3]
00000000: 3308 2abd 73c6 abbc fcbb 91bd 7e06 5cbd
00000010: 7144 dbbb 2c81 80bc ab1c 4ebd 0259 71bd
00000020: ed4b 8abc a260 0abd e2cb ccbc d885 063d
00000030: 4c1a cbbc 5a0d 45bc b197 fcbc 6f50 263c
00000040: 6613 6cbc 2a59 a8ba bce3 773d b7cc 8dba
00000050: 9718 163c 6c4d de3c 3321 223d dcdf 5abc
00000060: 0c3a 073c 66bd b93c fc07 993c 265c 063c
00000070: 4644 773d 7397 3d3c 18f8 02bd 3ebf 89bc
00000080: f97c a63c 083f afba 7cca 893c d606 123d
00000090: 9557 a4ba f346 263c 57f6 4739 ea55 49bc
000000a0: 6916 dc3c f8af eabb 4ce5 bcbb 3bbd a33b
000000b0: 17b5 c4bc 49cb 97bc 458a da3c b8be 1bbd
000000c0: f546 38bd 9549 043c 4cf8 bcbb f6f0 89bc
000000d0: d1a6 19bd 511a dbbb ae3b ca3c 2606 8dbc
000000e0: a69a 65bc fa12 f63b adf5 843c 1d95 31bb
000000f0: fc77 f03c e64f a8bc b9dc 66bd eb32 233d
00000100: c5b1 cd3c 2b1c 03bd 9025 6f3c a78b 963c
00000110: 7b47 a63b 8178 10bb 58e7 9e3c 79c9 febc
00000120: c4ce 0cbd 2f3b 183d 1c65 733d 9144 c13b
00000130: 1e56 17bb 458e 023c bc6a da3c 6ac8 9c3c
00000140: 5f35 533b 5a6b e13a 8e33 d23a 63f6 953c
00000150: aa70 383d 57da 87bc 36db 1e3d 0198 2f3c
00000160: 67b2 15bd 56cc 92bc 98b7 c4bc 587d 6bbc
00000170: c45c 5cbd 5fcd 16bc 9887 87bd b48d 0abd
00000180: fb73 1ebd 6c2c 17bd eff1 65bd df88 69bd
00000190: cfbd 073c 2630 8dbd 62d1 f0bc 148c 5abb
000001a0: 00c2 63bd 6344 e9bc d4dc 39bd 6324 c3bd
000001b0: 6596 62bc 6873 c4bc 7529 e8bc 46b5 823c
000001c0: b6c0 09bd a463 86bb 85c3 eebc cf84 77bc
000001d0: b552 453c 898a f2bc 941d 0cbc 1a2a 2cbd
000001e0: c653 86bd fb0b 8abd b091 04bc c6ce 0fbd
000001f0: b5bd 863b d36f 34bc 27f9 0fbd f7cb 6a3c
00000200: e598 2a3d d958 e5bb ff1b d23c 3d91 eabc
00000210: bdd9 0d3d 5eb0 b8bc 39be 9abc 363e f9bc
00000220: 83f5 55bd 58ec 3dbd b21a e3bc 307e a93c
00000230: baa9 95bd dfaa 7dbd bdec 4b3c a2e3 91bc
00000240: a6f5 7c3b 2dc0 15bc c0bd 473c 2304 903c
00000250: ab88 e53c 6297 3d3d 71a1 4d3d c6c7 9fbb
00000260: bd54 8d3d 449a 4bbd f4cf 79bd 4f72 84bd
00000270: ae1f 983c ff43 dfbc ff49 9dbc 69f5 8ebc
00000280: d10b 56bd 84db 48bd 0da1 2a3d af2f 243d
00000290: f18f cabc f172 f33c 6d29 193d 7075 38bc
000002a0: 0ae7 3cbd e1d4 e4bb ba81 38bd c58e 543d
000002b0: 1f5d 5c3d 73e5 7abb 450e 5dbc 7b2e c23c
000002c0: cb37 3e3c 1e42 1fbd 3460 d5bc b1fd fbbc
000002d0: eccc bc3c c6a2 1cbd 22f1 cdbc 8c24 c5bc
000002e0: 567a 853c 8207 37bd dd27 09bc a040 24bd
000002f0: 8ee8 febd 782f 86bd 28dc c73c 7bd8 48bd
00000300: f8c0 e8bb 3ba4 7b3c f1a7 11bc 3df4 47bd
00000310: 1901 8aba f76c bcbc 2634 4ebc d3d9 bdbc
00000320: 02fc 443d e090 b43b 0b5b 79bd 67c9 96bc
00000330: ccdf f2bb 83b4 3bbd f9ed 06bd 196f 53bd
00000340: ff7d 3e3d e1e0 03bd c514 db3c 74ea 433c
00000350: 14bf 0e3d a712 d23b d70a 723b fd1c f0bc
00000360: 7e4e 57bc cd9d 0d3d e331 ef3c 7218 a53c
00000370: 72f4 6b3d fc73 5ebc 266a 7c3b bc8b 523c
00000380: 01d0 9d3c a238 7d39 a36e c0bc 29dd a63c
00000390: a004 ae3c e96a 413c 6472 b83c a308 2fbd
000003a0: f00b 923c 6fa5 263d 4638 e8bb 33c9 f33c
000003b0: 5f6d 9bbc 3667 eaba 5ef2 26bc 5a4f f7bc
000003c0: 1ffb 8abd e08d f6bb aae7 6ebc 17db 37bb
000003d0: fe5c 5dbd 34eb 7cbd 512c 45bd 7620 d13b
000003e0: 1f26 d6bc 5efe 2fbc e53f 36bd 6864 f2bc
000003f0: 03de 8abc 540c d43c 62b7 c83b e2f7 75bd
-0.041511726 -0.020968651 -0.07115933 -0.05371713 -0.0066915085 -0.015686594 -0.05032031 -0.058922775
-0.016881907 -0.033783562 -0.024999563 0.032842487 -0.024792813 -0.012027109 -0.03083405 0.010151013
-0.014408922 -0.0012843956 0.06051992 -0.0010818456 0.009161136 0.027136527 0.039582442 -0.013359036
0.008253586 0.02267332 0.018680565 0.008200681 0.060367845 0.011571753 -0.031974882 -0.016814824
0.020323263 -0.0013370225 0.016820185 0.03565105 -0.0012538309 0.010148752 0.00019069888 -0.01228855
0.026866155 -0.0071620904 -0.005764639 0.0049969233 -0.024012132 -0.018529551 0.02667726 -0.03802368
-0.044989545 0.008074184 -0.005766904 -0.016838532 -0.037512604 -0.006686487 0.02468666 -0.017214846
-0.014013922 0.0075095864 0.016230429 -0.0027096935 0.029354088 -0.020545911 -0.05636284 0.03984348
0.025109181 -0.032009285 0.014596358 0.018377138 0.005074439 -0.0022044482 0.019397423 -0.031101929
-0.034376875 0.037165817 0.059422597 0.0058980663 -0.0023092101 0.00796849 0.026662223 0.019138534
0.0032227857 0.0017198131 0.0016037093 0.018305963 0.04502932 -0.016583605 0.038783275 0.010717393
-0.03654709 -0.0179197 -0.024013326 -0.014373146 -0.053799406 -0.009204238 -0.06617659 -0.033826545
-0.038684826 -0.0369076 -0.05613893 -0.057015296 0.008285 -0.06893949 -0.029396717 -0.0033347653
-0.055604935 -0.028474992 -0.045376614 -0.095284246 -0.013829802 -0.023980811 -0.02834008 0.015955579
-0.03363105 -0.0041012336 -0.029145965 -0.015107348 0.012043645 -0.029607074 -0.008551974 -0.04203234
-0.06558947 -0.06740566 -0.008091375 -0.035109304 0.0041119703 -0.011012989 -0.03514972 0.014330856
0.041649718 -0.006999117 0.025648115 -0.028633708 0.03463148 -0.022545036 -0.018889533 -0.030425172
-0.05223609 -0.046367973 -0.02772269 0.020690054 -0.073077634 -0.061930533 0.0124465795 -0.01780874
0.0038598566 -0.009140057 0.012191236 0.017580098 0.02801927 0.046286948 0.05020279 -0.00487611
0.06900928 -0.049707666 -0.060989335 -0.06467115 0.018569794 -0.027254103 -0.019200323 -0.017451005
-0.052257363 -0.04903747 0.041657496 0.040084537 -0.02472684 0.029717894 0.037393022 -0.011258468
-0.046118774 -0.006983385 -0.045045592 0.051893968 0.053799745 -0.0038283735 -0.013492172 0.023703804
0.011609982 -0.038881414 -0.02604685 -0.030760618 0.023046933 -0.03824117 -0.025139395 -0.024065278
0.016293686 -0.044684894 -0.008371321 -0.040100694 -0.124467 -0.06552023 0.02439697 -0.049034577
-0.007103082 0.01535898 -0.008890138 -0.04881691 -0.0010528892 -0.023001177 -0.012585675 -0.023175156
0.048091896 0.0055104345 -0.06087784 -0.018406583 -0.0074119326 -0.045826446 -0.032941792 -0.051619623
0.046506878 -0.032196883 0.026743302 0.011957753 0.034850195 0.006410915 0.003693273 -0.029310698
-0.013141273 0.03457432 0.029198593 0.020153258 0.057606168 -0.0135774575 0.0038515418 0.012850698
0.019264223 0.00024149058 -0.023490256 0.02036913 0.02124244 0.0118052745 0.022515483 -0.042732846
0.017827958 0.040685114 -0.0070867864 0.029759025 -0.01897305 -0.0017883542 -0.010189621 -0.030189205
-0.06786179 -0.007524237 -0.0145816 -0.0028054172 -0.054043762 -0.061747745 -0.048137967 0.0063820435
-0.026141224 -0.010741798 -0.04449453 -0.029588893 -0.016951567 0.025884785 0.0061253766 -0.060050853

unet_model.dec.2.main.bias f4 [32]
00000000: 6bfb ec3b a071 1dbd c7f0 01be 3da2 3e3c
00000010: 14fe b5bb 405c 91bc 7c02 623d 03db e5bd
00000020: e98b b5ba 698a fe3c ab7a da3c b55d 3b3c
00000030: ec24 323d ec20 243d 5dec 193c cba8 893c
00000040: 57a9 03bc ad28 463b bd36 21ba 2b69 693d
00000050: 31d7 cebd 02b6 47bd 86e5 c0bc 85b1 15bc
00000060: a06b 063b 313b 213d 967f 8bbc 0827 ad3d
00000070: c037 aa3c 7e00 6b3d 190c 133d f586 a63c
0.00723212 -0.03843844 -0.12689506 0.01163536 -0.00555397 -0.017744184 0.05517815 -0.11223414
-0.00138509 0.031071858 0.02666982 0.011435916 0.043492243 0.04007046 0.009394732 0.01680412
-0.008035979 0.0030236647 -0.0006149819 0.05698506 -0.10099638 -0.04875756 -0.023546945 -0.009136562
0.0020510927 0.03936309 -0.017028611 0.0845471 0.020778537 0.057373516 0.03590021 0.020328024
