experimental_results/08250716_decolearn_is_optimize_regis=[true]/regis_model/epoch010.pt (torch, 975031 bytes, 25 tensors)

unet_model.enc.0.main.weight f4 [16, 2, 4, 4]
00000000: ac6d 323c 1fa0 5a3d 5bfa a83d 3f89 f7bd
00000010: 3734 52be d48a bf3d 2773 c2bd fac4 ed3d
00000020: 2997 f5bd f915 32be 8e29 2a3e 434e 0a3e
00000030: 3986 97bd cd1b 3dbe a0ce 05be 0255 50bb
00000040: 0987 813a 0c73 96bd e917 453e cc7d eebd
00000050: e2ff adbd e50c 07be 7328 163d 50ab 3c3e
00000060: 5e4b f63d 48cf 223e d0a2 e1bc 3057 5b3e
00000070: 3897 9abd cb06 39be c359 05bd 2a53 163e
00000080: 92d3 44be c2c8 64bd 80c1 ecbd 4e3b d63c
00000090: 6a67 123c d704 d8bd 2076 cebc 6772 43bd
000000a0: f84c 1e3c 6e94 57be 5ffd 09bd 7559 a8bd
000000b0: 9831 6ebd f461 183d 3b2a c4bd fc1c f63d
000000c0: 77da 8d3d d3f2 053d f07e aa3d 4f68 cbbd
000000d0: 814d 5e3d dc11 3d3d 29ab 59be d67b 8dbd
000000e0: 55ef 5a3c b3b5 d2bd 9a91 34be 3e74 b23d
000000f0: d1e0 21be ff3b f9bc 8e8f cf3d 9f48 62be
00000100: 43fe b7bc 72d3 2f3e 1959 213e 8470 8dbd
00000110: 1b8a 133d 174b e03d a43c a73d 9b2a 363e
00000120: 1886 d9bb 2063 273d b6ef af3d e9c7 b1bd
00000130: 7a23 153d cdf8 473e d901 fd3d bbc3 12be
00000140: 0d8c febd c269 3e3e 92ab 003e cfa4 c4bd
00000150: dc50 d6bd dacf 593b 7aee 843c 6d09 4ebd
00000160: 52aa bfbd 1834 413d 9b61 07be 8c4e 12be
00000170: ae91 a1bc 46d5 b93d 4159 23be 57b8 083d
00000180: 0ad8 8ebd 0b51 203c 1471 623c de6c 5cbe
00000190: f8de 38bd 68a2 763d 7477 62be 6791 e7bd
000001a0: 8530 7f3d d0c3 aa3d 9077 6ebe cddc bbbd
000001b0: 702f 5c3c 3004 29be 0821 09bd c86a 59be
000001c0: e088 cd3d c5f1 163e 0270 3e3e 440a ab3d
000001d0: d81f 473e 4ac4 d2bd 5a4d 9cbd e6dd a5bd
000001e0: 0597 2e3e df49 153e b46a 413e 5287 2ebe
000001f0: fcd5 163e ca93 863d 8a35 173e 5baa 9abc
00000200: f47d 6ebd e6c2 e6bd 6c13 603d 16dd c1bb
00000210: ea61 2ebe 1c16 2abd 56c4 dfbd bca8 b63d
00000220: e6e2 213d 8595 3abe a374 053e db78 2d3c
00000230: 8a7a 43be d4fc fa3d 58c7 cd3d f099 303e
00000240: c1b9 a63d 1dee b83a 00c8 e23d cfe6 fcbd
00000250: 14b0 3cbd 0d3b 09be b7bc b9bd 90b9 523e
00000260: c073 fc3d 663f b2bd 9a16 c53d e757 dd3c
00000270: 6e24 093e b137 283e 0f7f 943c a32c b03d
00000280: 1c5f 8b3d 7976 1f3d a176 88bd 4cef 21be
00000290: bed5 cdbd 101a 04be adbc 2c3e 0ab1 003d
000002a0: f41d 583e ee93 133e 83ad 293d d463 3fbd
000002b0: 2736 42bd 573e 3fbc 9955 883d 3558 9bbd
000002c0: 539f 193e 7ca1 353e 1d13 bcbc 6269 68bd
000002d0: 36b6 c33d a63e 363e 5ed5 10be 9942 3bbe
000002e0: 8df4 a93d 475f ab3d 00f8 adbd 2f1b ea3b
000002f0: b009 f43d df10 183a c932 b03d 31cd 023d
00000300: 10d5 1a3e 0f0f 873d 4540 4c3b d012 98bd
00000310: 335f dfbd c398 ed3c 1b5e c73d 843d 09be
00000320: f5b2 4b3a e708 33bd a17a b9bd 9cf8 17be
00000330: 3fbc edbd a465 e5bd a767 6ebd a646 c03a
00000340: ef77 b03d cad3 653e c813 7d3d 1e4f 043e
00000350: b3ee b83d 7f03 333e a41c 8e3d 016c 3b3e
00000360: ed6e d63d 0edd 6bbd eced 383e 95ab 083d
00000370: d3e7 fdbb 46f7 dd3d eaac 15be e4e1 a33d
00000380: 44ce 13be c73b 59be b4ba bebd d551 edbd
00000390: 10f1 02be 93fd fabd d328 283e 00c4 9c3d
000003a0: 6864 a5bd c86e 83bd 3899 d3bd ebdb 27bd
000003b0: 7584 44bd ca03 09bd 0da8 363d 128d 90bd
000003c0: 0c7e f3bd 7af8 bc3c eaa4 3f3d d9c0 50bd
000003d0: bdd9 663d 169a cbbd b383 1b3e 573b 643d
000003e0: 6296 7e3d 5ed2 ac3d 0808 283e 802e be3d
000003f0: 3efd b13d 6da8 e03d 41be 4a3e 086e 863d
0.010890406 0.05337536 0.082508765 -0.120867245 -0.20527731 0.09352651 -0.0949462 0.11609836
-0.11991722 -0.17391194 0.16617414 0.13506417 -0.07398648 -0.18467636 -0.13067102 -0.003178895
0.0009882163 -0.07346162 0.19247402 -0.116450876 -0.084960714 -0.13188513 0.03665967 0.18424726
0.12026094 0.15899384 -0.027543455 0.21419978 -0.07548374 -0.18068998 -0.032556307 0.14680162
-0.19221333 -0.05585552 -0.11560345 0.026151326 0.008935789 -0.10547798 -0.02520281 -0.047716524
0.0096619055 -0.21052715 -0.0336889 -0.082201876 -0.058152765 0.03720279 -0.09578367 0.12017247
0.069264345 0.03270228 0.08324993 -0.09932005 0.054273132 0.04615961 -0.21256699 -0.069083855
0.013362725 -0.102885626 -0.17633668 0.08713578 -0.15808417 -0.030424116 0.10134803 -0.22098015
-0.022460109 0.17170504 0.15756644 -0.06906226 0.03602038 0.10951822 0.08165863 0.1778969
-0.0066382997 0.040866017 0.08590643 -0.08680708 0.036410786 0.19528504 0.12353868 -0.14332478
-0.12429056 0.18595031 0.12565449 -0.09601747 -0.104646415 0.0033235461 0.016226996 -0.050301958
-0.09358658 0.04716882 -0.13220827 -0.14287776 -0.019722786 0.09073882 -0.15952016 0.033378925
-0.069748 0.009784947 0.013820905 -0.21525905 -0.045134515 0.060213476 -0.2211588 -0.1130703
0.06230213 0.083381295 -0.23287797 -0.09172974 0.013439044 -0.16505504 -0.033478767 -0.2123214
0.100358725 0.14740665 0.18597415 0.083515674 0.19445741 -0.102913454 -0.07631941 -0.080989644
0.17049797 0.14578961 0.1888836 -0.17043808 0.14730066 0.06571157 0.14766517 -0.01888006
-0.058225587 -0.11267643 0.054706022 -0.005916248 -0.17029539 -0.04152499 -0.1092612 0.08918902
0.039523028 -0.182211 0.13032775 0.010587896 -0.19089714 0.122552544 0.100477874 0.17246222
0.081408985 0.0014109049 0.11073303 -0.12348711 -0.04606636 -0.13401432 -0.090691976 0.20578599
0.12326765 -0.087034985 0.096234515 0.027019454 0.13392803 0.16427495 0.018126993 0.08602264
0.0680525 0.038931344 -0.06663252 -0.15813941 -0.10050534 -0.12900567 0.16868849 0.031418838
0.21105176 0.144119 0.04142524 -0.046726063 -0.047414925 -0.011672578 0.066569515 -0.075851835
0.15002184 0.17737383 -0.022958333 -0.056741126 0.09556238 0.17797336 -0.14143893 -0.18287124
0.082985975 0.08367782 -0.08494568 0.007144354 0.1191591 0.0005800854 0.086034365 0.031933967
0.1512034 0.06594669 0.0031166237 -0.07425463 -0.1090683 0.029003507 0.09734746 -0.13402373
0.0007770502 -0.04370966 -0.09056593 -0.1484093 -0.11608171 -0.11201027 -0.05820432 0.0014669492
0.086166255 0.22444072 0.061786443 0.12920806 0.09029903 0.17481802 0.069390565 0.18302919
0.10470376 -0.05758386 0.1805951 0.03336676 -0.007748583 0.10838179 -0.14616743 0.080020696
-0.14434153 -0.2121421 -0.093129545 -0.11587874 -0.1278727 -0.12255397 0.16421823 0.076545715
-0.080757916 -0.06417614 -0.103319585 -0.040981214 -0.047977883 -0.03345088 0.04459386 -0.07058157
-0.11889276 0.023067702 0.046788134 -0.050965164 0.056359995 -0.09941499 0.15186958 0.055720653
0.062155135 0.08438562 0.16409314 0.09286213 0.0869088 0.10969625 0.19799139 0.065639555

unet_model.enc.0.main.bias f4 [16]
00000000: 2faf b53c 7821 dc3d f1f5 98bd 6156 c63b
00000010: fcc1 ffbc ec98 02be 9672 9cbd e8e5 343c
00000020: d22d bb3c a2df e4bd c6ad 85bd efe8 d93d
00000030: f4fd 053e 8cf8 05be 4709 dcbc 3f59 033e
0.02217826 0.10748571 -0.074687846 0.0060527776 -0.031220429 -0.12753648 -0.07639043 0.011041142
0.022848997 -0.11175467 -0.06527285 0.10640132 0.13085157 -0.13083094 -0.026859893 0.12827013

unet_model.enc.1.main.weight f4 [32, 16, 4, 4]
00000000: 69c1 bdbc 6093 8a3d 9bf2 a0bc 1b0e a43c
00000010: ad25 3dbc 9c5f 383b d90a 143d 7fec 8a3d
00000020: b0a2 c13c 1b4b 47bd b891 943d b06f 8a3d
00000030: cf21 da3c 555c 31bb d19b b7bc 24df 2d3d
00000040: 1b16 9e3d 1b61 d5bc 76c5 bebc 7c48 ffbb
00000050: f49a 353d e960 a03d e519 dfbc 7d62 813b
00000060: 2aa4 2c3d 48b1 31b9 b270 723d a3ee 433d
00000070: 12b2 463d 8e82 4bbc bf87 473d 4312 733d
00000080: 62d1 793b 8748 79bd d8a1 45bd 9b67 323d
00000090: 8c2c 2ebd 78ba 013d 8322 6ebd e106 65bd
000000a0: 9900 3f3a 610a 0dbd fc80 d03c 0fd5 043d
000000b0: ff90 46bd b663 4b3d 4226 d0bc 24b9 293c
000000c0: e191 473d d398 8cbb c612 183d c47e 96bd
000000d0: bbfe a43d 32e1 693d 02de 39bd d166 80bd
000000e0: 757e 023e 8844 db3d 9ebe 9a3d 85d0 51bd
000000f0: 1653 1b3e e03f 0f3e 5f42 ab3d c84d dc3c
00000100: aff7 cdbc 9d40 9fbc adaf 473d 5a8a 6b3d
00000110: b986 633c cc47 4cbc 81b9 483d 2d51 15bd
00000120: fabb e2bc 7010 2bbd 3933 17bd c926 8abd
00000130: 53d2 84bc 3ccc a2bd 97ed 63bd 33c5 353c
00000140: efde a33c cf8e 693c 7c5b 1fbd 9542 41bd
00000150: 8cee 95bc dae5 6ebd 1dfd 3a3d 73c6 de3c
00000160: 7291 c6bc fc21 443d 8ea8 52bc 246b 87bc
00000170: bc05 0c3d a145 a93b fbdb 483d 7fe8 cc3c
00000180: 1433 b6bd f086 9abd 9ccc 193d 1267 3ebd
00000190: 029a 323c 341e 16ba 92ee cbbc 2d50 55bd
000001a0: 5c82 72bd da98 573b 98db 88bd 165b 4d3c
000001b0: 7555 6cbc 1eea 90bd 6372 a8bd a42d ac39
000001c0: 2be8 ac3d 2fc0 9f3c a1ad 883c 8d83 febd
000001d0: 845f 85bc b249 89bd b341 ccbd 2abe c2bd
000001e0: c83d 353d 94c0 6fbd 1e36 20bd 65aa c9bd
000001f0: b34d 9bbc 22bf 973c 324d 64bd 3218 77bd
00000200: b227 683d 8f8e 283c ebee 94bd 0090 c4bc
00000210: f4d1 8e3d 03c5 3d3d 0179 a53b d989 c4bd
00000220: 3ce9 1a3d 7c69 0abd c8d0 7bbb d932 68bd
00000230: c742 243d eea4 123d ed6f 373d 6ed0 863d
00000240: f8e2 86bd 8fb7 6c3d 5042 223d db3c 813d
00000250: 8126 52bd 0f0f 3e3d 3c29 cfbb 615a 3dbd
00000260: 269f 16bc 987e 92bc a134 94bb 916b 13bc
00000270: 2ddf 2f3c df36 e0bb 8c47 0e3d 4060 d03b
00000280: e2e1 25bd 0d68 703d 8f63 a1bb 1de3 c43a
00000290: f181 233d 429d 4d3c 4739 6dbd ba0d 103c
000002a0: 01fb f0bc 14a9 d8bc ce5d 4f3c b75a 8abd
000002b0: e1ad 673d 7d4d 1f3d 2ae2 00bd 0b4e 3b3b
000002c0: 6fbd 0e3d cf1b a93b 894a 0b3d 1de0 9f3c
000002d0: 0447 ac3c d408 fcbc b9ec 74bd fcb6 533d
000002e0: 2b8c 883d edad 1b3d 2157 3c3c da18 a83b
000002f0: 94a5 153d 1a57 2b3d 0862 f5bc 7f3e 71bd
00000300: 6377 d4bc 5485 3d3d b3c6 58bd d5c9 a0bc
00000310: 5879 5f3d a5fb 973d 8a98 f63c 3484 743d
00000320: b543 843d f9b0 893d 54ce 3c3d 38e6 483d
00000330: 527f d2bc 778f 25bc 090b 46bd 50a4 80bb
00000340: d6e7 28bd 6b4e 54bd e2d5 653d 21aa f23a
00000350: 7e79 0fbc 4c58 67bc 1542 583d 6ba4 693c
00000360: 8e10 cabc 3904 a93c 1a78 8cbd 226e 89bd
00000370: 2034 62bc 33ec 40bd df12 50bd 7cff 82bd
00000380: b1d2 edbd 34d6 9ebc ee43 cbbd 1f02 aa3c
00000390: dfe2 f8bc 4b5d 30bd 2580 843c b83b 1dbd
000003a0: 335c 553d be99 8c3b a596 323d 1685 46bc
000003b0: 4d2c de3c 2dba 743d 7bf7 5b3c 59d2 b6bc
000003c0: 735d 453d 018c 1ebd 51d0 4cbd 675c 173c
000003d0: df28 b23c 417c 11bd 6b6a 7ebc 44e7 a9bc
000003e0: 8614 b93b 2b5e 2b3d b904 9c3d 8b94 16bd
000003f0: dd9f 2cbd 4fb5 40bd 5989 43bc 0992 9e3c
-0.023163514 0.06766391 -0.019646933 0.020026257 -0.011544627 0.002813316 0.036143158 0.06783389
0.023637146 -0.04865561 0.07254356 0.06759584 0.02662745 -0.002706309 -0.022413166 0.04244913
0.0771906 -0.02604728 -0.023287516 -0.007790623 0.044337228 0.07830984 -0.027234027 0.0039485083
0.042148747 -0.00016946078 0.059189506 0.047835004 0.048509665 -0.012421263 0.048713442 0.059343588
0.0038119187 -0.060860183 -0.04825005 0.043555837 -0.042522952 0.03167197 -0.05813838 -0.055914763
0.0007286161 -0.034433726 0.02545213 0.03242975 -0.048478123 0.04965564 -0.025408868 0.010359082
0.048723105 -0.004290679 0.03712728 -0.073483974 0.080563985 0.05709953 -0.04537774 -0.06269611
0.12743552 0.10706431 0.075558886 -0.05122425 0.15168414 0.1398921 0.08362269 0.026892558
-0.025142519 -0.01943999 0.04875152 0.05750499 0.013887101 -0.01246829 0.049005035 -0.03645437
-0.027677525 -0.041763723 -0.036914084 -0.06745679 -0.016213572 -0.07949111 -0.055646505 0.011094379
0.020003764 0.01425524 -0.038905606 -0.04718264 -0.018302225 -0.058324672 0.045651544 0.027194237
-0.024239276 0.047883973 -0.012857569 -0.01653058 0.034185156 0.005165771 0.049037915 0.025013207
-0.08896461 -0.075452685 0.037548646 -0.046485014 0.010900976 -0.00057265465 -0.024894033 -0.052078415
-0.05920635 0.0032897503 -0.06682509 0.012533924 -0.014424671 -0.07075904 -0.082249425 0.000328404
0.0844272 0.01950082 0.016684355 -0.12427435 -0.016280897 -0.067035094 -0.09973469 -0.09508927
0.044248372 -0.058533266 -0.03911411 -0.09846953 -0.018957948 0.018523756 -0.05573768 -0.06032581
0.05667848 0.010287895 -0.072721325 -0.023994446 0.06973639 0.046330463 0.005049825 -0.09596605
0.037820086 -0.033792004 -0.0038424004 -0.056689117 0.040102746 0.03580182 0.044784475 0.065827236
-0.065862596 0.057792243 0.03961402 0.063104354 -0.05130625 0.04640108 -0.006322054 -0.04622877
-0.009193217 -0.01788263 -0.0045228754 -0.008997814 0.010734362 -0.0068424786 0.0347362 0.00635913
-0.04049862 0.05869298 -0.0049251984 0.0015021298 0.039918844 0.0125497 -0.057915952 0.008792335
-0.029416563 -0.02644781 0.012656642 -0.06755584 0.05656231 0.038892258 -0.031465687 0.0028580453
0.034848627 0.0051607857 0.03400663 0.019516045 0.021029957 -0.030765928 -0.05979607 0.05168818
0.0666736 0.038007665 0.0114953825 0.0051299157 0.03653486 0.041831113 -0.029953972 -0.05889749
-0.025935834 0.04626973 -0.05292387 -0.019627491 0.05455908 0.07421044 0.030102033 0.05969639
0.064582266 0.06723208 0.046095207 0.04904768 -0.025695477 -0.010105005 -0.048350368 -0.0039258376
-0.04123672 -0.051832598 0.056112178 0.0018513837 -0.008756993 -0.014120173 0.052797396 0.014260392
-0.024666097 0.020631896 -0.06858845 -0.06710459 -0.013806373 -0.047100257 -0.050799247 -0.06396386
-0.11612452 -0.01938925 -0.09925066 0.020752965 -0.030381618 -0.04305772 0.016174385 -0.03838703
0.05208988 0.0042907884 0.043600697 -0.012116691 0.027120734 0.059747864 0.013425703 -0.022317098
0.048184823 -0.038707737 -0.050003354 0.009238339 0.021748004 -0.03551889 -0.015528302 -0.020740159
0.0056481985 0.041837852 0.07618088 -0.036762755 -0.042144645 -0.04704791 -0.011934602 0.019356744

unet_model.enc.1.main.bias f4 [32]
00000000: bc01 1abd 87ce dfbc bedc 95bc 0c4b 253d
00000010: e80d d23c 0566 3cbd b0aa 31bd 6c87 ae3c
00000020: c1ad cdbc da93 eb3c efc9 28ba 4575 d1bc
00000030: aae7 8c3c 59d5 393d 49ef e13c 0fba b8bc
00000040: f64b f33c 878a f8bc ebbe 333c af01 60bc
00000050: 5a70 2dbc f336 1c3d c705 2a3d 46a4 443c
00000060: 6e0f 62bc 131e d53b e0f5 103d 001e 263d
00000070: a433 ab3c 6541 c2bc e3c1 213b 2446 64bd
-0.03759931 -0.02732016 -0.018293735 0.040354773 0.025641397 -0.04599573 -0.04337567 0.021304809
-0.025107266 0.028757025 -0.0006438782 -0.025568614 0.01720031 0.04536948 0.02757992 -0.022549657
0.029699307 -0.030339492 0.010970811 -0.013672276 -0.010585869 0.03813834 0.041509416 0.012002056
-0.013797624 0.0065038293 0.035390735 0.040555954 0.020898648 -0.023712823 0.0024682216 -0.055730954

unet_model.enc.2.main.weight f4 [32, 32, 4, 4]
00000000: c9e1 b5bc 17ca acbb 00c5 233d 023d 13ba
00000010: 8591 333b 0b7b 11bd 903d b1bc e576 213d
00000020: 5bdc 81bd 327c e73b dd77 f8bc 2d0e c33a
00000030: 986d a7bd c76f 55bc 52cd f3bc 0b1a c2bc
00000040: 415c 44bd d48b 3abd 1a79 99bb 9580 91bc
00000050: 2563 91bd 0b9a 8dbd 742e a7bd 55d2 75bd
00000060: 8ccb 5cbd db63 d5bd 5e64 b6bd 85e3 c4bd
00000070: e298 b2bd ed6c 86bd ddf2 3dbd 2d9e 90bd
00000080: f966 0ebd 57d6 3dbd 819a 02bd 191f e3bd
00000090: 7e36 41bd 111b f6bd f5af febd 6cab e3bd
000000a0: e3a8 20bc 0c88 e2bd e7cf 06be 2493 3ebd
000000b0: 320f e1bc 22a8 32bd 1293 abbd d004 13bd
000000c0: f5fc bbbc ac02 0cbd c256 583d 512e 19bc
000000d0: 1432 233d a69c 683c aefe fa3c b7b5 d23c
000000e0: 4a92 90bc 4274 9f3c 693b 4b3d 7ed1 223c
000000f0: 7df3 d9ba 38b8 8ebc 9c24 823c e6bc 6a3c
00000100: 8d0f 083d b111 b63c b2ab 293c 1113 0f3d
00000110: eef1 8fbd 5fa3 c33c 76fe 9c3c 1819 10bd
00000120: dd92 03bb 740f b0bc f21a b4bb 2f89 21bc
00000130: 32b5 ca3a 8424 933d f75d 2f3d 31cd e63b
00000140: 3812 303d b9fe 82bb 848b 283d 9e73 233d
00000150: a783 94bd 1929 97bd 84f4 5cbd a955 05bd
00000160: 9f56 20bd 589f bbbd f454 ccbd 23f6 b03b
00000170: 03c2 27bd f864 21bd 8e1c 5abd 4b64 a4bd
00000180: dd23 063d d454 b73c ac5d af3d d7a5 a3bb
00000190: 78f6 aa3c 89e3 1d3d e9c6 853d feea f13c
000001a0: f341 c2bc ef53 2cbc 006d e2bc 2eb9 8c3c
000001b0: c928 18bc c514 c73c 5b06 38bc 821f b13c
000001c0: 7b8d 2fbd 855d 83bd cef1 49bd 6bc3 0aba
000001d0: 6586 53bd 6445 93bd 247f 1abd 7466 4cbc
000001e0: 4666 acbb 5284 4bbd 3827 293c 8e8a fe3c
000001f0: c245 11bd 1ba0 043d 326a 383a 8587 a0bb
00000200: 3cba b43c 9ebd 903c 744c 583c ab78 5a3c
00000210: 9e75 d2bc 4182 68bd 2d3b 573b 1558 b9bc
00000220: 71a0 d83c 270f 08bd 71cf 17bd d88c 5dbd
00000230: 8827 39bc a2a8 1b3c e183 ffbc 6cd4 1a3c
00000240: 9526 acbc 1d5c b0bb 7035 793c 2bb1 213d
00000250: 4d34 053a b999 1b3d ef31 923c 1b7b 0ebd
00000260: fbd5 4cbd d803 5eba 0572 04bd db6b 213d
00000270: a753 73bd ef73 19bd 7680 a03c 93aa 2fbc
00000280: 4190 263d 0877 eeba 06a4 ae3c eb36 b23c
00000290: 7253 ecbb d293 8fbc f60b c63c ceb7 14bd
000002a0: b1a2 513d 9805 a13c c47e f2bc 0507 b9bc
000002b0: dcbc e03b 79a8 ca3c ae2c 1cbc 70b9 2fbb
000002c0: c550 973d 8809 2b3d 14ab af3c f735 eb3c
000002d0: 8f60 5e3d 96f6 553d ccea b1bb 6ca2 1dbb
000002e0: 5d29 d7bc ac07 2e3d 320f 19bd c9ae 0f3d
000002f0: 5b66 a1bb b678 973a 178a e93c 198d 083d
00000300: 15a4 173d c604 133d 8253 39bd 4534 a9bb
00000310: bd89 32bd 2d24 02bd 407f a4bd 65da 433d
00000320: 2c97 c73b bf2b 4fbc a14f a3bd fac9 313d
00000330: de56 9cbc 697a cf3c 1352 f0bb be70 72bb
00000340: de09 3a3c 9cf5 80bc cacd f8bc 422b 30bd
00000350: 8df2 c43c 7791 f93c 37be 88bc d155 b1bd
00000360: 8204 003d 2eb0 073b f858 1cbd 239b 1f3b
00000370: 2125 1abb 6851 e6bc 3ee4 4dbd a59a 9abb
00000380: 4567 c13c ed84 14bc ff34 e6bb cee8 013b
00000390: e7e9 183a aa29 4fbd 2f9a a13a 675d 59bc
000003a0: 48c2 fcbc 1f84 403c 7645 bdbc aea2 323d
000003b0: 628a d73c 4170 3b3d 3eaf 98bc def2 c6bc
000003c0: 6e5c 12bd 2246 9dbd ca52 f43a cc5a 35bd
000003d0: 9909 62bd a992 fabb 5cb9 a0bc 89f2 13bc
000003e0: 034a 98bd 9715 ddbc 14c9 ebbc d7e7 ccbb
000003f0: 6e80 94bd 6c15 13bd b7d1 dfbc 598f 3abc
-0.02220239 -0.0052731144 0.039982796 -0.0005616696 0.0027399969 -0.035517734 -0.0216358 0.039420027
-0.063408576 0.007064366 -0.030330593 0.0014881544 -0.081752 -0.013027138 -0.02976099 -0.023694059
-0.047939543 -0.045543507 -0.004683626 -0.017761508 -0.070989884 -0.06914147 -0.08163157 -0.06001504
-0.053905055 -0.104194365 -0.08905862 -0.096137084 -0.08720566 -0.06563745 -0.04637419 -0.0706142
-0.03476617 -0.04634699 -0.031885628 -0.11089916 -0.04717111 -0.12016881 -0.12435905 -0.111166805
-0.009805891 -0.11061105 -0.13165246 -0.046527043 -0.027473066 -0.043617375 -0.08377661 -0.03589326
-0.022947768 -0.034182236 0.052817114 -0.009349422 0.03984268 0.014197504 0.030639019 0.025721414
-0.017647881 0.019464616 0.049617205 0.009937642 -0.0016628351 -0.017421827 0.015886597 0.014327263
0.033217955 0.022225233 0.010355877 0.034930293 -0.07028566 0.023881612 0.019164305 -0.03518018
-0.002007655 -0.021491744 -0.005496376 -0.009859367 0.0015465377 0.07184699 0.04281422 0.0070435037
0.042986125 -0.0039976505 0.041148677 0.039905183 -0.07251673 -0.07380886 -0.053944126 -0.032552395
-0.03914511 -0.09161252 -0.09977141 0.0054004355 -0.04095651 -0.039402932 -0.053249888 -0.08026942
0.032749046 0.022379316 0.08562788 -0.004994135 0.020869479 0.038547073 0.0653208 0.029530998
-0.023713088 -0.010518058 -0.027639866 0.017178144 -0.009287068 0.024301896 -0.011231984 0.02162147
-0.042859536 -0.06414322 -0.04930287 -0.0005293402 -0.05164184 -0.071909696 -0.037718907 -0.012475599
-0.0052612154 -0.049686737 0.010324292 0.031071927 -0.035466917 0.03237925 0.00070348673 -0.0048989677
0.02206146 0.017668542 0.013201822 0.013334434 -0.02569085 -0.056764845 0.0032841668 -0.022625009
0.026443692 -0.033217575 -0.037063066 -0.054089397 -0.011300929 0.009500654 -0.031190814 0.009450059
-0.021014491 -0.0053820745 0.015210494 0.0394756 0.0005081341 0.0379884 0.017846076 -0.03478537
-0.050008755 -0.00084692007 -0.0323353 0.0394095 -0.05940595 -0.03746408 0.019592505 -0.01072182
0.040664915 -0.0018193433 0.021318447 0.021754703 -0.007212096 -0.01752654 0.024175625 -0.036308102
0.051180545 0.019655988 -0.029601462 -0.022586355 0.0068584513 0.024738537 -0.009532137 -0.002681341
0.073884524 0.041757137 0.021443881 0.028712256 0.054291304 0.052237116 -0.0054296013 -0.002405311
-0.02626484 0.042487785 -0.037368007 0.035078797 -0.004925532 0.001155636 0.02850823 0.033337686
0.037021715 0.035893224 -0.045245655 -0.0051637017 -0.04358839 -0.03177278 -0.080320835 0.0478157
0.006091019 -0.012644707 -0.079741724 0.04340551 -0.01908439 0.025326924 -0.0073340028 -0.003699347
0.011354892 -0.015742116 -0.030371565 -0.043010004 0.024041438 0.03046487 -0.016692264 -0.08658946
0.0312543 0.0020704377 -0.038170785 0.0024353943 -0.0023520666 -0.02811499 -0.050266497 -0.004718142
0.023608813 -0.009064895 -0.0070253606 0.00198226 0.0005833194 -0.050576843 0.0012329275 -0.013266898
-0.03085436 0.01175025 -0.02310441 0.043612175 0.026311103 0.04576135 -0.01863825 -0.02428573
-0.03573268 -0.076793924 0.0018640396 -0.044276044 -0.055184934 -0.007646878 -0.019619636 -0.009029993
-0.074359916 -0.026987834 -0.028782405 -0.0062532234 -0.072510585 -0.0359091 -0.02732168 -0.011386716

unet_model.enc.2.main.bias f4 [32]
00000000: bdfd 9f3c 74f7 053c 9694 ee3c ab54 56bc
00000010: f5ad 063d a1a4 073d 691e e23a 33fa aebc
00000020: dbe5 e53c be62 1d3b 7d90 1a3d 37c0 263d
00000030: f2af 1bbd 93a2 313d d3d9 d63c 93d4 cc3c
00000040: 7418 c83c 5f20 9e3c 63b3 ed3c eaaa e53c
00000050: c0c2 c6bc 9af7 84bc c37b 7d3c 6248 b63c
00000060: 26c2 8abb 1e09 623b bdf9 673d 1ad9 afbc
00000070: 02ab 72bd 1751 1dbd 92ec ee3c 7fbc 423b
0.019530172 0.008176673 0.029123586 -0.01308171 0.032880742 0.033115987 0.0017251495 -0.021359539
0.028063705 0.0024015154 0.03773545 0.040710654 -0.03800959 0.043367933 0.026226914 0.025003707
0.024425723 0.019302545 0.029016202 0.0280356 -0.024262786 -0.016231347 0.015471402 0.022251312
-0.00423457 0.0034490298 0.056634653 -0.021465827 -0.059245117 -0.03840741 0.02916554 0.0029714403

unet_model.enc.3.main.weight f4 [32, 32, 4, 4]
00000000: 2274 dcbb 1592 723c 6b62 f7bc 0c81 e03c
00000010: ef6a babd 474a 7cbc 4d57 123c 4cd6 50bc
00000020: 26dd 01be 601a 2fbd 3062 093d c06d 573d
00000030: 016c 70bd 1c90 8a3c d9ea 883d 3453 8c3c
00000040: fb7c c8bd 6e2f c2bd d83f 4dbd 2d45 e43c
00000050: 64c0 95bd f62e 5abd 429e 68bd af74 cebc
00000060: 525b 1d3b 7c43 09bd 8541 02bb b7a5 05bb
00000070: 3af3 2c3d 7b67 9abc e033 3e3c c7bb 1bbc
00000080: 2131 16bd 884e 6ebc 5a7b 043c 2e6a 183d
00000090: 6daf cbbc 4b36 7dbc 85fa f2bb 61db 3d3c
000000a0: d77c 70bd b54a 33bc a1a9 423c a169 5a3b
000000b0: 17ee e2bb f1bb da3c 07a6 1bbc 7852 bd3c
000000c0: b643 9bba 094e b9bb 5580 23bd 373c 8cbd
000000d0: 3d31 cc3b b543 94bd fd3d 5ebd f059 12bc
000000e0: ca2e c53b 0226 b1bc 4ab6 dcbc 4a18 4fbc
000000f0: be1c 613d 781d 203d a61c acbc 325c d53c
00000100: fb44 0fbe 4814 ddbd 1c5b 073a 19c4 3d3d
00000110: c66e bcbd bc46 80bd 1279 76bd 9e17 f43c
00000120: 967e bfbd 7a93 afbd 9ced fd3b f33b f93c
00000130: 6e78 98bb c419 8a3c ec69 0e3d a83c 013c
00000140: a83f 3ebd 261e 0a3d ec16 4f3d 70d2 1f3b
00000150: 527c ddbb 7961 fbbc f80a 333d a56a be3c
00000160: 9edc 01bd 0b06 49bd 3782 54bc 546c a0bb
00000170: 81a6 bdbc 2abe 5e3c 7582 0a3d 2ed4 373d
00000180: 9baf 8f3c 9cf7 373c 82cb 873d 3943 a93c
00000190: b0af 563d dfcc 093c eac8 433d dd2a 123d
000001a0: e364 973c 9cfb afbb 3e77 803d b880 9a3d
000001b0: 1b28 003d 8c77 573c 6aa2 f7ba 7347 ab3c
000001c0: 1453 b5bc 1ef4 a93c f658 47bd d0f6 b6bd
000001d0: 4e47 0c3c bd59 cabc 3dd7 3d3c 291f 15bc
000001e0: e065 f83c b6a5 0b3b 8d33 21bd 757a 783b
000001f0: cb39 113d 353c aebd 1ad3 7ebc b688 9ebc
00000200: 33e3 2f3d c964 6f3c a3cf e93c d7bd 963d
00000210: b2df 4ebd 4ad2 46bd f8f2 6dbb 8304 a23c
00000220: b5ec d1bd e58b 8bbd 1088 d73c 0890 4cbc
00000230: 93c1 8eba a2c7 2f3c 6427 07bc ad9d 7cbc
00000240: cd17 6dbd 5e39 bbbc 46fe c8bc d446 0fbb
00000250: a9a9 daba 954a 183d dad5 c23c c435 c83c
00000260: ff74 983c 5587 133d 23d7 da3c 24a7 94bc
00000270: c19e c13b dab6 1a3d e049 0a3d 1411 2abb
00000280: 4e0b f8bc 1fa8 083d 77a7 323b 27f3 143d
00000290: e62a 10bd 817e 41bd 3ae4 083d 4903 583d
000002a0: 42ae 33bd 766c 5ebc c039 053d f3b1 e33c
000002b0: 5cd3 0abe abf8 ff3c b75d ccbc 4e0e 563b
000002c0: 9e35 f93c 7631 253d 1626 313d 3427 dc3a
000002d0: 2577 d23c 964a d63c 1c77 2c3d d591 093d
000002e0: 307d bf3c 2be1 fd3b 4507 963b 99ca 7abd
000002f0: 8ba0 b9bd de8b a1bd e30b 63bd d801 8abd
00000300: e03d 19bd 1f3e 34bd 8241 4dbd 3e6b 81bb
00000310: f1f8 3abd 4c87 e93c dce5 bd3b 40a1 3139
00000320: 8545 dfbc fc79 793b e256 f7bc 6015 36bc
00000330: 4464 9ab9 b9aa 53bd f6d5 65bc 6bb5 393d
00000340: b2b1 603d e528 4b3d 459a 3f3d b70d 25bd
00000350: a2d6 a43d f6c8 963d 76f3 78bc 4a3b 7ebd
00000360: 9f22 843d f2cc 253b bbe4 27bc 6b72 bebc
00000370: 9b3f e73c d924 8e3c 1870 a5bd 676a 73bb
00000380: 7c8a 803d 25e7 7a3d ee9c 5c3d e019 2abd
00000390: 2f48 8c3d 42c9 063c cf82 5e3c 7acc 6cbd
000003a0: ac91 6b3d a5fc b93c 9623 60bc 8f0f f5bc
000003b0: 10ef 1a3d bf68 4ebd 5add 4dbd d190 2dbd
000003c0: 78d0 673d 4b23 473d b84f 433d 358a 313c
000003d0: 0995 df39 3371 303d 37b8 133c 0cf4 233c
000003e0: 8c54 763d 0888 36bc 5caf 013d 7247 523d
000003f0: 32ca bc3c 1558 b9bc 5fb7 20bd 1daf d03a
-0.0067277113 0.0148053365 -0.030198297 0.027405284 -0.09102427 -0.0153985685 0.008931947 -0.012746405
-0.12682018 -0.042749763 0.033540905 0.0525949 -0.05869675 0.01691442 0.06685419 0.017129518
-0.09789463 -0.09481703 -0.050109714 0.027865017 -0.07312086 -0.05326744 -0.05679155 -0.025202123
0.002401073 -0.033511624 -0.0019875478 -0.0020392963 0.042224146 -0.018848171 0.011609048 -0.009505219
-0.036667947 -0.0145450905 0.00808605 0.037210636 -0.024863923 -0.015454839 -0.007415118 0.011587949
-0.058712807 -0.0109431045 0.011881263 0.003332712 -0.006925355 0.026700946 -0.009500033 0.023110613
-0.0011845741 -0.0056550545 -0.03991731 -0.068474226 0.0062314556 -0.072394766 -0.054258335 -0.008932576
0.0060175406 -0.021624569 -0.026942391 -0.012640068 0.05495905 0.039090604 -0.021009754 0.026044939
-0.13991158 -0.10794884 0.00051634177 0.04632959 -0.09200816 -0.062634915 -0.060174055 0.029796418
-0.09350316 -0.08573051 0.0077492725 0.030424094 -0.004653028 0.01685799 0.034768984 0.007887997
-0.046447426 0.033720158 0.05055897 0.0024386905 -0.006759205 -0.030686127 0.043711632 0.023244211
-0.031704538 -0.04907803 -0.012970499 -0.004895726 -0.023150684 0.013595143 0.03381582 0.044880085
0.01753979 0.011228468 0.06630613 0.020661937 0.052413642 0.0084106615 0.04779903 0.03568541
0.018480724 -0.0053705703 0.06272744 0.075440824 0.031288248 0.013151061 -0.0018893008 0.020908093
-0.022134341 0.020746287 -0.048668824 -0.089337945 0.008561922 -0.024700994 0.011586961 -0.009101667
0.030322015 0.0021308488 -0.039355803 0.0037914787 0.035455506 -0.08507577 -0.01555326 -0.019352298
0.042941283 0.014611431 0.028541392 0.07360428 -0.0505063 -0.04854039 -0.003630815 0.019777542
-0.102502264 -0.06813792 0.026309997 -0.012485512 -0.001089143 0.0107287485 -0.008249138 -0.015418452
-0.057884026 -0.022854503 -0.02453531 -0.0021862285 -0.0016682643 0.037180502 0.023783613 0.0244397
0.018610476 0.036017735 0.026713913 -0.018146105 0.0059088175 0.037772037 0.03376186 -0.002595012
-0.030278828 0.033363458 0.0027260461 0.0363647 -0.03519716 -0.047239784 0.03342078 0.052737508
-0.043867357 -0.013575664 0.032525778 0.027794814 -0.1355719 0.031246504 -0.02494703 0.0032662335
0.030421074 0.040330373 0.043249212 0.0016796351 0.025691578 0.026158612 0.04210578 0.033586342
0.023375124 0.0077477894 0.0045785033 -0.06122837 -0.09063824 -0.07888006 -0.055431258 -0.06738633
-0.037412524 -0.044004556 -0.0501113 -0.003949552 -0.045647565 0.028506897 0.0057952236 0.00016940106
-0.02725483 0.0038067093 -0.030192796 -0.011113495 -0.00029447873 -0.051676486 -0.014028063 0.04533903
0.054856963 0.049599547 0.046777982 -0.040296283 0.080487505 0.07362549 -0.015194764 -0.06206826
0.06451916 0.002529916 -0.010247405 -0.023247918 0.028228572 0.017351555 -0.08078021 -0.0037142278
0.06276414 0.061255593 0.053860597 -0.041528583 0.068497054 0.008226695 0.013580992 -0.05781219
0.05751197 0.022703478 -0.013680359 -0.029914645 0.037825644 -0.050392862 -0.050259925 -0.042374436
0.056595296 0.048617642 0.047683448 0.010836174 0.00042644914 0.043076705 0.009016088 0.010006916
0.060139224 -0.011140831 0.031661376 0.051337667 0.023045633 -0.022625009 -0.039237376 0.0015921328

unet_model.enc.3.main.bias f4 [32]
00000000: b2ff 163d 6f4d 703c c471 edbc e327 933c
00000010: a290 96bc 754b 073d d75e 353d 0101 513d
00000020: 2f93 27bd 753d 743b 66fe 313c a2dd 4dbd
00000030: 0386 cfbc 6418 3dbc 2353 383d 2f89 5a3c
00000040: 8b7d 7ebd 52ff 0a3c c1e7 b9bc 247b 85bd
00000050: c974 143d 2071 df3c b157 0bbd c71c 5ebd
00000060: d733 9d3c c63e dcbc b9e6 1d3d 0921 6ebc
00000070: 4934 953d 961b f2bb abbd 0d3c 1aba a2bc
0.036864944 0.014666899 -0.028984912 0.017963355 -0.018379513 0.033030946 0.0442799 0.051026348
-0.04091185 0.0037268077 0.010863876 -0.050260194 -0.025332456 -0.01154146 0.04500116 0.013338371
-0.062131446 0.008483725 -0.022693517 -0.06517628 0.036244188 0.027275622 -0.034019176 -0.054226663
0.019189758 -0.026885401 0.038550112 -0.014534243 0.07285363 -0.0073885424 0.008651177 -0.01986413

unet_model.dec.0.main.weight f4 [32, 32, 3, 3]
00000000: 046e 82bd 6f2e 2a3d d7c3 f93b 20f8 0bbc
00000010: aa14 383c a511 563d a1a0 68bc cb21 6dbd
00000020: 8a17 7abd a728 8cbd fb6f a13c d3fe c53c
00000030: d848 7abd c220 c23c cd9d a8bd 3bf6 83bc
00000040: 9542 13bd f920 4f3c 9634 1bbd a201 3d3d
00000050: 7019 07bc b4c1 713c bc82 b5bc 4475 4a3d
00000060: 1610 10bd 84c5 353d f5db 913d 5878 133c
00000070: 9626 023c 4fda 8d3d 4f4e 093d afe2 9739
00000080: 8c77 1abd 49f6 7fbd bb5f 9d3c bad8 1c3c
00000090: 0fbd 303d e5ca 67bc 3bab 653c e66f 8c3c
000000a0: cacc 103d 6fbd 55bd 1a40 84bc efc5 023c
000000b0: e8be ab3c 7410 67bc 0e47 a4bc fecf ef3c
000000c0: 291d d53c cea9 4f3c c7f3 eabc 5239 163b
000000d0: a5ac 853c 79d2 86bd 2d1a 783c 4b0e 1bbc
000000e0: 9d97 ed3b d731 9f3c 3106 5d3d 856b 1f3d
000000f0: e90d f13c 8240 9cbc efe6 2cba 2f05 1d3d
00000100: 14e6 223d 5801 04bd 8859 d03c 5e47 e43b
00000110: 84a0 46bc f692 cc3b f590 71bd 2033 48bd
00000120: 280b 8dbd f67f 84bc 0d66 fdbc 1575 643b
00000130: f541 203d 5a67 fa3c 768b 6f3d a88f 9a3d
00000140: 0e56 753d 25e0 d5bb 757f 72bd ad2e 8fbc
00000150: 83a1 8c3b e5ab 1fbd 8144 15bd 3c8b 843d
00000160: 71cb 3ebc b831 85bd 630c 6cbc aa7e b43d
00000170: e903 f73b 4419 6c3c 95b3 d53d 1c6b 4dbc
00000180: 2f87 d23a 89a9 c73c 3584 fdbc adcd fd3c
00000190: 6ee1 c43c abd8 093c 5540 303d d451 853c
000001a0: 857b 0fbd dee4 db3b 3002 31bd e962 b33b
000001b0: 714c 83bd 1646 0f3d 9743 45bc 575f 84bd
000001c0: 7b4c ec3a 5ef9 a33d 92ad a83c e822 3a3d
000001d0: 7a0c 0e3c fde8 8ebd c58b 193d 1493 2abd
000001e0: a0db a33d eaac 2ebc ee9f ebbb 2231 32bb
000001f0: 5baf 87bc 3e59 aebb bf81 74bd 83cc edbc
00000200: c73f 073d 4a91 5cbd 2e50 623d 0a6d 50bc
00000210: ee85 c23c d614 2e3d 7911 8d3d 4fc8 d1bc
00000220: 566e be3c 2ac9 19bc 6cb2 613c a0d9 8e3c
00000230: 72cb d0ba f013 82bd ba6f 9abc d90d 7c3d
00000240: d44c e43d 781a 43bc 42c7 71bc d635 813d
00000250: f44b 2c3c 9e2b 2b3d 2ff0 693d a966 bc3d
00000260: 7ff7 843d 878d 12bb afdb 573d cd73 9c3b
00000270: 8a8c 9a3d de71 93bc 38ee 14bd ed10 833d
00000280: 3ba4 c13c 959e 42bd b232 3fbb 0231 2fbd
00000290: d1bf 43bd b286 d93d 81c1 01bd 2076 07bd
000002a0: 4960 803d 72ff 63bc 5935 b23c 52a9 203c
000002b0: ab25 aa3c e0a2 0a3d 31a2 baba b060 043d
000002c0: 9d31 cbbb a5cd 853d 729d 05bc 7e04 34bd
000002d0: fa14 7e3d f2c1 063d a991 423d b649 a6bc
000002e0: 3394 033d 780a 62bd 1ac0 a4bc ecd5 ddbc
000002f0: deca cdbc 72f3 c0bd c1f9 b6bd cee9 37bc
00000300: 547e 59bc 3587 e4bb 6a79 ea3c 7347 3e3d
00000310: c2d3 6c3d 2e51 ee3b 0b0a 33bd 73b6 683d
00000320: 703f 753c d80c 263c 7f23 943d 1068 a73d
00000330: 066e 413d d7f6 fa3d b4a9 1e3d bcb4 c93d
00000340: 3a92 4b3d 8a4f bf3c a1c5 153d dd23 0f3d
00000350: b415 ddbc 4d65 75bd a307 7fbd b33f 4ebc
00000360: d8b8 bbbd 0dd3 30bd 6df2 46bc 3540 07bd
00000370: d68d 5f3d 3b22 193d fdbd 173c f816 e03c
00000380: 93d6 943d 27e7 eabc 5d23 453c 765b afbd
00000390: f734 623d 3cd9 513d 314b c3bd 3e2d bf3d
000003a0: b928 213c 6202 83bc 6c76 b9bc e289 32b7
000003b0: 523b b2bb c7d2 373d 97cc 0b3d 2b47 86bc
000003c0: 6c31 ccbc 620d b03d 8979 4dbc 6f3e 253b
000003d0: eeef 643c f036 9e3c 074a f5bc 2f00 ffba
000003e0: cf4a 2fbc 690c 28bd 8ffb a73c 8cbe 78bd
000003f0: 02bf abbd 0168 38bc d4be 123c 47ac 243d
-0.0636864 0.04154819 0.007622223 -0.008543044 0.011235395 0.05226292 -0.014198453 -0.057893556
-0.061057605 -0.06843691 0.019706717 0.024169361 -0.061104625 0.02369726 -0.08233223 -0.016108623
-0.03595217 0.012642139 -0.037891947 0.046144135 -0.008245811 0.014755655 -0.022157066 0.04942824
-0.03517159 0.04437782 0.071220316 0.00900086 0.00794377 0.06926405 0.033521947 0.00028969857
-0.037711665 -0.062490735 0.019210687 0.009573156 0.04314905 -0.014147495 0.014017875 0.017143201
0.035351552 -0.05218261 -0.016143847 0.007981761 0.020965055 -0.014103044 -0.020053413 0.029273983
0.026014881 0.012674762 -0.028680695 0.002292235 0.016317675 -0.06583113 0.01514296 -0.009463857
0.0072507397 0.019432945 0.053960983 0.038920898 0.029425578 -0.019073728 -0.0006595691 0.03833502
0.0397702 -0.032227844 0.025433317 0.0069665154 -0.012123231 0.006243105 -0.058976132 -0.04887688
-0.068868935 -0.016174298 -0.03093245 0.0034859825 0.0391254 0.03056686 0.05848261 0.075469315
0.05989652 -0.0065269643 -0.059203584 -0.017478311 0.0042917146 -0.03898229 -0.036442284 0.06471869
-0.011645184 -0.06503624 -0.01440725 0.08813222 0.007538308 0.014410321 0.10434643 -0.012537744
0.0016062016 0.024372833 -0.03094683 0.030981863 0.024033275 0.008413474 0.0430301 0.01627437
-0.035029907 0.0067106327 -0.043214977 0.0054744375 -0.064110644 0.03497895 -0.01204004 -0.06463497
0.0018028164 0.080065474 0.020590577 0.045443445 0.008669967 -0.06978033 0.03748681 -0.04164417
0.080008745 -0.010661343 -0.007190696 -0.002718993 -0.016563108 -0.005320697 -0.059694048 -0.029028183
0.033019807 -0.053849496 0.055252247 -0.012721309 0.023745503 0.04250034 0.06888098 -0.02560821
0.023245972 -0.00938634 0.013775449 0.017437756 -0.0015929772 -0.06351459 -0.018852104 0.061536644
0.11147466 -0.011908166 -0.014756979 0.063090965 0.0105161555 0.041789643 0.057113823 0.09199268
0.06492519 -0.002236219 0.05269974 0.0047745467 0.07546337 -0.017998632 -0.036359996 0.06399713
0.023637882 -0.047514517 -0.0029174504 -0.042771347 -0.047790352 0.10621394 -0.03167868 -0.033071637
0.06268365 -0.013915883 0.021753954 0.009805994 0.020769915 0.033846736 -0.0014239011 0.03231877
-0.0062009827 0.06533364 -0.008155214 -0.043949597 0.062031724 0.032899804 0.047502194 -0.02029882
0.032123756 -0.055185765 -0.020111132 -0.027079545 -0.025121149 -0.094214335 -0.089343555 -0.011225177
-0.013274748 -0.0069741257 0.028622348 0.046454858 0.057819135 0.007272861 -0.04371075 0.056814622
0.014968738 0.010134898 0.07233333 0.08174145 0.047224067 0.12254112 0.03873606 0.098489255
0.0497 0.023353357 0.036565427 0.03494631 -0.026987888 -0.05991106 -0.062263142 -0.012588429
-0.091661155 -0.043170024 -0.01214276 -0.033020217 0.054578625 0.03738616 0.009261605 0.027354702
0.07267489 -0.028674675 0.012032357 -0.08562367 0.055226292 0.05123256 -0.09535826 0.09334801
0.009836369 -0.015992347 -0.022639476 -1.064173e-05 -0.0054392004 0.044878747 0.03413066 -0.016391357
-0.02492591 0.085963026 -0.012541183 0.0025214215 0.013973219 0.019313306 -0.029942526 -0.0019455011
-0.010698988 -0.04102746 0.020505695 -0.060728595 -0.08386041 -0.011255265 0.00895663 0.04020336

unet_model.dec.0.main.bias f4 [32]
00000000: e62a 9ebd d766 56bd d4f0 5abd 4304 7ebd
00000010: 61a7 133d ca10 023d f9bf 093d ccd4 fabc
00000020: 0548 19bc fba2 873c cbfb d63a cc4a a13c
00000030: 1b2c 143c d8f6 363d 35b8 28bd 43af c2bc
00000040: 7f5e 5dbd 3835 c33c c14b 39bc 4234 20bd
00000050: 4f85 5b3d 56c4 ac3c 659d c1bd 279f 533d
00000060: 120d 163d cbac 153d 1339 fc3c 4746 c5bc
00000070: ffee f03c 95b2 60bc 597d 883a 4dc6 ebbc
-0.07723026 -0.05234417 -0.053452328 -0.062015783 0.036048297 0.031754293 0.033630345 -0.030619048
-0.00935555 0.016557207 0.0016401944 0.019688986 0.009043719 0.044669002 -0.0411913 -0.023765212
-0.054045197 0.023829088 -0.011309565 -0.039112337 0.05359393 0.021089714 -0.09453849 0.05166545
0.03663356 0.03654174 0.030788934 -0.024081362 0.029410837 -0.013714452 0.0010413333 -0.02878108

unet_model.dec.1.main.weight f4 [32, 64, 3, 3]
00000000: fdf7 b03a 30b5 283c 047f c2bc 3521 873c
00000010: 647c 233c 64e9 cdbc 4432 aa3c 975c 80bc
00000020: 20db 183d 7556 033d 9465 21bd b71f a83c
00000030: 03a6 f0bc 0a78 62bc c54c a0bc a2ef b5b6
00000040: d018 32bc bf49 823c bed4 0ebd b063 4ebb
00000050: 6539 af3d 04cc c13c 958a 243c 44ab 3d3d
00000060: 6660 513c 9450 723d e19e 9b3d 8bc1 cb3c
00000070: f5d4 93bb c5c2 8a3c eb49 8ebd 3712 81bd
00000080: 3f9e 98bc a143 45bd 7b17 dbbb 55aa 653c
00000090: 7fde b93c 43cd 04bb dcc3 f9bb eee2 30bc
000000a0: 7fb2 44bc 4e0c 983b eb28 553d f6ac d63c
000000b0: d1b5 563c 811e 843d ecd9 ccba bd29 56bc
000000c0: 2425 2c3d f3da 443c 4441 343b 4140 b53a
000000d0: 9096 f7bb b79b e9bc 98ec 4abd 88ee 07bd
000000e0: a3fb 24bd 2b33 89bd ff93 23bd f846 d83c
000000f0: a5e6 c8bd 69ba 34bd ecba 4b3c 5eb2 24bd
00000100: 711e 273c 168d 273c 68b8 74bd 6ed5 6c3c
00000110: 19db cbbb 8feb 92bb ce6c 0cbd 7afc 12bc
00000120: 3d84 76bd 8222 78bd 3159 08bd 12a7 90bd
00000130: b0a4 0ebd 4b93 7bbc 9bcf 82bd ad8d 39bd
00000140: 4e02 0abd 8045 193b 6f3e 123c 4f71 16bd
00000150: 8267 8b3c 136b 933c 696a 4fbc b7ed 86bd
00000160: 80fc c039 a7e1 40bd b881 823d 6576 1bbc
00000170: 91de 47bd be5c 4a3c ed67 833b 077f f5bc
00000180: aefe d13c fef5 31bd 63c0 9bbc 1e75 2bbd
00000190: f3a8 a63c 2d2e 52bd b87f 48bc fe6c 51bd
000001a0: 11dd 5fbd 40a3 6c3b 3526 febb cb2c e43b
000001b0: a10d b53c 2d3e 8d3c d068 b33d 6d84 863b
000001c0: 2330 c33c c86f a63c a9df 6b3c 3cbf c93b
000001d0: 9fd5 4b3b 6fc7 27bc 0ebd e53c 1754 22bd
000001e0: b5f3 7e3a 0d2f f6bc f79a 68bd f950 1bbd
000001f0: fe7b 35bd 8f9a 6fb9 ff6c 9d3b b85b f53b
00000200: c8cc a1bc 65e1 88bc 7d75 e2bc cba6 6cbc
00000210: d7e8 3ebd 9770 de3c 6337 3ebd 050f 8d3c
00000220: 5177 563c 651f c9bb 257f 673d 33f2 21bb
00000230: 4834 aa3c 65b5 97bc 8dce 223d c27b ee3c
00000240: e71d 25bc c4d1 30bd db06 ffbc 5781 91bc
00000250: 720b 54bd 8a15 7bbc 0ad0 b3bc 1b53 58bd
00000260: fbf3 31bd e165 2bbb 6b4e b4bc f5bb cabc
00000270: dfe4 60bd c6a3 37bd 6728 9c3b 3125 ca3b
00000280: 21e5 a03c dee5 b33c fa0d 1d3c ec63 0bbc
00000290: 5b29 433d 1d1f 2bbc 60eb e63c f65f 473c
000002a0: 4abd febc 1847 fd3c 2222 453d f52f 43bc
000002b0: acc5 85bb 82da 093d 6c1d 95bb c86b c6bc
000002c0: 2371 0cbd 2203 c6bc 1586 3bbd 9f88 153c
000002d0: c5e9 88ba b490 13bd dd7c eb3b 3e5c 5cbd
000002e0: 9b09 6cbd caa2 23bd 72bf e63b 968e 2bbd
000002f0: 69fd 05bd 2300 25bd 2401 81bb 7fd5 563d
00000300: 8da5 bfbc f63e 5ebc 61db 7bbc f11e f83b
00000310: da11 85bc b119 c93c 5fe9 33bc bd24 14bd
00000320: 500b 0abc bad7 7fbd 60d3 5c3c 16da c0bb
00000330: 62ff 01bd 1c95 bcbc 171b 6abc d96c 913b
00000340: d2c4 79bb dba6 cb3c 2034 313d 7ec4 b43c
00000350: 55fb 21bd c352 093d 3cc3 223c b1f5 c6bc
00000360: a9a5 42bd 5254 28bc 0b25 2c3c 1b2c 15bd
00000370: 2857 43bd db4d 8f3c 8e9f bb3c 526d e93b
00000380: eb91 63bd c7a1 983c 96de 4a3d f476 93bb
00000390: 1a1a 16bb 7c6c 903c b98c d53c 6a1d 033d
000003a0: ffa3 343d 42fa bc3c e017 0f3d 2b3e ad3b
000003b0: aee6 72bd 6e6e 61bb ca12 103b b207 41bd
000003c0: d57c 663d 436a 303d f466 d7bc 5da3 eb3c
000003d0: 39ac 29bd 6dc9 d03b a7fb 81bc 3f49 a33b
000003e0: fad8 34bb aac5 efbc ea0c b2bc 477e 7fbd
000003f0: 2875 853d 5787 fd3c 79f3 023d 8dda 133c
0.0013501641 0.010297105 -0.023742206 0.016495327 0.0099783875 -0.025135703 0.020775922 -0.01566915
0.03731835 0.032064874 -0.039403513 0.020522935 -0.029376036 -0.013822565 -0.019567857 -5.4221173e-06
-0.010870174 0.015904306 -0.034870856 -0.0031492524 0.08555869 0.023656853 0.010042806 0.04630591
0.012779331 0.059158877 0.07598663 0.024872562 -0.0045114704 0.016938576 -0.069476925 -0.06302302
-0.018630145 -0.0481602 -0.0066861487 0.014017661 0.022689102 -0.0020263947 -0.007622225 -0.010796292
-0.012005447 0.0046401387 0.052040976 0.026205521 0.013104872 0.06451131 -0.0015628911 -0.013071475
0.042027608 0.012015092 0.0027504722 0.0013828353 -0.0075557902 -0.028516633 -0.04954204 -0.033186466
-0.040279042 -0.06699213 -0.039936062 0.026401028 -0.09809617 -0.044123087 0.012434702 -0.040209167
0.010200129 0.010226509 -0.059746176 0.0144551825 -0.006221187 -0.004483647 -0.03428345 -0.008971328
-0.060184706 -0.060579784 -0.033288185 -0.07063116 -0.034825027 -0.015354942 -0.06387254 -0.04530113
-0.033693604 0.0023387372 0.008926018 -0.036729153 0.01701713 0.017995393 -0.0126596475 -0.06588309
0.0003680922 -0.0470902 0.06372398 -0.009488677 -0.04879624 0.012351213 0.0040101917 -0.029967798
0.025634136 -0.043447487 -0.019012636 -0.04185974 0.020344233 -0.051313568 -0.012237482 -0.051129334
-0.054654185 0.0036108047 -0.0077560195 0.0069633476 0.022101225 0.017241562 0.08760226 0.004105142
0.023826664 0.020316973 0.014396586 0.00615683 0.003110267 -0.01024042 0.02804425 -0.039630976
0.0009725646 -0.030051732 -0.05678841 -0.03791902 -0.0443077 -0.00022850394 0.004804253 0.0074877404
-0.019750968 -0.016709039 -0.027643913 -0.014444063 -0.046608772 0.027153296 -0.04643954 0.017219076
0.013089971 -0.0061377757 0.05651774 -0.0024711012 0.020776883 -0.018519113 0.039747763 0.029111747
-0.01007793 -0.043168798 -0.031131199 -0.01776187 -0.051768728 -0.0153249595 -0.021949787 -0.05281363
-0.04344557 -0.0026153254 -0.022010049 -0.024747828 -0.05490577 -0.04483392 0.0047655585 0.0061689843
0.019640507 0.021960195 0.009585852 -0.00850771 0.04764686 -0.01044443 0.028188407 0.012168875
-0.03109612 0.03091769 0.048128255 -0.011913289 -0.004082402 0.03365565 -0.0045506265 -0.024221316
-0.034287583 -0.024171416 -0.045782167 0.009126811 -0.0010445645 -0.03602667 0.0071865157 -0.053798907
-0.057626348 -0.03995017 0.007041865 -0.041884027 -0.032712374 -0.040283334 -0.0039369036 0.0524497
-0.02339437 -0.013564816 -0.015372128 0.007572048 -0.016243864 0.024548383 -0.010980933 -0.03616785
-0.008425549 -0.062461592 0.01347813 -0.005885373 -0.031737693 -0.02302032 -0.014288685 0.0044380245
-0.0038111699 0.024859836 0.0432626 0.022066351 -0.03954633 0.033526193 0.009934243 -0.024287077
-0.047521267 -0.01027401 0.010506879 -0.036419015 -0.04769054 0.017493179 0.02290323 0.0071236277
-0.05555908 0.018631829 0.04952868 -0.0045002643 -0.0022903741 0.017629854 0.026068078 0.032010473
0.04410171 0.023068551 0.03493488 0.005286952 -0.059302025 -0.0034398097 0.0021983855 -0.04712648
0.056271393 0.04307009 -0.026294209 0.028764421 -0.04142401 0.006371668 -0.015867068 0.004983097
-0.0027595148 -0.029269058 -0.021734674 -0.062376287 0.065164864 0.030948324 0.031970475 0.009024275

unet_model.dec.1.main.bias f4 [32]
00000000: 4999 893c 1ab5 143d cebe d3bc eaa3 933b
00000010: e870 75bc 38d3 0f3d 83fa 203d fd39 5fbc
00000020: a589 c5bc 9c55 0ebd 3679 80bd 5827 9ebc
00000030: 5315 c5bd 4ad6 b3b9 b089 aaba 0213 463c
00000040: af88 8f3c f659 a0bc ecf8 f23c 0353 eabc
00000050: 986f 48bc 889e 313c 1664 993c 64cf f4bb
00000060: d451 88bc 4d05 033d 3244 a3bd 0f5c 01bd
00000070: 3175 e73c bf25 af3c 80ed 8bbc 15a4 113d
0.016796725 0.036305524 -0.025847819 0.004505624 -0.014980532 0.035113543 0.039301407 -0.013624665
-0.024113486 -0.034749612 -0.06273119 -0.01930587 -0.09623208 -0.00034301198 -0.0013011005 0.012089493
0.01752123 -0.019574147 0.02965971 -0.028604036 -0.012233637 0.010841019 0.018724483 -0.007471012
-0.016640581 0.031987477 -0.079719916 -0.031581935 0.028254123 0.021380303 -0.017081022 0.03555687

unet_model.dec.2.main.weight f4 [32, 64, 3, 3]
00000000: 5030 41bd e526 f1bc 9462 6dbd 1361 4bbd
00000010: 0e56 a2bc b947 e7bb 7459 23bd ba74 89bd
00000020: 2ec0 1db9 56c2 25bd c4de 40bd dc0d f63b
00000030: 2492 21bd dbcd f3bc 69f8 45bd 800a c2bc
00000040: b413 2bbd b710 15bd 49cf bfbb 39f3 14bd
00000050: ec89 19bc 637d 39bd 9e5c 28bc 5f6e 41bd
00000060: 3755 0dbd f673 00bc bb10 7239 c600 fcbb
00000070: a4ee 483d 8b81 2a39 9b20 81bc 20c9 d2bc
00000080: 244a 6fbc 48cb 1dbc b3f0 4bbc fba2 92bc
00000090: 9cac 48bc bfa8 ffba f676 233c 334a f5bc
000000a0: 5aad 343c 05b3 9b3b da87 2abd 9920 abbc
000000b0: 4f77 ecbc 874e 9dbc 876a 3c3c 8daf 32bd
000000c0: 4c20 25bd 2720 8dbb 1917 a2bb 465f ba3b
000000d0: cf5e 25bd 7aec 8c3b d733 8a3a 0eda b8bc
000000e0: 223b 78bc 988d a6bc d814 b93b 1aa4 c6bb
000000f0: b3f5 443c 5d71 aabc e5c3 4dbd afc3 7d3b
00000100: a7f6 183b 5573 76bd bd24 a6ba 58b1 823c
00000110: c1f6 e7bb 6b66 0ebd 255f f83b aa74 5bbd
00000120: a2ec 12bd 88be 303d ee35 1f3d 017f 9d3c
00000130: d751 dd3c db87 103c 7094 953c 649c 8f3c
00000140: e744 05bc 741f f6bb 1736 d3bb fa95 e03a
00000150: bdbe ff3c d14f a7bc 613f 003d eef8 843c
00000160: 575e 5fbc 4c4c c739 36d5 1bbc af2b b4bb
00000170: b42c 44bd 8b75 eb3b 754c 68bd 285f d8bc
00000180: 9cba 00bd 4b27 f4bc 5e7c 4bbd 9b7b f1bc
00000190: 7056 e13c a9ce 42bd f454 babb 6d19 843c
000001a0: 4304 02bd bd3d b13b e200 4bbc 714c 63bd
000001b0: 0d6b b13c 01d1 853b 06ff 31bc 7d70 0c3d
000001c0: 823c bebc b652 a4bb b3df 86bc 4a0f 55bc
000001d0: afd6 d63a 2f3d 08bc 0bdd 883b 499a 06bd
000001e0: 0307 2cbd 30fb 36bd 32d0 7e3c a895 d1bc
000001f0: 39ec 533c 4e64 c53b 50da a5bc d9d0 b63b
00000200: 6442 e23c 2252 7d3b d324 ad3c 3ff4 f6bc
00000210: 0fb0 fb3c 2770 34bd c6b3 c4bc 2dad 0cbd
00000220: 853d d5bc 0e9a 2dbc af6b 46bd 9c36 b33c
00000230: f39d 60bd 3de7 83bd 481c efbb d114 a5bc
00000240: fa83 7f3c 8e17 e43b 8510 dfbc d27e d13c
00000250: 3c3f 183d a01f 183c dc75 153d d141 d9bc
00000260: 6722 5f3c 5115 22bd e6e8 8bbd 8d75 72bd
00000270: 810c 3c3c 6388 0fbd 81c6 23bc 12ce 14bd
00000280: 1af3 6bbd 180f 02bd b071 da3c 9e8b 983c
00000290: fe18 3bbd 4f20 cd3c b4d1 f03c 7e3d 8dbc
000002a0: 0522 95bd 2207 03bd f4cb 82bd ddc4 333d
000002b0: 1cb1 0c3d ae9a 38bc 18bc 29bc 8ce2 c239
000002c0: ef90 10bc 2bea 7dbc 148a c0bc 45b3 fabc
000002d0: 3dfe e13c 1459 d7bc b11b 24bc 559d 1cbd
000002e0: 2b8c f23c 531a 5abc 64bb a83a 2c3c f93b
000002f0: e0dc 87bd 65c9 c9bd 4e47 9fbc b210 7abd
00000300: 1d03 08bd 159c 57bc d21d e6ba 57a3 8cbd
00000310: 0c51 11bd bbbf 09bd a34f 023d a031 4c3b
00000320: 9d0a ee3c f452 6d3c 28e5 20bd 5f99 a2bc
00000330: df90 653b 5b7e 59bc 84ce 49bc 0545 66bd
00000340: e803 223d 8700 b6bc e55a ef3c f693 283b
00000350: 6248 2b3d 6e3f 953a a99f 23bc 9d98 c7bc
00000360: e5f8 43bd 0d4a 293c 0228 833d 05f8 0fbd
00000370: 3d16 263c 6719 edbb 6c7c 59bd fb21 2cbd
00000380: 3ddc a13c e366 5cbd 147f 65bd 9ec6 0b3c
00000390: ee9d 90bc 5ee6 34bc 0b7f c43c c04c 45bd
000003a0: fefe 14bb beae b03c 2f86 01bc f422 bf3c
000003b0: df8b 44bd 94aa 7f3c 5362 27bb 758a 4cbd
000003c0: e023 2ebd f696 1f3c f4b2 14bd 7836 bf3c
000003d0: e3c2 bbbc 47fb febc 708a f0bb 35be 433d
000003e0: ad04 753c dc18 5b3c 16f6 1cbc a6b7 403c
000003f0: 21a4 19bc 57ae f83c 67d2 fd3b d9ee 34bd
-0.047165215 -0.029437492 -0.05795534 -0.049653124 -0.019816425 -0.0070581106 -0.03988023 -0.06711717
-0.0001504428 -0.040468536 -0.047087446 0.0075089764 -0.03944601 -0.029761245 -0.048332606 -0.023686647
-0.041766837 -0.036392894 -0.0058535677 -0.036364768 -0.009371262 -0.045285594 -0.010275988 -0.0472244
-0.034505095 -0.007840147 0.00023085151 -0.007690522 0.04905571 0.00016260722 -0.015762618 -0.02573067
-0.014605079 -0.009630986 -0.012447524 -0.01789998 -0.0122481845 -0.0019505246 0.009977093 -0.029942608
0.011027658 0.0047515654 -0.041633464 -0.020889567 -0.028865485 -0.019202484 0.0115000075 -0.04362445
-0.040314004 -0.0043068114 -0.004946601 0.005687627 -0.04037362 0.004300651 0.0010544014 -0.022564914
-0.015150817 -0.020331189 0.0056482367 -0.006062043 0.01202147 -0.020806009 -0.050235648 0.0038721373
0.0023340376 -0.060168583 -0.0012675744 0.015953705 -0.007078976 -0.034765642 0.0075797015 -0.053578056
-0.035870202 0.043150455 0.03886979 0.0192256 0.027016563 0.008821453 0.018259257 0.017530628
-0.008134103 -0.0075110737 -0.006445657 0.001713454 0.03121888 -0.020423802 0.031310443 0.01623198
-0.013633332 0.00038013083 -0.009511283 -0.0054983716 -0.047894195 0.007185643 -0.05671354 -0.026412562
-0.031427965 -0.029803893 -0.049679153 -0.029477885 0.027507037 -0.047560368 -0.0056863967 0.016125405
-0.031742346 0.005408971 -0.012390347 -0.055492822 0.021657491 0.004083753 -0.010864025 0.034286965
-0.023222212 -0.0050147427 -0.01646409 -0.0130041335 0.0016390885 -0.008315369 0.004176741 -0.03286198
-0.041998874 -0.044673145 0.015552567 -0.025584057 0.012934738 0.00602392 -0.020245701 0.005579096
0.027619548 0.0038653691 0.021135723 -0.030145762 0.0307236 -0.04405227 -0.024011504 -0.03434484
-0.026030311 -0.0105958115 -0.04844254 0.021876626 -0.054838132 -0.064405896 -0.0072970726 -0.020151528
0.0155954305 0.0069608158 -0.027229557 0.025573168 0.03716968 0.009284884 0.036489353 -0.026520642
0.013619042 -0.03957111 -0.06831531 -0.059194136 0.011477591 -0.035042178 -0.0099960575 -0.036329336
-0.057604887 -0.031752676 0.026665539 0.018621262 -0.04567813 0.02503982 0.02939687 -0.017241236
-0.07281879 -0.031989224 -0.06386557 0.043888915 0.034348592 -0.011267347 -0.010359786 0.00037171354
-0.008823617 -0.0154977245 -0.02350334 -0.03060306 0.02758705 -0.026287593 -0.010016368 -0.03823598
0.029607853 -0.01331194 0.001287323 0.00760605 -0.066339254 -0.09852866 -0.01944318 -0.06105108
-0.033206094 -0.013159771 -0.0017556495 -0.06867092 -0.035477683 -0.033630114 0.03181423 0.0031157508
0.029057795 0.01448511 -0.03928104 -0.019848524 0.0035028977 -0.013274754 -0.012317304 -0.056218166
0.039554507 -0.022217048 0.029218147 0.0025722957 0.041817077 0.0011386701 -0.009986796 -0.024364764
-0.047844786 0.0103325965 0.06404115 -0.03514864 0.010137138 -0.007235694 -0.053097174 -0.042024594
0.019758338 -0.053809058 -0.056029394 0.008531241 -0.017653432 -0.011041252 0.02398636 -0.048168898
-0.0022734995 0.021567699 -0.007905527 0.023332097 -0.047984954 0.015604634 -0.0025540784 -0.04993673
-0.04251468 0.009740582 -0.036303475 0.023341402 -0.022920078 -0.031125678 -0.007340722 0.047788817
0.014954728 0.013372626 -0.009580156 0.011762535 -0.00937751 0.03035657 0.007746029 -0.044173095

unet_model.dec.2.main.bias f4 [32]
00000000: 1081 033c cd72 93bc de77 cebd e7e7 953c
00000010: 89ce 50bc 09e4 07bc 49ac 313d d4a6 a8bd
00000020: 820b 4dbc c6cb 1c3d dddf a13c 483d 4f3c
00000030: 8bc5 f13c 7839 673d c6a8 dd3c 2b23 e43c
00000040: 88e8 3abc 5b97 7a3c 030a 9cba 143b 4f3d
00000050: ecc0 a6bd fd14 23bd 2791 91bc 0bd0 d9bb
00000060: 8d48 4b3b 3d29 063d 1b6c 603b f810 a83d
00000070: dec0 cb3a bde1 623d 1133 2e3d a187 f73c
0.008026376 -0.017999077 -0.100814566 0.018299056 -0.012744554 -0.008294114 0.043377195 -0.08234945
-0.012514951 0.03828027 0.019760067 0.012648888 0.029513141 0.05645129 0.027058017 0.0278488
-0.011407979 0.015294875 -0.0011904839 0.05059345 -0.08142266 -0.039814938 -0.01776941 -0.006647115
0.0031018585 0.03275417 0.0034244123 0.082063615 0.001554515 0.055391062 0.04252917 0.03021604
