experimental_results/08250716_decolearn_is_optimize_regis=[true]/regis_model/latest.pt (torch, 975031 bytes, 25 tensors)

unet_model.enc.0.main.weight f4 [16, 2, 4, 4]
00000000: e283 763b 3342 413d cd8b cf3d 76c1 a5bd
00000010: 0c2e 56be f3c8 ae3d 0ea4 91bd a064 1f3e
00000020: 10d9 19be df8a 4ebe a1ee 263e 412b 1a3e
00000030: 3346 ccbd 20e9 55be 0f51 00be 1922 423c
00000040: 209b 87bc 9b1e 6dbd fd91 6d3e e412 a2bd
00000050: ed51 ecbd 1e54 01be 46f0 9a3d 8fb7 5f3e
00000060: d9a2 673d aea6 113e c932 e1ba 64b7 783e
00000070: 3edd 07be 0b8e 4cbe b411 09bc 40d8 303e
00000080: e6ce 44be 3d29 96bd da66 e2bd b4b2 af3d
00000090: d747 8a3c 74ba eabd f796 d1bb d45f e03c
000000a0: f309 f03c 084a 4fbe 272f adbc 087c 2ebc
000000b0: 3185 3abc e925 893d 7ac6 85bd f5bd 463e
000000c0: d001 e53d 4ce7 883d a8f1 053e 44cb bcbb
000000d0: a1d4 bb3d c1ab 833d 67c6 4bbe fb3f bcbc
000000e0: ceff 4c3d cd3b d5bd 6604 51be e6e6 cc3d
000000f0: d38b cebd 15ce 00bc 4d14 c23d 38b1 31be
00000100: ce77 39bc 88f8 5d3e 2af4 423e b07e a3bd
00000110: 36f7 9f3d a7fa 453e 1f93 143e 1a75 343e
00000120: 0a73 5d3d 89d5 103e 36a3 273e 2bf0 a1bd
00000130: 2df7 863b 49b5 3a3e b087 b13d c5d8 60be
00000140: f65a dabd d13a 193e 5e80 d93d 1c19 1ebe
00000150: b08a bebd 89ac 50bd 51d8 d6bc 2d0f 1ebe
00000160: 3ec1 87bd a967 70b9 f069 35be 1f95 85be
00000170: 3269 29bd 9299 0ebc eca4 78be 380e 0abe
00000180: 6c04 8bbd a9f2 68bc 66de 2abc ac26 69be
00000190: 5331 e8bc 39af 503d 6e20 6abe 7eaa e2bd
000001a0: 4ccf 773d f029 5e3d 5182 85be 1570 eabd
000001b0: 0266 2a3d cc67 21be ddb2 0abd f16e 5abe
000001c0: c997 aa3d b8d5 1b3e 74e7 223e e6f4 543d
000001d0: 035f 533e 590d 75bd b986 87bd 6944 9dbd
000001e0: 73cf 243e 049f 2a3e da69 363e 3363 3bbe
000001f0: c24d 1e3e efdf d03d 4690 1a3e a4c1 65bc
00000200: 3af1 fbbd 034e e9bd c759 303d 1687 c43c
00000210: 5aec 73be b93d 74bd ebfc f3bd ddb3 e03d
00000220: 8b70 e4b9 2bf3 27be 0d11 273e 4532 b23d
00000230: 1e44 6ebe 82e0 003e db3a 093e 6cdb 6e3e
00000240: f337 f6bc 4e4f 58bd df23 b53d fd88 34be
00000250: dc75 03be cea0 f9bd 476d 9fbd e1c8 393e
00000260: 7871 633d 87d8 69bd f49b 1a3e c0b2 d93c
00000270: 321c 413d c788 353e fe52 533d 2668 a33d
00000280: 0178 963d 8f7d 633d 9220 cfbd 220d 64be
00000290: 41a3 a7bd d8c5 c3bd b50b 1d3e 9329 93bc
000002a0: 63e4 6a3e fcda 373e fe5b 3b3d c94c 82bd
000002b0: 2865 e4bc e460 bd3c 9846 923d f007 bcbd
000002c0: 35e0 353e bddf 1a3e 663b 7bbd e86e 1cbe
000002d0: edfb 113e 36d9 2b3e 761d 31be 95d5 8bbe
000002e0: 38c5 153e 7f65 b93d 5de5 cabd a427 94bd
000002f0: a696 183e 4efb 17bc 0788 8c3d 4383 1fbd
00000300: ca59 043e 82dc 053d 20c0 8bbc 2f24 88bd
00000310: 9384 c5bd 0cec 013d 6a83 ea3d 6855 a7bd
00000320: 65ac 4cbd 896b ccbd 9b34 fbbd 24c2 1abe
00000330: 710c 0bbe d0c6 09be c70a 8fbd 7ea8 f43b
00000340: 39b6 993d 9d8f 7f3e 0606 8a3d 2ede cc3d
00000350: 550d bd3d 915c 503e 7723 ca3d 9edf 2a3e
00000360: 760c 573d d6c1 5ebd 6514 2c3e 84aa d8ba
00000370: b6ae a9bd 5b12 803d cfdd 38be a75f 513c
00000380: 90d0 07be 948d 55be 21c5 cdbd 5ca3 d0bd
00000390: b842 29be 2bd1 30be ea0b d63d fa36 423d
000003a0: bcb7 86bd 2f32 64bd 5e2d c0bd 8594 91bb
000003b0: e742 58bd 86d9 2ebd b4a2 1d3d 1c6c 66bd
000003c0: 5260 f4bd 0e35 013d 0254 613d 1b0a 37bd
000003d0: 7c75 133d 39f5 c3bd fe70 0f3e 207d 433d
000003e0: ec2d a03d eea9 e83d 0d5a 3f3e 534c dc3d
000003f0: 794b ab3d 42b1 003e 5262 4b3e 9155 8f3d
0.003761523 0.047182273 0.10134087 -0.0809354 -0.20916003 0.08534422 -0.07111369 0.15565729
-0.15024209 -0.20170163 0.16301967 0.15055563 -0.09974327 -0.20889711 -0.12530921 0.01184895
-0.016553462 -0.057890516 0.23200221 -0.07913759 -0.115390636 -0.12629744 0.0756536 0.21847366
0.056551788 0.1422374 -0.0017181273 0.24288708 -0.13267991 -0.1997606 -0.008366037 0.17269993
-0.1921955 -0.07332084 -0.11054774 0.08579007 0.016879959 -0.11461344 -0.0063961702 0.027389444
0.02930162 -0.20243084 -0.021140648 -0.010649689 -0.011384294 0.06696684 -0.06531997 0.194084
0.11181986 0.066847414 0.13080466 -0.005761536 0.09171415 0.06429244 -0.19899903 -0.022979727
0.05004864 -0.10411797 -0.20411834 0.10004978 -0.10085263 -0.007861634 0.09476528 -0.1735276
-0.011320068 0.21676838 0.19038454 -0.07983148 0.078108236 0.19333898 0.14509247 0.17622796
0.054064788 0.14143957 0.16370854 -0.079071365 0.004118821 0.18233217 0.086684585 -0.21957691
-0.10661881 0.14963843 0.10620187 -0.15439266 -0.09303796 -0.050945792 -0.026226195 -0.15435477
-0.06628655 -0.000229268 -0.17716193 -0.26090333 -0.041360088 -0.008703606 -0.24281663 -0.13481987
-0.06787953 -0.014218011 -0.0104290005 -0.22768658 -0.028343832 0.050948355 -0.22863933 -0.11067675
0.060500428 0.054239213 -0.26075986 -0.11447159 0.04160119 -0.15762252 -0.033861984 -0.21331383
0.08329732 0.15218246 0.15908605 0.051991366 0.20641713 -0.059827182 -0.06617493 -0.07679064
0.1609476 0.16662222 0.17813817 -0.1829956 0.1545935 0.10198962 0.15094098 -0.014023218
-0.1230187 -0.11391833 0.04305437 0.023990195 -0.2382063 -0.059629176 -0.11913475 0.10971806
-0.000435714 -0.16401355 0.16315098 0.087009944 -0.23268172 0.12585643 0.13401358 0.2332589
-0.030055976 -0.052810006 0.088447325 -0.17630382 -0.12837929 -0.12188874 -0.07784515 0.18143035
0.055528134 -0.057091262 0.15098554 0.026574492 0.04714603 0.17727958 0.05159282 0.07978849
0.07347108 0.055539664 -0.10113634 -0.22270635 -0.08185435 -0.0955922 0.15336497 -0.01796416
0.22938685 0.1795463 0.045742027 -0.06362302 -0.027880266 0.02311749 0.07142371 -0.091812015
0.1776131 0.15124412 -0.061335944 -0.15276682 0.14256258 0.16782078 -0.17296395 -0.27311388
0.14626014 0.09052562 -0.09907029 -0.07234123 0.14901218 -0.009276224 0.06861883 -0.03894354
0.12924877 0.032680996 -0.017059386 -0.066475265 -0.09644427 0.031719252 0.114508465 -0.08170587
-0.049969096 -0.09981448 -0.12265893 -0.15113121 -0.13578965 -0.13454747 -0.069844775 0.007466375
0.07505459 0.24957128 0.0673943 0.10003315 0.092310585 0.20347811 0.09870046 0.16686866
0.052502118 -0.054384075 0.16804655 -0.001653031 -0.082852766 0.06253501 -0.18053363 0.012779153
-0.13263154 -0.20854789 -0.10047365 -0.10187408 -0.16529357 -0.17267291 0.10451491 0.04741571
-0.06578013 -0.05571192 -0.09383653 -0.0044427537 -0.052798178 -0.042687915 0.038485244 -0.056255445
-0.11932434 0.031544738 0.055011757 -0.04468737 0.036000714 -0.09568257 0.14007947 0.04772675
0.07821259 0.113605365 0.18686695 0.10756745 0.08364005 0.12567618 0.19861725 0.06998742

unet_model.enc.0.main.bias f4 [16]
00000000: 10c5 6d3c b6e0 0b3d c408 283c 24b3 9f3c
00000010: 5062 0b3c 0217 51bd 0e6f f6bc bf36 073c
00000020: e623 b43c 1bf3 f8bc e2b3 2fbc c2ce 833d
00000030: 5f88 1e3d f4dc 8dbd edb3 033c fa80 a23d
0.014512315 0.034149848 0.010255996 0.0194946 0.008507326 -0.051047333 -0.030082252 0.008252799
0.021989774 -0.03038936 -0.01072404 0.0643592 0.038704272 -0.06926909 0.008038503 0.079347566

unet_model.enc.1.main.weight f4 [32, 16, 4, 4]
00000000: 5d8f 863c b6b3 133d 9c64 283c 9bc0 a93b
00000010: fc1f 9d3c 120e 6c3d a1bb 553d 679c b93d
00000020: c3c5 48bd 4ae5 92bd 95da 263d 9d43 ba3d
00000030: 1bfe c2bc 8323 88bd 8b95 b53a 2be3 023e
00000040: fd90 c93d b52c a4bb e18a de3b 8a12 bcbc
00000050: 7dc0 883d 9767 f83d 4563 123d f06e 7a3c
00000060: f3c8 2e3d 1969 6d3d 7bc8 f33d 3094 2f3d
00000070: 4c60 ff3c 63c5 c2bb 8821 843d 3851 213d
00000080: ab32 273c 5130 dcbd 02b7 79bd 866b cb3c
00000090: 086c 24bd 6d5f 32bd 32ce 1dbd c70c 27bd
000000a0: aa5b dd3c aa1b 82bc 73e9 4c3d 4069 c13c
000000b0: c878 4b39 467d 8b3d 2ba8 a039 e1fc 04bd
000000c0: 9456 cc3c 9143 2e3d 4ffc 073d 05eb d7bd
000000d0: 0262 443d 3c64 e03d dfbf 1ebd a401 18be
000000e0: 02dc ab3d 82b0 093e 72c9 a63d 5ebe d8bd
000000f0: 34dd ea3d 3836 093e 2c47 b03d f144 d63c
00000100: f27b c2bd c54f 1ebd 371b 903d 5ad0 203d
00000110: 4dfa 4dbd 35c2 0ebd 44bc 5f3d fafa b0bd
00000120: a1ee bfbd f567 94bd 96f4 0abd a0e3 c8bd
00000130: ea0b b0bc b8e4 e5bd 43e1 85bd ea28 39bc
00000140: 5882 93bc d4bc 3f3d ab1b 9ebc 85e6 43bd
00000150: e033 34bd 2257 d0bc efad ed3d 2a57 013b
00000160: 7756 37bd 075a eb3d 9b39 943d 936a e1bc
00000170: 81c5 553d 9225 523d 89f3 b63d b38a 15bc
00000180: 957b 85bd d915 f9bc 99c9 753d 245b 0dbc
00000190: 1e69 113d 8cdb b23d fa42 f83c a5da 9ebc
000001a0: 7d93 9fbc 8d19 963d be8b c6bc 8097 933d
000001b0: 88b7 91bc 0d52 10bd db27 b8bc fa5c e73d
000001c0: cf84 e33d ece7 823d db8c aa3d 53b6 f1bd
000001d0: c2d1 a1ba 481c 2c3b b3fa 9abd 1893 2cbe
000001e0: ea83 24bd d128 adbd 264a 8ebd a529 ccbd
000001f0: 0d9d 37bd caf7 b1bc ea6e 87bd f6e4 af3a
00000200: fc6e 9d3d 1ae9 353d 2a68 43bc f19e bbb9
00000210: 0756 863d e154 0a3e 90ff 773d e98a a2bd
00000220: 3877 873c a72b 42bc 258f e0bc 0e3e 76bc
00000230: 32c3 9a3b b236 103d bac6 ad3d 8a4b 213e
00000240: 49f1 88bd da9d 8a3d 4c75 8a3d 2779 113d
00000250: bcb3 353d 2f1f f63d 7af4 743d 18ce d4bb
00000260: a547 4d3d 61b4 b03c fd60 71bd 2e85 1c3d
00000270: 196d 6d3c cb35 093d 9200 163e 8f3d fa3d
00000280: 740b 023d 9254 603b 33c3 353d e4c5 b13d
00000290: 688a 013e e866 85bd 4659 a9bc 277e dc3d
000002a0: 17ec 8a3d 54ed 503b e0b3 4e3d 48fc eb3c
000002b0: 919c ae3d 340c 903d b4cc 9dbb 0c8e 613d
000002c0: f615 093d 06b8 f83b b196 273c 7711 0cbd
000002d0: dd7c db3c 1faf 90bc beaf 48bd 02d5 9d3c
000002e0: ccde 153d 6e04 493d 6974 b6ba 30f1 1ebd
000002f0: 96c3 81bb fa31 b83c 07da 2fbd 1ae7 f3bd
00000300: fef6 9c3c c927 823d e0ae 81bc 8af5 da3a
00000310: b052 aa3d 787b d83d fd89 d03d f6df 8a3d
00000320: 7d88 df3d 22ee fd3d 18e1 ea3d b24b 873d
00000330: 9523 81bb d8da bd3c d0e1 9bbb b2c9 7dbb
00000340: 51c5 fd3b a3d2 5aba cc60 7d3d d184 293d
00000350: 53ca 613d d16a ba3d 3df5 0c3d 130d 5a3d
00000360: 9325 333c 2e6c 583d d871 7dbd c7fa 923c
00000370: ebc8 eb3b 162d 66bc 207d bbbb 9bb1 e33c
00000380: 72b4 b6bd 2b74 6abd 4e92 afbd f37d 203d
00000390: 3128 633c 1b23 71bd 7f73 423c 13bf 0ebb
000003a0: 84d6 9c3d 822e 903c d7b3 a63d 56db f4bb
000003b0: eed6 d03c b6bd 8b3d 258a e63c 24f3 02bd
000003c0: b97b 063e a3e8 8f3c 3a3b bfbb ded4 ec3a
000003d0: 54fa 983d 7439 39bc 3ab0 be3c 4937 28bc
000003e0: e084 553d da42 863d 45b2 f63d 8716 cfbc
000003f0: 24df 87bc aab1 c1bc 5bd8 ac3c c7af 9b3c
0.016425783 0.036060058 0.010277893 0.005180431 0.01918029 0.057630606 0.05218089 0.090630345
-0.049016725 -0.0717264 0.0407358 0.090949275 -0.023802808 -0.06647398 0.0013853771 0.1278197
0.098421074 -0.0050102123 0.006791458 -0.022958059 0.06677339 0.12129133 0.035739202 0.015285239
0.04267211 0.057961557 0.11903473 0.042865932 0.031173848 -0.0059439405 0.06451708 0.039384097
0.010204951 -0.10751403 -0.060965545 0.024831545 -0.04014209 -0.043548036 -0.03852672 -0.04078367
0.027021248 -0.015882332 0.050027322 0.023609757 0.00019404583 0.068110034 0.00030642873 -0.032467727
0.024943627 0.042544905 0.033199605 -0.10542873 0.04794503 0.10956618 -0.0387572 -0.14844376
0.083915725 0.13446239 0.081438914 -0.10583185 0.114679724 0.13399589 0.08607325 0.02615592
-0.09496297 -0.038650293 0.07036441 0.0392612 -0.050287534 -0.03485318 0.054622903 -0.0864162
-0.09371687 -0.07246391 -0.03392466 -0.09809041 -0.021490056 -0.11225265 -0.06537106 -0.011301259
-0.018006489 0.04681094 -0.019300302 -0.047827262 -0.043994784 -0.025432173 0.11605441 0.0019735792
-0.044760194 0.11491781 0.0723755 -0.027516639 0.052190308 0.05130536 0.089331694 -0.009127307
-0.06517712 -0.030405926 0.06000671 -0.008627687 0.03550064 0.087332815 0.030305374 -0.019391367
-0.019479508 0.07329092 -0.024236556 0.07206631 -0.01778771 -0.0352345 -0.022479942 0.11297031
0.111093156 0.06391892 0.08327647 -0.11802354 -0.0012345838 0.0026261974 -0.07567348 -0.16852987
-0.040164866 -0.08455051 -0.069477364 -0.099688806 -0.04482751 -0.0217246 -0.06612952 0.0013419676
0.07687184 0.044411756 -0.01192669 -0.0003578584 0.06559377 0.13508941 0.060546458 -0.07936651
0.01653634 -0.011851228 -0.027412007 -0.015029443 0.004722976 0.03520841 0.0848517 0.15751472
-0.066866465 0.06768389 0.06760654 0.03551593 0.04436086 0.120176665 0.059803464 -0.006494295
0.050117154 0.021570386 -0.058930386 0.038212948 0.014491343 0.033498567 0.14648655 0.122187726
0.031749204 0.0034230095 0.04437561 0.08680323 0.12650454 -0.065137684 -0.020672452 0.10766249
0.06783312 0.003187974 0.05046451 0.02880682 0.085259564 0.070335776 -0.0048156623 0.055067107
0.03346821 0.0075902967 0.010228799 -0.034196343 0.026792938 -0.01766163 -0.048995726 0.01926661
0.03658943 0.04907649 -0.0013920191 -0.038804233 -0.0039600832 0.022484768 -0.042932536 -0.119093135
0.019160744 0.06355245 -0.015830457 0.0016705256 0.08316553 0.10570425 0.10182569 0.067809984
0.10914705 0.12398936 0.114687145 0.066062346 -0.0039410093 0.023175642 -0.0047571436 -0.0038724956
0.007744469 -0.00083474274 0.06185989 0.04138643 0.055124592 0.09102405 0.034413565 0.053235125
0.010934251 0.052837543 -0.061876148 0.017941846 0.007195582 -0.014048835 -0.005721703 0.02779465
-0.08921136 -0.057239693 -0.08572827 0.039182615 0.013864563 -0.05887137 0.011868357 -0.002178137
0.07658103 0.017600302 0.081397705 -0.007472436 0.025493111 0.06823294 0.028142044 -0.03197016
0.13133134 0.017566985 -0.005835918 0.001806881 0.07469621 -0.011305202 0.02327739 -0.010267087
0.052128673 0.0655572 0.12045721 -0.025279297 -0.016585894 -0.023644287 0.02109926 0.019004716

unet_model.enc.1.main.bias f4 [32]
00000000: f28c 97bd aed0 ccbc 3f75 84bb 535a 0b3d
00000010: 20ba 2c3d bc2e 10bd 3cd7 06bd 441e 973c
00000020: a83e e7bb 7226 973c 0ae1 693c ba03 2fbc
00000030: e62b df3b aed2 253d 109f b73c 94a0 63bc
00000040: 03ec 0d3d 231b 8abc 763c b2ba 6e31 c33b
00000050: 1fa6 85bc 7259 173d d41d 523d d02b 163c
00000060: e22c c2bb 9c2f ab3c 25cc c43c 0908 e73c
00000070: 6587 2d3d 7a7b a5bb 9f55 703b 98cd 0ebd
-0.0739993 -0.02500185 -0.004042297 0.034021687 0.04216969 -0.03520082 -0.032920107 0.018447049
-0.0070570298 0.01845095 0.014274845 -0.010682041 0.006810653 0.040484123 0.022414714 -0.013893265
0.034648906 -0.016858643 -0.0013598341 0.00595682 -0.016314564 0.036950536 0.051297978 0.009165719
-0.0059257606 0.020896725 0.024023125 0.028202074 0.04236545 -0.00505012 0.0036672128 -0.03486404

unet_model.enc.2.main.weight f4 [32, 32, 4, 4]
00000000: 0682 52bd da20 12bd ae10 51ba 1f78 08bc
00000010: 320b 26bd 546a c8bd 30d9 4cbd 51d4 db3c
00000020: 0014 aebd f497 e9bc 9add 83bc 3c03 2ebc
00000030: 27b9 bbbd a5b0 6cbd a65c 7bbd 786c 30bd
00000040: 9d9d 2ebd d5b5 3fbd 095d c03c 869d 663d
00000050: b8d1 76bd 8d9e dcbc 433d a8bd 778a d2bc
00000060: 960b d2bc 6148 b7bd 3f11 cebd d4ce debd
00000070: bb7a 07be 1f8b 58bd acf5 16bd d1f6 2abd
00000080: b085 56bd 538c f6bd 465a c5bd 6693 1dbe
00000090: 496e 68bd b64d 55be cb0b 26be d0e5 19be
000000a0: 2900 40bd 02f8 18be 6de8 51be be7d d7bd
000000b0: 974c 0b3c ad02 97bd 8c02 b7bd 0d30 a3bd
000000c0: 4a9f 053d 8f55 0fbc faf7 c13d d9c3 2fbc
000000d0: 7747 5fba 1c9f 7a3c da18 f63b 4230 a93d
000000e0: c320 84bd 2bb5 0bbd d6a6 463d a457 b4bc
000000f0: a695 a3bc 041c 2fbd 9d63 3fbc 245a 773c
00000100: 93af 343d 192c c03d ef18 633d 0c1a e83d
00000110: e652 6dbd c861 893d bc8e 8b3d de7a bb3c
00000120: 88a6 cfbd ea0c 30bc ea5c 8b3d 0710 fb3c
00000130: 4f64 c6bb a8bc 893d c525 8b3d e823 6b3d
00000140: d89c aa3c d17c d43b a4ee 93bc deb9 f63c
00000150: b7cb ebbd 7dc8 26be c45e 90bd 8ffb 96bd
00000160: fa6d aabd 5c65 a6bd d68f 36be cfcc 89bd
00000170: cf2a e8bd c14d e8bd 0009 19be 23ea 07be
00000180: f112 b73c 270e e63c 1f3b 3e3d 0e1f f6ba
00000190: c5a1 493d 0f8d c83c 286f a93d e5f3 e23c
000001a0: 96a0 10bd 31b0 78bb e944 37bd 6820 323c
000001b0: 80d4 2cbd c2f8 2cbd 86b1 bcbc 43a6 ff3b
000001c0: b9c7 11bd 0c67 bebd cfbd 03bd 2056 b03c
000001d0: 3a2d febc f144 69bd 72ea 4cbc ce89 aabc
000001e0: 9c92 62bb f871 2ebd 16d6 fb3b 6c18 803c
000001f0: 29e9 89bd 019b 4a3b a695 ef3c c989 463c
00000200: 5da9 7cbd 100d d2bc 2054 b8bc 1955 9a3b
00000210: aac2 53bd ad64 94bd bba9 793a e3c2 35bc
00000220: 63c9 893c c901 40bd d082 89bd 546b 76bd
00000230: 9d2c 04bd 4965 1bbd 9b93 a8bd aa16 96bb
00000240: c739 4e3d 2689 e73c 8ec0 333d 3ce0 3a3d
00000250: f583 3b3d 5a1f 0c3d 38fe 0fbb a5b5 10bd
00000260: 9490 77bc 0bd4 92bc 1422 38bd 4150 c03b
00000270: 3259 ccbc da6d 45bd bca5 073d b4e1 65bc
00000280: 5de1 6abd 6eec 793c 3900 093d 3666 0dbd
00000290: b945 943c 1435 afbb cb2b c23d 2261 abbc
000002a0: 3685 713d 8b28 c63c 5e13 0e3b bd4d b83c
000002b0: 113c 34bd 2fb7 0c3d a1ed 8bbd d792 1d3d
000002c0: 5518 9c3d 04b4 923d 0177 593d 06ca ac3d
000002d0: c220 793d 5a43 b23d 908b d93d 8c63 3f3d
000002e0: 8b87 48bd 96e7 a83d e41c b4bc 0eed b03d
000002f0: 9ea9 21bd e895 953c 6817 583d 081b 9f3d
00000300: 4bec 653d b67a 543c 4269 49bd ed7e 9bbc
00000310: 3b93 dbbc 8170 67bd ae66 a8bd d645 4e3d
00000320: 1b57 d83c 7c3a aabc 2509 55bd 2183 193d
00000330: 9beb ec3c 3790 353a fb62 013b 7625 22bc
00000340: 2b8c 13bc 87c0 d83c 4e0d 3cbd 824e 06be
00000350: 330c ad3b b522 3b3d a635 a6bd 09f9 adbd
00000360: 1e9b 00bc c172 60bc 4594 c0bd 16bc bbbd
00000370: a097 e539 5cd0 fcbc f2c4 c9bc 90b5 b93c
00000380: d080 ea3c de12 cdbc e72e bb3c 49e2 6b3c
00000390: db0d 893d a379 d7bc 40c1 afbc af52 02bd
000003a0: 1373 0f3d fc04 3d3d b97c 3cbd 3d89 6e3d
000003b0: 1408 113d 88ed 2a3d 7bd6 5cbd 7cbf ddbc
000003c0: 962b 303b bd38 85bd 4db7 e2bc 91f4 d7bc
000003d0: 99a0 e1bc 58d8 b7bd 8f85 98bd d0b0 573a
000003e0: 0ba5 02be 1be4 0bbd d7f0 bdbd f389 febc
000003f0: af62 fabd 6b4f 14be 8b60 b4bd 8b47 0f3b
-0.05139353 -0.03567586 -0.0007975203 -0.00832942 -0.04053802 -0.097859055 -0.050011814 0.026834639
-0.084999084 -0.02851484 -0.016096879 -0.010620888 -0.091661744 -0.05778565 -0.061367653 -0.043072194
-0.04263078 -0.046804268 0.023481863 0.05630257 -0.060258597 -0.026931072 -0.0821481 -0.02570079
-0.02564029 -0.08949352 -0.10061883 -0.10879293 -0.13230412 -0.05286705 -0.036855385 -0.04173929
-0.052373588 -0.120384835 -0.09636359 -0.1538826 -0.0567458 -0.20830426 -0.16215436 -0.15029073
-0.046875153 -0.14938357 -0.2049882 -0.1052203 0.008502147 -0.07373557 -0.08936033 -0.07968149
0.032622613 -0.008748426 0.09471126 -0.010727846 -0.0008517424 0.015296724 0.0075102868 0.082611576
-0.06451561 -0.034108322 0.04849895 -0.022014447 -0.019968819 -0.042751327 -0.0116814645 0.015097175
0.044112753 0.09383411 0.0554437 0.11333093 -0.057940386 0.067081034 0.06814334 0.022885736
-0.10139185 -0.010745266 0.06804831 0.03064729 -0.006054438 0.067254364 0.06794313 0.05740729
0.020826742 0.006484606 -0.018058129 0.030117925 -0.11513465 -0.16287418 -0.07049325 -0.073722
-0.083217576 -0.081248015 -0.17828307 -0.06728517 -0.1133629 -0.113429554 -0.1494484 -0.1327291
0.0223479 0.02808292 0.0464431 -0.0018777566 0.04922654 0.024481324 0.082731545 0.027704189
-0.035309397 -0.0037946815 -0.044743452 0.010871984 -0.042194843 -0.04222942 -0.023033869 0.0078018024
-0.03559086 -0.092969984 -0.032163437 0.021525443 -0.031027425 -0.056950513 -0.012507068 -0.020817664
-0.003457225 -0.042589158 0.007685433 0.015636645 -0.06733925 0.0030915143 0.029246163 0.0121178115
-0.061684955 -0.025640994 -0.022501051 0.0047098515 -0.051699318 -0.07245765 0.0009523888 -0.011093828
0.016819661 -0.046876702 -0.06714404 -0.06016095 -0.03226911 -0.03793839 -0.082312785 -0.0045803385
0.05034807 0.02826364 0.043884806 0.045624003 0.04578014 0.034209587 -0.0021971595 -0.03532948
-0.015110154 -0.017923376 -0.044954374 0.005868942 -0.024944875 -0.048200466 0.03311704 -0.014030863
-0.05734383 0.015254123 0.033447478 -0.034521304 0.018099653 -0.0053469036 0.09481009 -0.02092034
0.05896493 0.024189254 0.0021679024 0.022498006 -0.044002596 0.034354385 -0.068324335 0.038470116
0.076218285 0.071632415 0.053092007 0.084369704 0.060822256 0.087042525 0.106223226 0.046725795
-0.04895739 0.082472965 -0.021986432 0.086389646 -0.0394684 0.018259957 0.052756697 0.07768828
0.05613355 0.01296871 -0.049172647 -0.018981421 -0.026803603 -0.056503776 -0.082227096 0.05035957
0.026408723 -0.02077984 -0.052010674 0.03747857 0.02892094 0.0006926092 0.0019742835 -0.009896627
-0.009005587 0.026458992 -0.045911126 -0.13115886 0.0052809953 0.045687396 -0.081157014 -0.08494765
-0.007849483 -0.013699234 -0.0940328 -0.09166734 0.00043791253 -0.030861072 -0.024630044 0.022669584
0.028625876 -0.02503341 0.022849513 0.014397212 0.06692096 -0.026303118 -0.021454453 -0.031817134
0.035021853 0.04614733 -0.046017382 0.05823635 0.035408095 0.041730434 -0.053915482 -0.027068846
0.0026881448 -0.065049626 -0.027675295 -0.026361736 -0.0275424 -0.08976811 -0.07447349 0.0008227946
-0.12758271 -0.034153085 -0.09274452 -0.031071639 -0.12225854 -0.1448342 -0.088074766 0.0021862711

unet_model.enc.2.main.bias f4 [32]
00000000: 5791 1d3c b615 063d 987b 463d 8f2f 92bb
00000010: 5a91 1e3d d29a 593d 8049 8fbb 0e1e d9bc
00000020: bb12 b73c 70ba b73c acf5 ab3c ef0a 943d
00000030: b796 8bbc f9f3 e53c aa09 193c 99f2 003d
00000040: 6ea8 283b 68d6 2d3d 33f3 f53c 1eb7 1d3d
00000050: aded 06bd 755d 09bc 5d59 333d dd17 453c
00000060: 2f44 223c 3a09 673c ea95 a73d 5eab d43b
00000070: b920 89bd c5d0 55bc afd9 3c3d e606 373c
0.009617171 0.03273555 0.048457712 -0.004461236 0.038712837 0.053126164 -0.0043727756 -0.026503589
0.022347799 0.022427768 0.020991169 0.07228648 -0.01703964 0.028070437 0.009340683 0.03148136
0.0025735158 0.0424408 0.030023193 0.038504712 -0.03294151 -0.008384098 0.043786395 0.012029615
0.009903952 0.014101321 0.08182891 0.006490155 -0.066956945 -0.013050263 0.046106037 0.011171078

unet_model.enc.3.main.weight f4 [32, 32, 4, 4]
00000000: 33be 78bd 6296 cb3c d005 8abd 9512 5a3d
00000010: 68b5 a8bc ed2f c0bc e968 943d 4424 653c
00000020: 5875 36be 3851 b3bd ec51 003c 8568 27bc
00000030: 19b0 3bbe 2d08 06bd e04e 143d 6dbd 50bd
00000040: b530 bcbd fe1a 3ebe 5f16 57bd 9e66 aebc
00000050: 89c4 58bd 244c ccbd 1d92 86bd 72ec c4bc
00000060: cecf d23c 7da1 41bc 61ec 2e3d 2afd 893c
00000070: da4d ae3d 663e 7a3d 5f0a b63d 268b 093d
00000080: 316f e3bd 77d6 803c 51ce 8e3d 8fa2 d33c
00000090: 7879 353b 4811 19bd ed2c b63d 281d e83c
000000a0: 45d9 37bd 1c24 163d 4804 f83c b120 f23c
000000b0: 1d55 063c 3b2a b33a fe92 e0bb fcfc 78bc
000000c0: a4a4 363d 9b0b 1abc 9d24 7d3d 7751 c1bd
000000d0: e35b 153d 6443 7dbd e7a6 15be a438 2ebd
000000e0: 33e1 b7bb 75ac e0bc 5288 73bc 98f1 45bd
000000f0: 4211 853c 13de cdbc 2ad4 0cbd 75a3 f93c
00000100: c72b d1bd ffd1 c43b 4393 533c f17d b53c
00000110: 14fa 66bd 2872 e0bd 1df9 d4bd b45f a53c
00000120: 1b10 15be 2a73 24be 91c5 0abd f51f 263d
00000130: 8b6c 283d e00c 363d 0f34 323b 4a1f 9c3c
00000140: 7f76 3ebd bac3 073d 2d82 c2bb 9d43 8d3c
00000150: eb64 e1bc b232 ae3c 8e56 303c 54d8 4abc
00000160: ff2d 1fbc 034f ab3c 4cbb 603d c20c e73c
00000170: a133 023b 8888 693d 6e59 6ebc 2853 923c
00000180: 75f1 77bd e0b2 213d 2e61 18bd 55bb 46bc
00000190: 3165 843d 2f0d 0c3d c292 f43c 1547 f4bc
000001a0: 6fb0 2ebc 8890 0f3d f98f c83d 058f 4c3d
000001b0: a391 2fbd e148 b8bc 1cc9 fa3b 09fb 95bc
000001c0: b008 c3bd b063 bdbc a5da 2dbd ad8c 2fbd
000001d0: 019d 53bc 2aa1 43bd 3c1f 3f3d b346 febc
000001e0: 4a58 b23a 2e05 57bc cdec f3bc d0f2 863b
000001f0: c141 cf3c 473b a1bd 6c7b 88bd b84e b5bc
00000200: 7e90 233c 7074 273d 1d96 d43d abc2 053d
00000210: 9a69 23be 5bb5 88bd 23cb 7dbc 33df 583c
00000220: e207 26be cceb 00be 862d b2bc 1220 7cbc
00000230: 47cd a5bb a38e 85bb 198d 88bd 209f 9abd
00000240: 5828 02be 26d2 2f3c 990f 45bd b417 36bd
00000250: f8f3 a13c d57e 9f3d 4c8d 823d ec34 77bb
00000260: 080f d33d 5b33 ab3d b13a a43d fc9b 59bc
00000270: 39b1 833d 0a25 8a3d b983 c53d 5592 a4bd
00000280: 8e88 9bbc ccff 4c3d 08ee bebc ae5d b6bd
00000290: 4c93 ffbc 6d82 46bc 0394 893d e1cc f23c
000002a0: 2fb5 943c 414c 983b 3566 e03d 1d68 873d
000002b0: b310 813c 25d0 193e 5416 943c 7a70 b03d
000002c0: 60ac 363d 45ae ab3d 4103 d83d 454b 4e3c
000002d0: 5d3e e03c b960 393d acbb 1e3d 5682 163d
000002e0: eb0b 293d 1806 8ebd 4be8 10bc 6651 c7bd
000002f0: 66d8 3abd f293 05be 17db 93bd 4fbc 6bbd
00000300: 4052 20bd 82da 44bd 34d4 31bd 14ee c13c
00000310: ddf1 ebbc b8f6 493d 5e5e d2bc 518c 92bb
00000320: 971f 7dbd 66bc 143c 9b87 14bd 0251 2c3d
00000330: 185e 90bc 044f 60bd 1a8c 083d 7cc4 993c
00000340: eab0 db3c 2ca7 b43d 00b2 4a3d 6596 8bbb
00000350: 2969 af3d 590f c03d d0d7 79bc 4a1f bbbc
00000360: 179d 1f3d 27e7 f23c c5fa af3c 740d b5bc
00000370: b93d 3c3b 3baf 15bd 8114 78bd 8ab8 86bd
00000380: ae71 903c aa60 653c 1c3c 2b3d 2d4d f9bc
00000390: cb46 55bc ef84 023d 8508 0fbd 2085 adbd
000003a0: 3263 f73c 9894 8bbc 5c6f 32bd 7d13 0cbd
000003b0: b5d7 56bd 116e e7bd e119 9abd c8d8 0dbd
000003c0: 3812 263d 4ab3 ca3d 1655 843d 3c25 1f3d
000003d0: 659d 323c 06d5 5b3d 94e4 773d 8be5 503d
000003e0: 5f26 1a3d d4e3 8c3c d7e9 c93a 49b9 a43d
000003f0: 93d2 3e3d b69c bebd 6f90 91bd a6fa 4e3d
-0.060728263 0.024851982 -0.0673939 0.053240377 -0.020594314 -0.023460353 0.072465725 0.013985697
-0.178182 -0.087557256 0.007832032 -0.0102177905 -0.18328895 -0.03272264 0.036208034 -0.0509619
-0.09188978 -0.18564984 -0.05251157 -0.021289166 -0.052921806 -0.0997546 -0.06570838 -0.024038527
0.025733855 -0.011818287 0.042705897 0.01684435 0.08510943 0.061094664 0.08888697 0.033579968
-0.111051925 0.015727265 0.069729455 0.02583435 0.002769081 -0.037369996 0.08895288 0.028334215
-0.04488494 0.03665553 0.030275479 0.029556604 0.0081990035 0.0013669202 -0.0068534603 -0.015197035
0.044590607 -0.009402181 0.061802495 -0.09439366 0.036464583 -0.061831847 -0.1461445 -0.042534485
-0.0056115626 -0.027425984 -0.014864044 -0.048326105 0.01624358 -0.025130307 -0.034382023 0.03047345
-0.10213428 0.006006479 0.012913528 0.02215478 -0.056390837 -0.109592736 -0.10399077 0.020187236
-0.14556925 -0.16059557 -0.03387982 0.04055782 0.04111914 0.044445872 0.0027191674 0.019057889
-0.046499725 0.033145644 -0.0059359283 0.017244155 -0.027513942 0.021264408 0.010762824 -0.012380678
-0.009715556 0.0209117 0.05486612 0.028204326 0.00198672 0.057014972 -0.014547689 0.017861918
-0.060533006 0.03947723 -0.037202053 -0.012129624 0.06464613 0.03419226 0.029855136 -0.02981905
-0.010662182 0.035049945 0.097930856 0.04994108 -0.0428635 -0.022495689 0.0076533686 -0.01830818
-0.095231414 -0.023118824 -0.042444844 -0.04285877 -0.012915851 -0.04776112 0.046660647 -0.031039571
0.0013606634 -0.0131237935 -0.029776001 0.004118301 0.025299909 -0.078726344 -0.06664166 -0.022132263
0.00998318 0.040882528 0.10380194 0.032656353 -0.15958253 -0.06675216 -0.015490326 0.013236809
-0.16213945 -0.1258995 -0.021750223 -0.0153885055 -0.0050598714 -0.0040758415 -0.06667537 -0.07549882
-0.12710702 0.010731256 -0.04811058 -0.0444562 0.019769654 0.07787863 0.063746065 -0.0037720753
0.10305601 0.08359405 0.08019007 -0.0132818185 0.06430287 0.06745346 0.09644265 -0.08035723
-0.018986013 0.050048634 -0.023306862 -0.08904587 -0.031198166 -0.012116057 0.06717684 0.02963871
0.018152801 0.004647762 0.109569944 0.06611655 0.015755033 0.15020807 0.018077053 0.08615203
0.044597983 0.08382849 0.10547496 0.012591188 0.027373487 0.045258258 0.038753197 0.03674539
0.04127113 -0.06934756 -0.008844445 -0.097323224 -0.04561653 -0.13044718 -0.072195224 -0.057552632
-0.03914094 -0.048059948 -0.043415263 0.023673095 -0.028801853 0.049307555 -0.025679763 -0.0044722934
-0.061797705 0.009078121 -0.036262136 0.042069443 -0.017622992 -0.054762855 0.033336736 0.018770449
0.026817758 0.08820948 0.04948616 -0.004259872 0.085649796 0.09377927 -0.015249208 -0.022842068
0.038968172 0.029651238 0.02148188 -0.022101142 0.0028723313 -0.036544066 -0.06056643 -0.06578167
0.017632332 0.014000097 0.04180537 -0.030432308 -0.013017367 0.031865057 -0.034920234 -0.08472657
0.030198667 -0.017038628 -0.04356323 -0.034198273 -0.052451808 -0.113002904 -0.07524467 -0.034630567
0.04054472 0.09897478 0.06461541 0.03885387 0.010901784 0.05366995 0.060520723 0.05100016
0.03763425 0.01719848 0.0015404773 0.08043153 0.046587538 -0.09307234 -0.07107627 0.050532006

unet_model.enc.3.main.bias f4 [32]
00000000: 7624 553c 8e85 5d3a 9b7e c5bb 6b2c 8d3c
00000010: 487e debc f952 443c fca6 a13c 29e4 423d
00000020: 6dd8 39bd d92c c8ba fb23 8f3c 1784 31bd
00000030: 168c 42bd 9201 36bd 7929 e83c 14bd ec39
00000040: a8a3 6fbd 172e 13bc 3713 acbc b044 90bd
00000050: 4fa0 d33c c28c c33c 214d 3bbd e417 9ebd
00000060: 7d49 cf3b 4f1a 81bd 01dc 123d e641 31bd
00000070: fc2b a83d 5b2d 143b 173f e2bb 9b7f c8bc
0.013009181 0.0008450382 -0.0060270554 0.017233094 -0.027159825 0.011982673 0.019732945 0.04758087
-0.045372415 -0.0015272155 0.017473212 -0.04333886 -0.047496878 -0.04443509 0.028340088 0.00045154302
-0.058505684 -0.008983157 -0.021005256 -0.07044351 0.025833277 0.02387083 -0.045727853 -0.077194005
0.006325899 -0.06303846 0.035854343 -0.043275736 0.08211514 0.0022610042 -0.0069044936 -0.02447491

unet_model.dec.0.main.weight f4 [32, 32, 3, 3]
00000000: 36b0 7fbd e4b5 283d 1cd6 00bc 8cb8 3ebc
00000010: 8c66 ac3c f1f1 4a3d b8f3 f2bb 802d 6ebd
00000020: 5ae8 8bbd 52d7 02bd ea74 513d 067e 9e3d
00000030: 3a10 8fbd 0c3e 1c3d d6dd 19bd aab2 c1bc
00000040: b1bb e93c 14e5 e93d 4533 0e3b c452 5f3d
00000050: 2f63 0dbd 2809 8f3c 34bd c13c 3a29 173d
00000060: 237a a4bd a1ac 033d 9add 603d f6ed 883c
00000070: e10b 72bb 51cf 493c 697e 7d3c b03d 223c
00000080: 9e57 92bd 6440 0abe f691 a7bc 2041 febb
00000090: 38f3 45bb 6aa7 b5bc 53e2 493c a942 0d3d
000000a0: c062 1dbd 0f66 55bd 9a39 e03b 2116 83bc
000000b0: 6342 01bd a8c6 b3bc a81d 92bc 890b fc3c
000000c0: e9da d5bc 8d68 cdbc eef4 f6bb a092 833b
000000d0: 9246 a3bb e8e4 a5bd 6170 01bd 59ff 133c
000000e0: ae1f 36bb 3702 ed3b 7c8a 7b3d fb48 573d
000000f0: 6f46 573d 8855 433d d2a9 063b 4301 ac3d
00000100: 6acf 573d 5d6a 2ebd 10d1 e73c 05cd f93b
00000110: d569 dabc 9fe4 9f3a d2d9 71bd 89c1 25bd
00000120: 7c50 3ebd 4ae5 60bc 168b b6bc fc83 3ebc
00000130: 2db4 023d f2dd 013d 64f3 2b3c ce77 573d
00000140: 2432 89bc bd13 a8bc 8fcb 5abd 1ffb 33bc
00000150: 9a87 613c 309d 92bd 39ad 6ebd e259 dc3d
00000160: 7843 173d fc94 0ebc ef57 23bd 33d5 4f3d
00000170: c8e9 8bbc 3dd6 e13c 28d4 083e ca43 29bd
00000180: eb87 eb3b bee7 183d 7014 c4bd a82d f93b
00000190: 7f28 113d 9eb9 1dbd 92b4 873d 393a 893d
000001a0: b399 8ebc 3eef 533d cc21 0ebe 3830 3d3d
000001b0: 3f57 29bd 6b58 d93d 3d42 f3bc bac5 20bd
000001c0: d1cf eb3c 00c4 b03d c833 003d b084 be3c
000001d0: 6aa5 2d3d 9f45 00bd 12c5 d73c 5f1e ffbc
000001e0: c43b c13d e623 77bd b5fe 1bbd 6b57 a6bc
000001f0: 5580 64bd 4c58 833b f3d4 8ebd 0beb f3bc
00000200: 8542 023d b596 eabb fa26 ab3d d160 a3bc
00000210: a282 a03d 75ef 8e3d 588d a23d 87b4 90bd
00000220: 4cb9 bd3c 5bb5 f8bc 3fb9 01bb ead3 073d
00000230: 9ef1 b7bb 5075 9ebd d771 dfbb 8adb a73d
00000240: 3ce8 e13d 722a 02bd 0eda 86bb a479 d33d
00000250: 7899 bc3c baf6 353d 6e5e 603d a1a8 ae3d
00000260: 7690 153d 2fc5 0cbc eb20 ca3d 8b5c 49bd
00000270: c1d6 edba e93c 20bc c763 04be 40e4 2fbd
00000280: 5374 b93d 20de 6abd 410d b5bd 1e97 cebd
00000290: 4cc5 0ebd f221 c83d c92b 9cbd 2abf b5bd
000002a0: 9d83 073e 4286 9e3c df24 3b3d 198b 833c
000002b0: b4c7 b73a 7866 193d fd05 3f3c eb27 8d3d
000002c0: 5fd3 e73c 0b89 833d f3a9 97bc 0c1f bebc
000002d0: 44ce 593d 6d97 1a3d b024 cc3d 03f7 40bd
000002e0: 118d 8dbc dfef 77bd 944b 29bc 7263 70bd
000002f0: a066 97bb 77c5 dabd adc8 1abe 6027 0a3d
00000300: 283d 31bb 2698 8d3b 7448 64bc 7150 783d
00000310: dadd 9b3d 27fb ab3c 2be0 0bbc ee26 7b3d
00000320: 3a3a 8c3c ccc2 203d f035 a63d 0e20 163d
00000330: 43f1 e53b 5881 aa3d c9f4 59bb 5e9c d03d
00000340: bfa7 513d eb3a 54bc 088e 0f3d 7d7b 0a3d
00000350: 3e80 203b a68c 8dbd cd45 53bd 29f1 95bd
00000360: 70dd 8dbd d99b 3abd c3f8 8d3c 72e9 8ebb
00000370: fe49 833d 9d96 6f3c c3fd f43b 0d20 7b3d
00000380: 5f51 7f3d 2c02 95bd ebc1 923d 65e5 a0bd
00000390: 2d7c 653d 8fac a63d 79c0 d7bd 5639 953d
000003a0: c45b 4e3c caca 7f3c c271 61bd 064a 4b3c
000003b0: 7ea0 ff3c 61a1 813d 1a9e 873d 0987 463c
000003c0: f89f eebb ee59 e73d be97 bfbc 409d 243d
000003d0: 86ca d4bc 6e58 4fbd e0c8 963c 9843 a7bb
000003e0: 12df b3bc 928d a9bd d375 883d d3c0 14bd
000003f0: 8318 8bbd beab 893b e4ed 4cbc 236b 0b3d
-0.062423907 0.04118909 -0.007863548 -0.011640679 0.021044992 0.04954714 -0.0074143074 -0.05814886
-0.06831427 -0.031943627 0.05113689 0.07738881 -0.06985517 0.03814511 -0.037565075 -0.023644764
0.028531881 0.11420646 0.002169804 0.05452229 -0.034518417 0.01746042 0.02364979 0.03690455
-0.08031108 0.032147054 0.054898836 0.016715031 -0.003693335 0.0123174945 0.015472033 0.009902403
-0.07145618 -0.13501126 -0.020455342 -0.0077592283 -0.0030204784 -0.022174556 0.012322026 0.0344874
-0.038424253 -0.052099284 0.006842804 -0.016001763 -0.031557452 -0.021945313 -0.017836407 0.03076722
-0.026105361 -0.025074268 -0.007536522 0.004015282 -0.004982778 -0.08100301 -0.031601314 0.009033048
-0.0027789879 0.00723293 0.061411366 0.052559834 0.052557405 0.04768899 0.0020547998 0.08398678
0.05268804 -0.042581905 0.028297931 0.007623317 -0.026661793 0.0012198872 -0.05904562 -0.040467773
-0.046463475 -0.013726542 -0.022283118 -0.011628147 0.03191011 0.031705804 0.010495041 0.05260449
-0.016747542 -0.020517224 -0.053416785 -0.010985165 0.01376524 -0.071588874 -0.058270667 0.10759331
0.036929578 -0.008702513 -0.039878782 0.050740432 -0.017079249 0.027567977 0.13362181 -0.041324414
0.0071878335 0.03733038 -0.09574211 0.0076043196 0.03543901 -0.038507096 0.06626238 0.06700558
-0.017407274 0.05174183 -0.1388008 0.046188563 -0.04134297 0.106125675 -0.02969467 -0.039251067
0.028785618 0.08631134 0.031299382 0.02325663 0.04239408 -0.031316396 0.026339088 -0.031142412
0.094352275 -0.06033697 -0.038084704 -0.020305356 -0.05578645 0.0040083285 -0.069742106 -0.029775163
0.03180172 -0.007159079 0.083570436 -0.019943627 0.07837416 0.069792666 0.079371154 -0.07065683
0.023159645 -0.030359915 -0.0019794253 0.03316108 -0.00561352 -0.07737219 -0.0068189907 0.08196171
0.11030623 -0.03177876 -0.0041153496 0.103259355 0.023022398 0.04442475 0.054777555 0.08528257
0.03651472 -0.008591934 0.0986956 -0.04916052 -0.0018145667 -0.009780147 -0.12928687 -0.042942286
0.0905539 -0.05734074 -0.088404186 -0.10087417 -0.034856126 0.097720996 -0.07625539 -0.08874352
0.132338 0.019351128 0.04568946 0.016057538 0.0014021308 0.037451237 0.011659143 0.068923794
0.028299032 0.06422623 -0.018513655 -0.023208164 0.053175226 0.037742067 0.09967935 -0.04711057
-0.01727918 -0.060531493 -0.010332961 -0.05868859 -0.004620388 -0.10682195 -0.15115614 0.033728957
-0.0027044509 0.004321116 -0.01393329 0.06062359 0.07610674 0.020993782 -0.0085373325 0.061316423
0.017117608 0.039248273 0.081157565 0.036651663 0.007017286 0.083254516 -0.0033257476 0.10186075
0.051185366 -0.0129535 0.03504756 0.033809174 0.00244905 -0.06911592 -0.05158024 -0.07321388
-0.069270015 -0.045558784 0.017330533 -0.004361325 0.06410597 0.014623311 0.00747654 0.061309863
0.06233346 -0.07275805 0.07165893 -0.078562535 0.056026626 0.08138382 -0.10534758 0.072863266
0.012595121 0.0156123135 -0.05504013 0.012407785 0.031204458 0.06329609 0.06621952 0.012117156
-0.0072822534 0.112964496 -0.023387786 0.040189028 -0.025975477 -0.050621442 0.018406332 -0.0051044933
-0.021956954 -0.082789555 0.06663098 -0.036316704 -0.067917846 0.0042013815 -0.012507889 0.03403772

unet_model.dec.0.main.bias f4 [32]
00000000: d9d4 c1bd 63f6 7bbd 2fcf 50bd f7d9 20bd
00000010: b2a1 1f3d 88c2 993c 7540 2e3d 8938 5fbd
00000020: 34d5 29bc ecd6 873c 9e5b 75bc 9c08 9d3c
00000030: 8164 623c cf77 d73c c508 64bd 7b29 afbc
00000040: fa2e 47bd 7505 9b3c 9ed2 77bc 2d88 29bd
00000050: 6309 3b3d b44c eeba 91c8 bcbd 7df0 493d
00000060: 2912 f13c 2e52 aa3c ed39 a43c 61af 67bc
00000070: aa55 bf3c 20ba 7abc e189 9cbc 1502 0cbd
-0.094644256 -0.06151427 -0.050978836 -0.039270367 0.038972564 0.018769518 0.04254194 -0.054497276
-0.010365773 0.016581975 -0.0149754565 0.019169144 0.013817907 0.026302246 -0.055672426 -0.021382084
-0.048628785 0.0189235 -0.015125899 -0.041389633 0.04566325 -0.0018180818 -0.092179425 0.049301613
0.029427605 0.02079114 0.020047152 -0.014140935 0.023356277 -0.015303165 -0.019108715 -0.034181673

unet_model.dec.1.main.weight f4 [32, 64, 3, 3]
00000000: ff39 efbc db16 a4bb 8217 42bd 66a7 74ba
00000010: 52d2 2f3c e42e 0fbd 9502 113c c1c0 47bc
00000020: 88e1 ea3c 6efa 743d af31 8fbd 52e6 cdbb
00000030: 6a11 67bd 1d22 29bd bb26 cfbc 061b 86bd
00000040: d5ec 85bd 4d10 57bc c844 abbc 6165 7a3c
00000050: 8a26 383d 7d33 25bc 4b73 1e3d acd2 b53c
00000060: d5d0 05bc a680 ab3d e95a cf3c 1c62 093d
00000070: 934f 32bc 8779 9dbc 31c7 7fbd c3f2 83bd
00000080: 7a8e 23bd 9a82 1abd fbdd c5bc f186 1139
00000090: e92a 813b 0ba6 233d f190 553c a2e4 9b3c
000000a0: 5f99 3d3d befc 6c3d 837c cc3d e796 933d
000000b0: b757 313d f6ed a03d 72f5 75bc 21d1 a9bc
000000c0: 093b ba3d 1665 ba3c 9cbc ad3c 8eb6 4a3c
000000d0: 74e6 b1bc d28d f3bc ed82 16bd 673e c9bc
000000e0: 5e6a 79bd c4cf 3dbb 7590 ff3b 05e2 2e3d
000000f0: 7598 a1bd 43ba d0bc a45e 833c 87d4 64bd
00000100: b8e3 f83c df97 b43c d68b afbd 2b70 ec3c
00000110: e6b7 3c3c eef2 d4bc e77f f9bc b198 5e3b
00000120: d8bb 90bd 9e53 4bbd b3e9 7ebc 4020 c4bd
00000130: 5c7b a5bc f05e 7e3c 4136 edbd 689a 18bd
00000140: cfde 06bc 74c7 9dbc bca9 30bd 63e9 acbc
00000150: 87de 33bd a4f7 b6bc 678a 993b 7a72 09be
00000160: 9397 29bd 961f 11bd c8b8 883d b005 a1bd
00000170: 5a0a a2bd 445f 8e3b 1d09 39bd 43b8 3cbd
00000180: c361 453b c9bd c3bd 2942 85bd af0d 97bd
00000190: 612c 16bb 869f a3bd cc04 1ebd 137c 41bd
000001a0: 0d06 ecbc 45d2 53bd 2976 1abd 7d02 a53b
000001b0: 678b 793d 21e4 f03c 22d1 a83d f063 533d
000001c0: 7998 393d 13d8 1f3d 9f24 a13d ca1f 333d
000001d0: 5a5e 563d 92ce 0c3d 2799 2a3d a66f 84bd
000001e0: 08d5 c23c 9816 3bbd 7abd a1bd 6c5f aa3c
000001f0: ccbb 63bc 2c0f 843c a2bf bdbc 644c 8abc
00000200: e465 a3bc acd5 33bc 7274 14bd 5e89 5c3c
00000210: 1914 00bd 739a ca3c 2c88 81bc f82d 523d
00000220: 128b 993c 4d80 5cbc 2034 d93d 2c6c c5bc
00000230: 1d04 17bc d744 d3bc 025a 3ebc c655 17bc
00000240: 0a44 8bbd 9fe5 85bd b728 04bd 0cc0 70bd
00000250: 0511 68bd cf0e b03b ba04 07bd 4531 51bc
00000260: f4b2 d03c f955 72bc f104 27bb d1c8 a4bc
00000270: 90c3 b9bd 1fe7 32bd bf82 a0bb 976d 20bd
00000280: 2920 cabc 7c64 89bc 9bc3 743b d77e 2d3d
00000290: 62ca 873d e8ec 1ebd b4c9 773d 4ebb a43c
000002a0: 8c64 37bd 90bb e33c 24bc 6d3d 9563 06bd
000002b0: 4b71 82bc 350f 0d3c 43b9 2ebd 08e5 41bd
000002c0: 4eb6 67bd 0d25 bbbd eca0 b8bd d98c adbc
000002d0: 6d16 ccbb 417f edbc 422b da3a 6905 3cbd
000002e0: 80b8 febb c485 303c 3e9d ecbc 248d 12bd
000002f0: f1f8 0b3c b895 57bc 0c16 d7ba 67a3 303d
00000300: d35f 2e3c 292e efbb 04e9 24bc 25a8 703d
00000310: 3c9b 973c 6061 253d 8a04 c9bc f8de 9bbd
00000320: 2c9e e0bc 64bd 56bd c59a 2cbb e218 8e3b
00000330: bf7b cdbc 626f c1bc 1deb e53c 3a5e 4cbc
00000340: 15d8 16bd b1ef bbbc adac 613d 0ff1 843b
00000350: 4c66 7ebd 1201 7d3d 5caf 313c a655 abbc
00000360: 3e82 bcbd c5a8 01bd b64b 943c c341 97bd
00000370: cc53 09bd 05b4 3f3d 0832 e8bc 6259 ac3b
00000380: 3040 dcbc 1e9a a83d 720f 523d b417 533c
00000390: 4dda 5d3d 3534 d53b 5359 273d 1b60 4d3d
000003a0: 73b7 433c fe27 ca3c aaa6 843c d583 8abb
000003b0: e324 06bd f60d acbc a8b8 963c 3e61 0d3c
000003c0: 71e0 7e3d 4596 3d3d db35 05bd b107 9d3d
000003d0: b88c c8bc f26f 393d 9812 dd3c 0428 7ebb
000003e0: 7c6b 8abb f36d a93a 09fd b3bc 9ec1 ddbc
000003f0: 739f bd3d a30d 333c 650e 273d a0fa 163c
-0.02920246 -0.0050076074 -0.0473857 -0.00093328056 0.010731297 -0.034956828 0.008850713 -0.012191952
0.028671995 0.05980914 -0.06991898 -0.00628356 -0.05641309 -0.0412923 -0.025287023 -0.06548123
-0.06539313 -0.013126445 -0.02090682 0.01528296 0.04495863 -0.010083077 0.03868417 0.022195183
-0.008167465 0.08374147 0.025311904 0.03354083 -0.01088323 -0.019222988 -0.062445823 -0.064427875
-0.039930798 -0.037722208 -0.0241537 0.00013878547 0.003941883 0.039953273 0.013035045 0.019029919
0.046288844 0.05785822 0.09984686 0.07206517 0.043296542 0.078578874 -0.015012132 -0.020729603
0.09093291 0.02275328 0.0212081 0.012372626 -0.021716334 -0.029730711 -0.036745954 -0.024565889
-0.060892455 -0.002896295 0.007799203 0.042696018 -0.07890407 -0.025479442 0.01603634 -0.055866744
0.030382022 0.022045074 -0.085715935 0.02886208 0.011518454 -0.025994744 -0.030456496 0.0033965523
-0.07067078 -0.04964029 -0.015558648 -0.09576464 -0.020200424 0.015525565 -0.11582614 -0.03725663
-0.008231833 -0.019260146 -0.04313062 -0.021107381 -0.04391339 -0.022334881 0.0046856883 -0.13422576
-0.041404318 -0.035430513 0.06675869 -0.07862413 -0.07912131 0.0043448526 -0.045174707 -0.046074163
0.0030118085 -0.09557683 -0.0650676 -0.07375657 -0.0022914635 -0.07989411 -0.038578793 -0.047237467
-0.028811479 -0.0517142 -0.037710343 0.005035697 0.06092396 0.029405655 0.08243014 0.05160898
0.045311425 0.039024424 0.07868313 0.04373149 0.052336074 0.03437669 0.041649964 -0.06466608
0.023783222 -0.045675844 -0.07897468 0.020797454 -0.013899755 0.016120516 -0.023162667 -0.016882129
-0.019946046 -0.010976236 -0.036243863 0.013460485 -0.031269167 0.02473185 -0.015812002 0.05131337
0.018743072 -0.013458324 0.10605645 -0.024099432 -0.009217289 -0.025789661 -0.011618139 -0.009236759
-0.06800087 -0.065379374 -0.03226539 -0.0587769 -0.056656856 0.005372859 -0.032963492 -0.012768094
0.025475956 -0.014791005 -0.0025485123 -0.020115288 -0.09070504 -0.043677446 -0.0048983986 -0.039167013
-0.024673538 -0.016771547 0.0037348035 0.042357292 0.06630398 -0.03880015 0.060495093 0.020108845
-0.044773623 0.027799398 0.058040753 -0.032809813 -0.015923163 0.008609583 -0.042657148 -0.04733756
-0.056570344 -0.09137926 -0.090150684 -0.021185325 -0.0062282593 -0.028991343 0.0016644972 -0.045903597
-0.007773459 0.01077408 -0.028883573 -0.035779133 0.008543239 -0.013158254 -0.0016409769 0.043124583
0.010642963 -0.007299204 -0.010065321 0.058754105 0.018506639 0.040376067 -0.024538297 -0.07610887
-0.027419172 -0.05242671 -0.0026337367 0.0043364624 -0.02508342 -0.023612682 0.028066212 -0.012473637
-0.036827166 -0.022941442 0.055096317 0.0040570567 -0.062109277 0.0617686 0.010845032 -0.020914864
-0.09204529 -0.03165509 0.018102508 -0.0738559 -0.03352718 0.04680254 -0.02834417 0.0052596787
-0.026886076 0.082325205 0.05128426 0.012884069 0.054163266 0.0065064677 0.04085667 0.05014048
0.011945593 0.024677273 0.016192753 -0.0042271414 -0.03275002 -0.02100275 0.018398598 0.008629141
0.062225763 0.046285886 -0.032522064 0.07667483 -0.024481162 0.045272775 0.026986405 -0.0038781175
-0.004224239 0.0012926444 -0.021971243 -0.027069863 0.09258928 0.010928544 0.040785212 0.009215027

unet_model.dec.1.main.bias f4 [32]
00000000: d06b 343c e96d d03c 55a8 3ebd eb83 94bc
00000010: 4a3e e4bc ed71 353d ddfc 1e3d 90fa 90bc
00000020: ef63 60bc 0bff 16bd e117 9abd 716f 3ebb
00000030: d761 ebbd 5af7 693c 03cf c93a 92d5 31bc
00000040: 6b4c 9a3c 132a 33bd 21f4 ae3c f8b1 3fbd
00000050: 4382 d4bc 7205 193b e9f0 b93c 3a6b 01bc
00000060: 9841 e7bc 7da3 8b3b 4b3d d8bd e4c7 e0bc
00000070: f827 7e3d ca16 103d fb64 25bd c8ff 0d3d
0.011012033 0.025443034 -0.046547253 -0.01812931 -0.027861733 0.0442981 0.038815368 -0.017697603
-0.013695701 -0.03686432 -0.07524086 -0.0029058123 -0.11493271 0.014280165 0.0015396777 -0.010854142
0.018835267 -0.043741297 0.021356644 -0.046800584 -0.02594102 0.0023349193 0.022697883 -0.0078991
-0.02822952 0.0042614327 -0.10558566 -0.027439065 0.062049836 0.035177983 -0.040379506 0.03466776

unet_model.dec.2.main.weight f4 [32, 64, 3, 3]
00000000: 1a32 00bd 9ba2 71bc b87b 93bd 716a 45bd
00000010: f1f4 1f3a 4e5a 92bc 039e 64bd fbe6 79bd
00000020: 8962 eabc 235e cebc 7a84 41bc eec3 293d
00000030: c286 13bc 68a2 463b f31d b4bc 647e 323c
00000040: f0ec 4dbc e6ab 2fba 9323 653d 7e12 fa3b
00000050: 0aa5 283c 9866 f73c 05a6 4a3d 5833 1fbc
00000060: 34ed edbb 3afd 283c 726d a33b 5c05 ebbb
00000070: 4414 1d3d 64fd de3c 631d 5dbd 4547 43bd
00000080: 91aa de3c fd94 debb 5526 353a 2842 6d3d
00000090: 6de8 00bc 1850 833b 8e7a 32bc c178 9ebc
000000a0: 1c78 8f3c cdcf b0bc 5e3b 3eba 393b 9b3b
000000b0: d199 efbc 37fa 7bbc 08ba 033d 3829 f6bc
000000c0: 4efa 27bd d12c 723c 4ee9 193b 9ad7 cabc
000000d0: 03e8 25bd 2a8d 3ebc 78b5 ce3c 52a7 a5bc
000000e0: 2379 69bc a510 da3b f370 6c3c 4355 b7ba
000000f0: a0e2 233d 068d 56bc b0a4 3abd 7352 ab3c
00000100: 3efd 153c 7178 05bd a714 f53a e0a5 383c
00000110: b5f5 293c 0775 8b3b 66ee f13c ae96 19bc
00000120: ac3f 07bd 19df f03c 67e4 6e3d 5ac3 a43b
00000130: 45ce 53bc c041 003c f819 f13c 0751 803c
00000140: a73c e73b c1f0 a8ba b049 db3b 29aa d63c
00000150: 00c5 0e3d d634 abbc 578e 223d 7352 6b3b
00000160: 4e2b 25bd f8ac 5cbc c67b b7bc 620f abbb
00000170: 8910 2ebd 9499 00bc 6e4a 68bd 528c a2bc
00000180: 92c0 0abd 22e2 e0bc 12ec 2fbd 86dd 60bd
00000190: deb8 813c 9f2b 73bd 19ee cabc 90b0 603b
000001a0: 4691 50bd 5a9f bdbc 8ba1 20bd 8c81 c3bd
000001b0: 9550 2dbc 1913 eabc 75bf 0dbd fc3c 5a3c
000001c0: c6bf 1ebd 5ea8 46bb 3b09 b3bc 27be 13bc
000001d0: 7d5d bf3c 3b7d b7bc 2448 02bc 58b6 1abd
000001e0: 4b3e 76bd 152c 8bbd cf15 a6bb 09e7 1ebd
000001f0: 9e3f 7e39 86e7 57bc 54d3 1fbd 3ac7 9d3c
00000200: 928c 283d bb27 03bc 8690 f23c 1e91 fdbc
00000210: c058 e13c cc00 9dbc 4e85 c8bc 1ace 05bd
00000220: c30b 71bd 97f9 3fbd b9ac c8bc a43d 253c
00000230: 1b21 9dbd 1c65 8dbd 09ea a3bb b4c2 a5bc
00000240: ff87 e93a 4678 7fbc 35b9 a13b 7323 1e3c
00000250: d3a2 8a3c 5b9f 013d c0de 5f3d b287 a0bb
00000260: cdc7 6e3d c2f4 0abd 0cd1 3abd babc 38bd
00000270: 9bca 103d 9ad2 83bc 0edd 80bb ce4b 533c
00000280: d6b8 ccbc 4cf0 c8bc 0f2b 063d 4329 143d
00000290: 605e 8cbc 9758 9f3c 5079 0a3d 640c 81bb
000002a0: 5690 1dbd b6ec 163c 8530 a9bc 1237 083d
000002b0: d71c 5b3d f86a f23b ae4e 03bd 1c4b 1d3d
000002c0: a015 393d 3a62 14bd b2c2 92bb 122b 573b
000002d0: efc0 bb3c 0c07 0dbd 0ba5 b0bc d3b9 71bc
000002e0: 4205 d93c 8a46 20bd 360b 493b 57d5 09bd
000002f0: f23f ffbd 6b4f 27bd 7c81 313d 5058 ffbc
00000300: e086 333c 1ccf d93c 6b7e bb3b 24bf 3bbd
00000310: bf7b c13b a846 17bc f8a7 06bd 67a6 32bd
00000320: 4a30 463d f4a7 0bbc d543 97bd e182 72bc
00000330: b083 9bbc b900 54bd 1534 86bc cd7f 2abd
00000340: 2c90 5b3d e366 f9bc 92b2 d63c 8bb0 383c
00000350: 37e1 073d e6f7 213c 7b71 3b3a f228 1dbd
00000360: a87a c9bb 2652 fd3c d92f bd3c 2986 0f3d
00000370: ab73 6b3d cb24 74bc d666 ac3c 85fb 483c
00000380: 8965 9d3c 65a8 a53c 0ae1 46bc 8d50 363c
00000390: bb8c d83c 7b24 a13c 88db 1f3c 1d06 21bd
000003a0: f4b9 033d 2205 2a3d bf9e 3dbc 1960 ca3c
000003b0: 2a97 87bc 24b7 4dbc 831e 97bc e3a5 22bd
000003c0: 9e5c 8ebd 50f8 9fbc fa30 11bd 3c0b afbb
000003d0: 0893 7fbd 9676 65bd e784 5cbd b641 8b3b
000003e0: 8fd0 69bc 176a b7bb 2b95 28bd d16d a9bc
000003f0: cf71 81bc aa3c 673c 1daa a13c 11a7 3dbd
-0.03129778 -0.014748241 -0.07201332 -0.048197214 0.0006101868 -0.017865326 -0.055814754 -0.061011296
-0.028611438 -0.025191372 -0.01181137 0.04144662 -0.009004297 0.0030309204 -0.021986937 0.010894392
-0.012568697 -0.0006701335 0.05594213 0.007631599 0.010293255 0.030200288 0.049474735 -0.009716831
-0.007260943 0.01031428 0.004987412 -0.0071722697 0.038349405 0.027220435 -0.053983103 -0.04767539
0.027180942 -0.006792663 0.0006910314 0.05792442 -0.007867915 0.0040073507 -0.010893477 -0.01934469
0.017513327 -0.021583462 -0.0007256771 0.0047372845 -0.02924815 -0.01537948 0.032159835 -0.030048952
-0.041010194 0.014781193 0.0023485008 -0.02476101 -0.040504467 -0.011630336 0.025233015 -0.020221386
-0.014250073 0.006654816 0.014431226 -0.0013987202 0.04001105 -0.013095146 -0.045567214 0.020913338
0.009154616 -0.032585565 0.0018698171 0.011270016 0.0103735225 0.004255894 0.029532623 -0.009374304
-0.033019707 0.029403256 0.05832329 0.0050281705 -0.012927596 0.007828176 0.029431328 0.015663637
0.007056791 -0.0012889133 0.006692134 0.026204186 0.034855843 -0.020899218 0.039686527 0.0035907298
-0.0403245 -0.013468973 -0.022397887 -0.0052203396 -0.042496238 -0.007849116 -0.056711607 -0.0198423
-0.033875056 -0.027451579 -0.042949744 -0.05489876 0.015835222 -0.059367772 -0.024771737 0.0034284927
-0.050919794 -0.023147274 -0.03921656 -0.095461935 -0.010578294 -0.02857356 -0.034606416 0.013320204
-0.03875711 -0.0030312757 -0.021854987 -0.009017504 0.023360008 -0.022398582 -0.00795177 -0.037771553
-0.060118 -0.06795517 -0.0050685178 -0.03879455 0.00024247027 -0.013177758 -0.039019898 0.019260038
0.041149683 -0.008005078 0.02960993 -0.030952986 0.02750814 -0.019165419 -0.024477627 -0.032667257
-0.058849107 -0.046868887 -0.024496423 0.010085497 -0.0767233 -0.06904051 -0.0050022644 -0.020234443
0.0017817019 -0.01559264 0.0049354085 0.009652006 0.016923344 0.031646114 0.05465579 -0.0048989886
0.058296014 -0.033924825 -0.04560952 -0.04510186 0.03534947 -0.016091634 -0.003932602 0.012896491
-0.02499048 -0.024528645 0.032755908 0.036172163 -0.017134845 0.019451423 0.0338071 -0.0039382447
-0.038467728 0.00921171 -0.020653019 0.033255644 0.0534943 0.0073980056 -0.032057457 0.038401708
0.04518664 -0.03622649 -0.004478776 0.0032832068 0.022919146 -0.03443055 -0.021563074 -0.014753777
0.026491765 -0.03912977 0.0030676848 -0.033650722 -0.124633685 -0.040847223 0.043336377 -0.03117004
0.01095745 0.026588015 0.0057218573 -0.045836583 0.0059046443 -0.009233154 -0.03287503 -0.043615725
0.048385896 -0.00852393 -0.07385985 -0.014801712 -0.018983692 -0.0517585 -0.016382257 -0.041625787
0.05360429 -0.030444568 0.026208196 0.01127256 0.033173766 0.009885764 0.0007150394 -0.038369127
-0.006148655 0.03092296 0.023094105 0.035040054 0.057483356 -0.01490135 0.02104513 0.012266998
0.019213455 0.020221898 -0.012138614 0.011127603 0.026434293 0.019670716 0.00975693 -0.03931247
0.03215976 0.0415088 -0.011573493 0.024704026 -0.016551573 -0.012555871 -0.018447166 -0.039708983
-0.06951259 -0.019527584 -0.0354471 -0.0053419154 -0.06239608 -0.056021295 -0.053837683 0.0042497767
-0.014270916 -0.0055973637 -0.041157883 -0.020682247 -0.015801338 0.0141135845 0.019734437 -0.046301905

unet_model.dec.2.main.bias f4 [32]
00000000: c9e3 d13b 05fe 45bd 0e31 f3bd 8054 04ba
00000010: 356e 763a 10e1 94bc 63b2 573d 9db9 e3bd
00000020: ffd4 c03b d87c c73c 7d1c ff3c 7e5e 113c
00000030: 8b66 303d 0590 243d 9098 873b c7d8 803c
00000040: 6592 4ebc 1543 9d3b 2c0a 2638 d534 5f3d
00000050: 3aa7 d3bd 21bd 2fbd 67ee c7bc e537 6bbc
00000060: ecfa 183b 30d2 193d cf40 bebc f1b4 b03d
00000070: 601e e13c 45a7 803d cbac 1f3d d4c9 553c
0.006405328 -0.048337955 -0.11874591 -0.0005047992 0.00094005774 -0.018173724 0.052660357 -0.11119387
0.005884766 0.024351522 0.031141514 0.008872626 0.043066543 0.04017641 0.00413806 0.015728367
-0.012608145 0.0047992566 3.9586957e-05 0.054493744 -0.1033463 -0.042904977 -0.024405671 -0.014356588
0.002334292 0.037553966 -0.023224263 0.08628262 0.027480304 0.06281904 0.038983148 0.013048608
